Weight_Files/PredictionDecoder(Velocity)_trained_on_2D/vae_net_prediction_decoder_thrust.pth (torch_old, 46172 bytes, 11 tensors)

fc_lat.weight f4 [400, 4]
0.15995294 0.3097788 -0.12882906 0.2925067 -0.2016259 0.105639026 0.15966403 -0.4429879
-0.31690484 0.23412275 -0.08680332 0.31247026 -0.5666675 -0.5049492 -0.17112698 -0.52601653
0.03266728 0.2909661 0.07389587 0.22919011 -0.2618992 0.20194663 -0.09846864 -0.5808445
-0.2647528 0.33584508 0.09393069 -0.15731788 0.008464871 -0.10950638 0.2141148 0.18501423
-0.61847264 0.30577472 0.18800704 -0.120914504 0.6436726 -0.13075285 0.15005809 0.08528079
-0.24877685 -0.33995432 0.31367353 0.3121033 -0.2676315 -0.3080258 -0.49991718 0.31842473
-0.44426173 0.28583676 -0.30918258 0.31761628 0.6007578 0.04645544 0.11326419 -0.042710114
-0.09086919 -0.4430038 0.00046162904 -0.44246536 -0.22380354 -0.27334967 0.3816226 -0.17098352
-0.04535259 -0.44394088 -0.23362043 -0.24852377 0.20699424 0.49031723 -0.056327045 0.38616222
0.33327404 -0.35757896 -0.26621118 -0.43097493 -0.58341235 -0.09870301 0.12071881 -0.46833476
-0.29941827 -0.13867904 0.014222349 0.1882546 -0.32833755 0.3433119 -0.21798873 -0.015146792
-0.32470858 0.28170508 0.36337054 0.4943745 0.5970359 0.06967344 -0.19921575 -0.013566312
-0.25973353 -0.50991416 -0.11601751 -0.17559716 -0.30591056 -0.43287495 0.42624095 -0.23415022
-0.4833056 -0.40018347 0.19464518 -0.26621032 -0.17469703 -0.091628544 0.36607167 -0.24820147
0.25676078 -0.16696882 0.38905066 0.4170677 -0.07113016 -0.18822736 -0.106087565 0.48704112
-0.4938148 0.013846242 -0.28045192 0.3791451 0.016291996 -0.40081355 0.23412476 0.35944727
-0.41936216 -0.37270328 0.3461549 0.1695176 0.21960497 0.35673064 0.098537266 0.27642298
-0.0912969 -0.3513233 -0.40678942 0.16683319 0.6241445 0.14143385 0.054708168 -0.43071148
-0.06644362 0.28927565 -0.04255134 -0.28698498 0.011378288 0.058234334 -0.11705774 0.32424682
-0.1531685 0.12412685 -0.45633447 0.4414096 -0.43941507 0.21815686 -0.30965725 -0.11884046
0.566327 0.14905904 0.29369187 0.4107083 -0.3892455 -0.10461955 -0.22328334 -0.3056353
-0.057176128 -0.503606 0.32091808 -0.13962696 -0.45230302 -0.1587658 -0.13004968 -0.28317398
0.6604316 0.0064571085 -0.12296264 -0.028056258 -0.11518343 -0.06758833 -0.36173823 -0.52531
-0.2500117 -0.52512395 0.16649722 0.13191666 0.24925531 0.08700526 0.11977709 0.12454645
0.28289032 -0.18088098 0.1487769 0.1175616 -0.4039809 0.38233256 0.00066655874 0.4252761
0.062294554 -0.47477514 0.37440526 0.23778501 -0.23579575 0.22697344 -0.4945285 -0.56479526
-0.096339695 -0.17780158 -0.010192636 -0.2927745 -0.31336743 0.3464083 -0.2905911 -0.5415484
0.5550119 -0.028275726 0.17692713 0.069473505 0.26536894 -0.23172046 -0.22838682 -0.3701717
-0.30005276 -0.32278076 -0.35325295 0.39290652 -0.28519422 -0.10890443 0.025519801 -0.10564808
-0.45160708 -0.28633094 -0.030691553 0.15543932 -0.2557208 0.45468533 -0.40785414 0.3887503
-0.31241086 -0.32302505 0.085459866 0.30124295 0.43473038 0.03464862 0.40063712 0.14544164
0.1042071 -0.25388646 -0.4686923 -0.0056391307 0.29169145 0.33147684 -0.024316391 -0.27289996
00000000: b4ca 233e 549b 9e3e c4eb 03be 70c3 953e
00000010: 0577 4ebe 4659 d83d f87e 233e 4fcf e2be
00000020: 5a41 a2be e0bd 6f3e f0c5 b1bd 1afc 9f3e
00000030: 1f11 11bf 5a44 01bf e93b 2fbe 05a9 06bf
00000040: 20ce 053d 82f9 943e b856 973d d0b0 6a3e
00000050: a717 86be 19cb 4e3e eda9 c9bd 3ab2 14bf
00000060: ae8d 87be e3f3 ab3e bc5e c03d f017 21be
00000070: 3eb0 0a3c e244 e0bd e940 5b3e 5f74 3d3e
00000080: 3954 1ebf 818e 9c3e eb84 403e 06a2 f7bd
00000090: bac7 243f 13e4 05be d4a8 193e b2a7 ae3d
000000a0: 5cbf 7ebe 7e0e aebe d199 a03e 01cc 9f3e
000000b0: ff06 89be 8fb5 9dbe 25f5 ffbe 9108 a33e
000000c0: 4676 e3be 3259 923e 2e4d 9ebe 9a9e a23e
000000d0: 43cb 193f 0f48 3e3d 0ef7 e73d cdf0 2ebd
000000e0: a019 babd 65d1 e2be cd06 f239 d28a e2be
000000f0: c12c 65be 7df4 8bbe 0a64 c33e 4e16 2fbe
00000100: a3c3 39bd 384c e3be 323a 6fbe 047d 7ebe
00000110: 4cf6 533e dc0a fb3e 30b7 66bd 0eb7 c53e
00000120: e5a2 aa3e 9714 b7be d54c 88be bfa8 dcbe
00000130: 835a 15bf ce24 cabd 6c3b f73d 93c9 efbe
00000140: 5a4d 99be e101 0ebe db04 693c d0c5 403e
00000150: dc1b a8be 94c6 af3e 7038 5fbe 402a 78bc
00000160: 3440 a6be a63b 903e b40b ba3e a81e fd3e
00000170: 58d7 183f f3b0 8e3d 37ff 4bbe 3d45 5ebc
00000180: cbfb 84be bc89 02bf 979a edbd becf 33be
00000190: 4fa0 9cbe c9a1 ddbe 413c da3e 13c5 6fbe
000001a0: d573 f7be d9e4 ccbe 1151 473e b84c 88be
000001b0: c7e3 32be bfa7 bbbd bf6d bb3e 8728 7ebe
000001c0: 2676 833e e0f9 2abe a631 c73e e689 d53e
000001d0: b0ac 91bd acbe 40be 7044 d9bd 745d f93e
000001e0: 4bd5 fcbe 59db 623c 6597 8fbe 4e1f c23e
000001f0: cb76 853c 6f37 cdbe 67be 6f3e 7909 b83e
00000200: a3b6 d6be f7d2 bebe 373b b13e 0696 2d3e
00000210: 20e0 603e 66a5 b63e e8cd c93d 5087 8d3e
00000220: def9 babd a6e0 b3be b446 d0be 52d6 2a3e
00000230: efc7 1f3f 09d4 103e ac15 603d 3786 dcbe
00000240: 9813 88bd f01b 943e 504a 2ebd b2ef 92be
00000250: 006c 3a3c 2087 6e3d f8bb efbd ae03 a63e
00000260: 34d8 1cbe 3836 fe3d aca4 e9be 7000 e23e
00000270: 03fb e0be 8364 5f3e 658b 9ebe a162 f3bd
00000280: cefa 103f efa2 183e c85e 963e 5c48 d23e
00000290: 304b c7be c642 d6bd 63a4 64be 3b7c 9cbe
000002a0: 8431 6abd 53ec 00bf 604f a43e 5ffa 0ebe
000002b0: 4394 e7be 8093 22be be2b 05be 2efc 90be
000002c0: 0c12 293f 2796 d33b d6d3 fbbd 3dd6 e5bc
000002d0: 4ae5 ebbd c06b 8abd c135 b9be b77a 06bf
000002e0: 8901 80be 866e 06bf 3f7e 2a3e 2915 073e
000002f0: c93c 7f3e d02f b23d b14d f53d 3612 ff3d
00000300: 00d7 903e dd38 39be f958 183e 23c4 f03d
00000310: 96d6 cebe 18c1 c33e 00bc 2e3a cabd d93e
00000320: 9328 7f3d ba15 f3be 0cb2 bf3e ea7d 733e
00000330: 7174 71be ba6b 683e d732 fdbe 6c96 10bf
00000340: bf4d c5bd 9e11 36be 04ff 26bc 8ae6 95be
00000350: b271 a0be 6e5c b13e 5bc8 94be eaa2 0abf
00000360: 4315 0e3f 7fa2 e7bc 632c 353e 2048 8e3d
00000370: 70de 873e 2148 6dbe 3cde 69be 2587 bdbe
00000380: 84a0 99be 8543 a5be 92dd b4be 0b2b c93e
00000390: fa04 92be 4909 dfbd e70e d13c 055e d8bd
000003a0: 0b39 e7be f899 92be da6c fbbc 7c2b 1f3e
000003b0: d6ed 82be 84cc e83e 42d2 d0be 480a c73e
000003c0: 51f4 9fbe 8a63 a5be 9505 af3d 843c 9a3e
000003d0: fb94 de3e b6eb 0d3d 4f20 cd3e a7ee 143e
000003e0: 886a d53d 68fd 81be 70f8 efbe 75c8 b8bb
000003f0: 9558 953e 55b7 a93e 2b33 c7bc 8bb9 8bbe

fc_lat.bias f4 [400]
-0.24233526 0.31269464 -0.25429928 0.11863515 -0.49208528 -0.22795735 0.24033208 -0.11980272
0.53749084 -0.32450625 0.08845247 0.6308135 -0.21005338 -0.04251879 -0.21955481 0.35004458
-0.15829943 0.24670953 -0.073359616 0.13950987 0.71339285 -0.35234797 -0.49970895 -0.13007864
-0.2993961 0.1274601 -0.03851496 0.20183213 -0.32401216 -0.3777489 0.1984429 0.35012826
0.16751464 -0.4543606 -0.2528877 -0.38039234 -0.2249139 -0.20325857 -0.42809266 -0.45328403
0.26194343 -0.23978451 -0.17707878 -0.30257136 -0.01895812 0.1936092 -0.2891763 0.11507609
-0.53139937 0.09570426 0.13697293 -0.074325085 -0.29633978 0.14935222 -0.13756289 0.15213294
-0.22945514 -0.3416974 0.13081692 0.026923478 0.08964808 -0.11408104 -0.0840308 -0.016869694
-0.47530988 -0.061843067 0.14553231 -0.24952729 -0.28301665 0.32338428 0.23935153 -0.07403917
-0.3968648 -0.38406944 0.14571099 -0.47424352 -0.23789181 0.09149578 0.082848325 0.17074125
0.45615768 -0.38436234 -0.06608726 0.19527243 -0.16259027 0.18079661 0.38770503 -0.37703943
-0.011104463 -0.2662033 -0.122831665 0.49900207 0.6335108 -0.0019241936 0.6204886 -0.06720704
0.18372986 -0.10789091 -0.4541577 0.41324186 0.5411734 0.50916487 -0.40728378 -0.3445393
0.21713513 -0.04993577 0.056751594 0.252294 0.120637596 0.46308297 0.60449743 0.49828914
-0.42487562 0.49809298 -0.27519447 0.31024653 0.31985778 0.2322893 0.108531184 0.21856855
0.41550165 0.15470631 0.5373716 0.44082358 -0.14346208 0.08129584 -0.024124146 0.4754213
0.3535011 0.36506233 -0.382095 0.20955208 0.19418699 -0.34747702 -0.16474926 -0.1827513
0.16429478 0.11055851 -0.22961402 0.44180387 0.06743007 0.24057795 0.06060368 -0.49523497
-0.008969598 -0.25734052 0.24482232 -0.12089741 0.6082267 0.50397724 0.27818248 0.25807855
0.33370742 0.35680306 0.5244842 -0.08979231 0.38387373 0.3286721 -0.31471092 -0.10262746
-0.13024114 -0.28416657 -0.2653712 -0.10493935 -0.13647854 0.30000752 0.16718335 -0.15002467
0.2854314 0.59856373 -0.40787822 -0.45214367 0.23951906 -0.37290812 -0.17426139 -0.2850423
-0.29217094 -0.40268716 -0.22285514 0.034110673 0.32987818 0.05263627 0.24278986 -0.24649
-0.32221085 -0.033205785 0.23013586 -0.18121727 -0.28437927 -0.25786608 -0.07865136 0.6526387
0.30968714 0.21244478 -0.37498295 -0.04491475 0.14336479 0.15092628 0.5763128 -0.049677867
0.57968575 -0.1977701 0.18533468 0.27144554 0.6085183 0.062081557 0.1809559 -0.38840115
-0.39664865 -0.02731545 0.19072956 -0.21439329 -0.43538618 0.4950159 -0.39289677 -0.14423811
0.09839556 -0.33372962 0.3294 0.46090505 0.27843904 0.30692917 0.4663457 -0.40665805
-0.1393384 0.16440567 -0.19375125 0.45201528 -0.050263036 0.07765108 0.021414308 0.2487117
0.10014332 0.31516623 0.42824727 -0.13619675 0.5306485 -0.38471618 -0.38499862 -0.1504604
0.4637016 -0.16689844 0.4388571 0.563066 0.08673459 -0.00075118325 0.1014092 0.2923698
0.032892283 -0.095876575 0.0774568 -0.0020350432 -0.24927908 0.0712526 0.21931739 0.37242436
00000000: bc26 78be 8319 a03e 8433 82be fcf6 f23d
00000010: 9af2 fbbe a76d 69be 9d19 763e 215b f5bd
00000020: 0099 093f af25 a6be 9226 b53d fe7c 213f
00000030: 3c18 57be 2f28 2ebd fad2 60be 0b39 b33e
00000040: 3f19 22be 6ca1 7c3e 913d 96bd addb 0e3e
00000050: eaa0 363f f466 b4be dad9 ffbe 5633 05be
00000060: 724a 99be e784 023e ddc1 1dbd 15ad 4e3e
00000070: ece4 a5be 4e68 c1be 9e34 4b3e 0344 b33e
00000080: f588 2b3e f4a1 e8be 7f7a 81be c9c2 c2be
00000090: d44f 66be 0423 50be f62e dbbe d814 e8be
000000a0: 731d 863e 128a 75be 2454 35be a2ea 9abe
000000b0: 0f4e 9bbc 7d41 463e ea0e 94be 03ad eb3d
000000c0: ca09 08bf 9800 c43d a242 0c3e c037 98bd
000000d0: d9b9 97be caef 183e 49dd 0cbe bdc8 1b3e
000000e0: 4af6 6abe f6f2 aebe dff4 053e a08e dc3c
000000f0: 6a99 b73d 52a3 e9bd 5718 acbd 5032 8abc
00000100: d15b f3be 284f 7dbd 6c06 153e 1584 7fbe
00000110: 8fe7 90be a092 a53e 9118 753e d9a1 97bd
00000120: dd31 cbbe c0a4 c4be 4335 153e 0cd0 f2be
00000130: e999 73be 2462 bb3d 62ac a93d cbd6 2e3e
00000140: 808d e93e 24cb c4be c258 87bd 7ff5 473e
00000150: 107e 26be bf22 393e 4681 c63e 500b c1be
00000160: 7eef 35bc cd4b 88be 2b8f fbbd 337d ff3e
00000170: c42d 223f 3935 fcba 57d8 1e3f d8a3 89bd
00000180: ae23 3c3e e9f5 dcbd 5c87 e8be 7094 d33e
00000190: 578a 0a3f a158 023f 8087 d0be 7567 b0be
000001a0: ac58 5e3e 7389 4cbd 5c74 683d ae2c 813e
000001b0: d810 f73d 3619 ed3e 58c0 1a3f c11f ff3e
000001c0: 4c89 d9be 0b06 ff3e 4ae6 8cbe a2d8 9e3e
000001d0: 66c4 a33e 3fdd 6d3e 9945 de3d 6fd0 5f3e
000001e0: a2bc d43e 556b 1e3e 2f91 093f a1b3 e13e
000001f0: b9e7 12be 6f7e a63d 00a0 c5bc 6c6a f33e
00000200: 19fe b43e 73e9 ba3e f5a1 c3be d294 563e
00000210: f4d8 463e 82e8 b1be 08b4 28be 2823 3bbe
00000220: e43c 283e 806c e23d f01f 6bbe 1e34 e23e
00000230: c718 8a3d 115a 763e 903b 783d 708f fdbe
00000240: 39f5 12bc 23c2 83be b4b2 7a3e 1099 f7bd
00000250: bfb4 1b3f a704 013f ef6d 8e3e df22 843e
00000260: b3db aa3e e4ae b63e 9944 063f 08e5 b7bd
00000270: 198b c43e b647 a83e ca21 a1be 592e d2bd
00000280: ef5d 05be 487e 91be bcde 87be 71ea d6bd
00000290: 08c1 0bbe 969a 993e 1d32 2b3e 11a0 19be
000002a0: 1124 923e 793b 193f 6ad5 d0be 607f e7be
000002b0: 7c44 753e d0ed bebe 9471 32be 10f1 91be
000002c0: 6e97 95be 032d cebe 2334 64be a2b7 0b3d
000002d0: cbe5 a83e 2199 573d e89d 783e e067 7cbe
000002e0: d2f8 a4be ca02 08bd bca8 6b3e 0591 39be
000002f0: 299a 91be 0607 84be f713 a1bd 5413 273f
00000300: 508f 9e3e 208b 593e c4fd bfbe 87f8 37bd
00000310: 38ce 123e 6b8c 1a3e 3c89 133f 057b 4bbd
00000320: 4966 143f 3f84 4abe 60c8 3d3e e9fa 8a3e
00000330: dbc7 1b3f 3b49 7e3d 814c 393e 84dc c6be
00000340: 8815 cbbe a7c4 dfbc 9c4e 433e ea89 5bbe
00000350: f0ea debe b972 fd3e c429 c9be 28b3 13be
00000360: 9d83 c93d 9cde aabe 1ea7 a83e bffb eb3e
00000370: 908f 8e3e d225 9d3e ddc4 ee3e 7c35 d0be
00000380: baae 0ebe f659 283e ba66 46be 8c6e e73e
00000390: 9de0 4dbd 8807 9f3d 0f6d af3c 48ae 7e3e
000003a0: f117 cd3d 785d a13e 3a43 db3e 2977 0bbe
000003b0: 95d8 073f 85f9 c4be 8a1e c5be 4b12 1abe
000003c0: 4c6a ed3e 6de7 2abe e1b1 e03e 1825 103f
000003d0: e8a1 b13d 0eeb 44ba a0af cf3d 7fb1 953e
000003e0: 0fba 063d f05a c4bd aca1 9e3d 5c5e 05bb
000003f0: 0443 7fbe e2ec 913d bd94 603e 68ae be3e

fc1.weight f4 [20, 400]
0.041977208 0.07062676 -0.03240867 0.10416313 -0.030262077 -0.11257547 -0.041317895 0.09117197
-0.052744027 -0.18859014 0.080981284 0.13486741 -0.024045218 -0.14078195 0.09913545 0.08806485
0.10647354 -0.019711489 0.040207326 0.076881 0.11256988 0.024549965 0.034838554 -0.161282
0.084679455 0.043390986 0.0529917 0.040472966 0.0060058995 0.03059927 -0.054282784 0.10211721
0.0466153 -0.020326382 0.12074776 -0.15496106 -0.044841148 -0.048325952 -0.022745436 -0.24132599
0.28484046 0.08723086 0.08716029 0.041101698 -0.110057436 0.087084964 0.11080027 0.20683248
0.048343074 0.017634932 0.026741412 -0.06967353 -0.0015756696 -0.0411917 -0.07203742 0.072097555
0.011111706 -0.025149433 0.0810549 9.72338e-05 0.11016386 -0.06754203 0.006905533 0.01793257
-0.1934881 -0.033080634 -0.043632157 0.055157635 -0.03404185 0.095955186 0.04226041 0.13938491
-0.00187993 -0.03872358 -0.113481544 -0.18641792 0.11537226 -0.10285334 0.017749365 0.08205065
0.117414944 -0.029806733 -0.11107819 0.0014795677 0.118994184 0.052269064 0.11412962 -0.043889757
-0.2393348 -0.11293774 -0.05718259 -0.030230632 0.1700527 -0.0007958228 0.12629725 -0.032210857
0.020772347 -0.089659475 0.0355287 -0.08285829 0.09482185 0.069158524 0.025767926 -0.008938041
-0.023981303 -0.0055998825 0.094574906 0.088991255 -0.017960738 -0.03180616 0.104712985 0.10359172
-0.041576922 0.08378106 0.027334604 -0.009327121 0.10005809 0.12640677 0.039052945 0.13786417
-0.17080233 0.04157663 0.08582532 -0.22384302 0.0882401 0.06430047 -0.034667306 0.018288728
0.0057364795 -0.124435686 -0.08268148 0.025153732 0.026045557 0.085152544 0.009584207 0.0012479015
-0.027316643 0.08043668 0.07524855 0.16035058 -0.14965025 0.03296224 0.017342824 0.008325983
-0.12338312 0.08882928 0.120777525 -0.011270337 0.13266134 0.06368499 0.102209926 0.07768702
-0.005411943 0.0389234 0.11127874 0.046886552 -0.10870942 0.12879406 0.0297166 0.061557475
0.025442991 0.04745427 0.009887504 0.08355544 0.019819397 0.084711805 -0.06901777 -0.09560973
0.13419685 0.07739766 -0.012491982 -0.15413176 0.11678723 -0.019156862 0.009937532 0.020891361
0.031973332 -0.03429724 0.002343305 -0.0741667 -0.025788454 -0.12668292 0.13820702 0.06632719
0.020841789 0.09604127 -0.007256694 0.0649686 0.031332 -0.13303855 -0.06917619 0.096416354
-0.059660643 -0.05080059 -0.039672792 -0.035016544 -0.007760465 0.09832614 0.08678784 -0.11440428
0.13102049 -0.10420063 0.07030606 -0.08173362 0.11433487 0.05002665 0.10282297 0.018660206
-0.043575265 0.0752248 0.043535646 -0.10011449 0.0038838792 0.08176155 -0.0037393868 -0.25418758
0.0771425 -0.034545876 0.030443061 0.10621702 -0.012107857 0.01304603 0.104029514 0.0019037537
0.023943767 0.06246636 0.0943174 -0.04749907 0.0633691 -0.2542516 0.06281223 -0.027757501
0.13531332 -0.017715931 0.023526493 -0.1159848 0.089347035 0.04350774 0.05491432 -0.03636423
0.12654988 -0.05618521 0.12563285 0.083797224 -0.027767122 0.04605191 0.023855884 0.08793916
0.14237441 0.03446946 -0.021353249 0.11790642 -0.016086616 0.09492822 0.02728809 -0.030537713
00000000: 4bf0 2b3d c3a4 903d f4be 04bd 7b53 d53d
00000010: 2de8 f7bc f88d e6bd f43c 29bd 5fb8 ba3d
00000020: 1f0a 58bd c61d 41be 84d9 a53d af1a 0a3e
00000030: 7afa c4bc 2529 10be 8707 cb3d 585b b43d
00000040: cd0e da3d fd79 a1bc 70b0 243d c973 9d3d
00000050: 0a8b e63d 021d c93c dfb2 0e3d 1c27 25be
00000060: 6c6c ad3d bfba 313d d30d 593d fbc6 253d
00000070: 23cd c43b 52ab fa3c a057 5ebd d422 d13d
00000080: afef 3e3d 8383 a6bc 9a4a f73d 1dae 1ebe
00000090: 5aab 37bd 6ff1 45bd a354 babc 291e 77be
000000a0: 9cd6 913e 18a6 b23d 1881 b23d 415a 283d
000000b0: cb65 e1bd 9a59 b23d 41eb e23d e5cb 533e
000000c0: 6303 463d 2277 903c ce10 db3c ffb0 8ebd
000000d0: b386 ceba a1b8 28bd 5b88 93bd e2a7 933d
000000e0: df0d 363c 2f06 cebc 1d00 a63d 00ea cb38
000000f0: 979d e13d 7a53 8abd cf47 e23b 53e7 923c
00000100: bf21 46be 8f7f 07bd a2b7 32bd f9ec 613d
00000110: 786f 0bbd 2784 c43d 4019 2d3d ebba 0e3e
00000120: fc67 f6ba 9e9c 1ebd 0369 e8bd 57e4 3ebe
00000130: 4b48 ec3d c6a4 d2bd 1e67 913c 2c0a a83d
00000140: 3f77 f03d 402d f4bc f67c e3bd 0eee c13a
00000150: 39b3 f33d 1618 563d cabc e93d bfc5 33bd
00000160: 2f14 75be e74b e7bd 4b38 6abd 3ba6 f7bc
00000170: 4c22 2e3e c49e 50ba 1154 013e 88ef 03bd
00000180: c52a aa3c 639f b7bd 8b86 113d 9bb1 a9bd
00000190: f531 c23d fca2 8d3d 4217 d33c dc70 12bc
000001a0: 7074 c4bc 387f b7bb 7db0 c13d 0c41 b63d
000001b0: 6622 93bc 2d47 02bd c373 d63d e527 d43d
000001c0: 904c 2abd 6895 ab3d d2ec df3c c8d0 18bc
000001d0: 42eb cc3d c770 013e fbf5 1f3d 442c 0d3e
000001e0: cee6 2ebe 424c 2a3d 2fc5 af3d 1b37 65be
000001f0: 3ab7 b43d f7af 833d 4eff 0dbd 3ed2 953c
00000200: 14f9 bb3b 23d8 febd e854 a9bd 330f ce3c
00000210: 7e5d d53c 7564 ae3d 1407 1d3c a090 a33a
00000220: 27c7 dfbc fcbb a43d e91b 9a3d f132 243e
00000230: ea3d 19be 6a03 073d 8a12 8e3c b469 083c
00000240: 4ab0 fcbd 20ec b53d 355a f73d 38a7 38bc
00000250: 60d8 073e 476d 823d 7053 d13d 5f1a 9f3d
00000260: ab56 b1bb 256e 1f3d 1ce6 e33d 1d0c 403d
00000270: 0ba3 debd 97e2 033e 3a70 f33c b123 7c3d
00000280: d26d d03c 695f 423d 33ff 213c 1d1f ab3d
00000290: 4a5c a23c 627d ad3d 3059 8dbd 09cf c3bd
000002a0: e66a 093e aa82 9e3d 2cab 4cbc b7d4 1dbe
000002b0: 252e ef3d daee 9cbc 08d1 223c 5c24 ab3c
000002c0: 78f6 023d 437b 0cbd 2292 193b b6e4 97bd
000002d0: 4f42 d3bc 2bb9 01be 2486 0d3e 8dd6 873d
000002e0: 66bc aa3c 49b1 c43d 90c9 edbb 420e 853d
000002f0: fc55 003d 423b 08be 3fac 8dbd f075 c53d
00000300: b85e 74bd 4814 50bd f07f 22bd 826d 0fbd
00000310: 804b febb 375f c93d d3bd b13d cb4c eabd
00000320: 3c2a 063e 2467 d5bd a0fc 8f3d f563 a7bd
00000330: 6628 ea3d bfe8 4c3d d994 d23d 4add 983c
00000340: fa7b 32bd 760f 9a3d 6f52 323d d308 cdbd
00000350: ae88 7e3b 9972 a73d 8010 75bb e024 82be
00000360: e3fc 9d3d fa7f 0dbd ba63 f93c 4f88 d93d
00000370: 0860 46bc 04bf 553c 6d0d d53d 6087 f93a
00000380: b825 c43c badc 7f3d 7b29 c13d 638e 42bd
00000390: a9c7 813d 442d 82be b3a3 803d b363 e3bc
000003a0: 938f 0a3e 0021 91bc a2ba c03c 7089 edbd
000003b0: 94fb b63d 2c35 323d d7ed 603d a9f2 14bd
000003c0: 4b96 013e 7622 66bd e6a5 003e e19d ab3d
000003d0: e077 e3bc eda0 3c3d 6a6d c33c 7219 b43d
000003e0: 99ca 113e d92f 0d3d 02ed aebc ec78 f13d
000003f0: 14c8 83bc ba69 c23d 468b df3c 3a2a fabc

fc1.bias f4 [20]
0.099900745 -0.040472753 0.0071705207 -0.043351974 -0.05094076 0.18009871 0.044025525 0.1307331
0.09237766 0.107839726 0.14110695 0.047848526 0.0062115793 0.1872525 0.019414019 0.006967582
-0.03815527 0.026483027 0.14072342 0.1044924
00000000: c398 cc3d c2c6 25bd b0f6 ea3b d791 31bd
00000010: 42a7 50bd cc6b 383e 1c54 343d e6de 053e
00000020: 8030 bd3d 13db dc3d 577e 103e d1fc 433d
00000030: 818a cb3b 1fbf 3f3e 260a 9f3c 5050 e43b
00000040: b348 1cbd eff2 d83c cd19 103e 1d00 d63d

conv1.weight f4 [16, 4, 3]
0.015314789 -0.14401956 -0.01981699 0.017979816 0.18891202 0.3305926 0.046413086 0.32901493
-0.062220518 0.2651294 0.011032494 -0.07938591 -0.24940486 0.09353721 -0.03447993 0.29076794
-0.08799859 -0.1529128 0.2295227 0.25296775 0.04545475 -0.11800924 0.12897983 0.10644474
0.31847343 0.23775545 0.08742431 0.29905525 0.089111894 0.095641166 0.20724744 -0.054762635
-0.06927846 0.26769185 0.31155682 0.068214394 -0.010173023 0.31006435 0.28169745 -0.088066466
0.2224864 -0.07557989 -0.1680187 0.03304158 0.1666223 0.14294067 0.061249025 0.27077356
-0.17267784 0.2631166 -0.024201429 -0.0228714 0.2326411 0.08312338 0.015591265 0.1790677
0.09208198 -0.19231515 0.10167881 -0.102065064 0.037286155 -0.2825666 -0.2034517 -0.12199529
0.1833651 -0.08963138 0.27227902 0.06844943 -0.25178447 0.0021557857 0.012419441 -0.2151738
-0.13014856 -0.20516664 -0.041456282 -0.055397484 0.1084009 0.043817762 0.19658376 -0.10066713
-0.26864645 -0.1695246 -0.19256108 0.08704869 0.037932903 -0.061277363 0.13940771 -0.07770282
-0.3075968 -0.15612797 0.010821785 0.061054423 -0.15128657 0.20858192 0.15147488 -0.17389983
-0.16778424 0.32185638 0.17875397 0.2648893 0.12411441 0.21982029 -0.025081456 -0.13933773
0.27876353 -0.14268523 -0.1247867 -0.23951256 0.24767041 -0.22069614 -0.09857324 0.03576009
-0.16002989 -0.11359173 0.22195749 -0.2613108 0.015957002 0.037198342 0.13845046 0.17228355
0.04453153 0.30636108 -0.19370842 -0.016524043 0.24850321 0.060051687 0.07063979 0.0970903
-0.0063797426 0.14301799 -0.15871835 0.012524232 0.3684953 0.020260718 -0.04207558 -0.146034
-0.06967176 0.34056225 0.061124995 0.019988446 0.28529206 0.058106348 -0.16444443 -0.10909448
-0.020424388 0.115915515 0.10745238 -0.037683968 -0.28244686 0.26360777 0.04890092 -0.019802583
-0.23862123 0.20486918 -0.022481434 0.082862765 -0.23078729 -0.12650526 0.26996863 -0.16374096
-0.12186902 0.30134225 0.22271316 -0.2717455 0.3338461 -0.06264512 0.04175496 0.11005574
0.07353454 0.033868104 -0.08344837 0.07096454 0.31031793 0.037687585 0.065225646 -0.13034807
0.31966963 0.1870554 0.34015918 0.24336702 -0.22367363 0.1301756 -0.091436446 0.1881771
-0.19372624 0.2219236 0.10486556 -0.24767587 0.057719458 0.032757066 -0.2821544 0.14907196
00000000: e1ea 7a3c dd79 13be 3d57 a2bc 684a 933c
00000010: 2772 413e 6f43 a93e a61b 3e3d a574 a83e
00000020: f1da 7ebd 0abf 873e a2c1 343c 1495 a2bd
00000030: fd63 7fbe 7090 bf3d d43a 0dbd 89df 943e
00000040: 9b38 b4bd 2c95 1cbe 0008 6b3e fd84 813e
00000050: c32e 3a3d d4ae f1bd 4a13 043e b3ff d93d
00000060: f30e a33e 2a76 733e 840b b33d c51d 993e
00000070: 4c80 b63d 84df c33d ac38 543e c94e 60bd
00000080: dee1 8dbd e80e 893e 6084 9f3e fdb3 8b3d
00000090: c0ac 26bc c1c0 9e3e a63a 903e 315c b4bd
000000a0: 7ad3 633e a1c9 9abd 180d 2cbe 9c56 073d
000000b0: 099f 2a3e 0a5f 123e 42e0 7a3d d5a2 8a3e
000000c0: 76d2 30be 38b7 863e 1342 c6bc cd5c bbbc
000000d0: 7839 6e3e 973c aa3d 8172 7f3c 865d 373e
000000e0: 7a95 bc3d 43ee 44be fb3c d03d 7d07 d1bd
000000f0: 5eb9 183d 92ac 90be a455 50be abd8 f9bd
00000100: 10c4 3b3e a890 b7bd 2868 8b3e 372f 8c3d
00000110: e5e9 80be 1548 0d3b e97a 4b3c 8556 5cbe
00000120: aa45 05be 3417 52be 10ce 29bd 79e8 62bd
00000130: 4b01 de3d 417a 333d 414d 493e 912a cebd
00000140: 078c 89be db97 2dbe bb2e 45be 9546 b23d
00000150: 885f 1b3d f9fd 7abd e5c0 0e3e a822 9fbd
00000160: 547d 9dbe 03e0 1fbe db4d 313c 3414 7a3d
00000170: deea 1abe 8096 553e 3b1c 1b3e cc12 32be
00000180: a2cf 2bbe 5cca a43e 480b 373e 929f 873e
00000190: b22f fe3d 9218 613e a077 cdbc 8dae 0ebe
000001a0: 18ba 8e3e 141c 12be 2b90 ffbd c842 75be
000001b0: 509d 7d3e 2bfe 61be c4e0 c9bd 2c79 123d
000001c0: e0de 23be c8a2 e8bd d348 633e 87ca 85be
000001d0: 42b8 823c 4a5d 183d f5c5 0d3e 196b 303e
000001e0: b266 363d 5cdb 9c3e 805b 46be 6e5d 87bc
000001f0: a077 7e3e c2f8 753d 98ab 903d 47d7 c63d
00000200: 290d d1bb 4f73 123e 1087 22be 7032 4d3c
00000210: 6aab bc3e cef9 a53c 7257 2cbd f089 15be
00000220: 11b0 8ebd 2d5e ae3e 345e 7a3d cfbe a33c
00000230: cd11 923e ec00 6e3d 1f64 28be ed6c dfbd
00000240: 0c51 a7bc 1d65 ed3d fe0f dc3d 815a 1abd
00000250: e09c 90be 99f7 863e 554c 483d 0739 a2bc
00000260: 2059 74be 3ac9 513e fc2a b8bc f4b3 a93d
00000270: 8153 6cbe 988a 01be 5439 8a3e b6ab 27be
00000280: 7796 f9bd 8849 9a3e eb0e 643e 3a22 8bbe
00000290: e0ed aa3e 164c 80bd 4007 2b3d e764 e13d
000002a0: 4799 963d 48b9 0a3d fbe6 aabd db55 913d
000002b0: fee1 9e3e 4c5e 1a3d 0695 853d f779 05be
000002c0: bdab a33e 738b 3f3e 5829 ae3e 3435 793e
000002d0: b30a 65be c14c 053e 0843 bbbd 7fb1 403e
000002e0: 2c60 46be f13f 633e c1c3 d63d be9e 7dbe
000002f0: 3d6b 6c3d 462c 063d 8b76 90be 52a6 183e

conv1.bias f4 [16]
0.33633196 0.048291333 -0.09989032 -0.08977518 0.073041804 0.46636516 0.18664378 -0.09508106
-0.09185694 -0.15834016 -0.08409661 0.33957425 0.2906408 -0.043920364 0.32057086 -0.08972095
00000000: b433 ac3e 22cd 453d 4c93 ccbd 0ddc b7bd
00000010: f196 953d 6ac7 ee3e 8c1f 3f3e dcb9 c2bd
00000020: 7e1f bcbd ec23 22be d83a acbd addc ad3e
00000030: dfce 943e d7e5 33bd dd21 a43e 9ebf b7bd

conv2.weight f4 [8, 16, 3]
0.19276164 0.032622017 -0.020504229 -0.033398382 0.10940054 -0.0011762106 0.19149935 0.088879935
0.18682751 0.072664425 0.084908314 -0.04185567 0.11442706 -0.045160975 0.04692652 0.31300747
0.08952741 0.118201956 -0.13984811 -0.06047147 -0.013808753 0.034316435 0.027038682 -0.039809205
0.04889946 0.14520846 -0.053868257 0.030858805 0.11602091 0.04159528 0.12970048 -0.003091635
-0.09960193 0.010183305 0.18325028 0.20013858 -0.080345266 0.036315925 -0.010671285 0.05616721
-0.030724889 -0.014072191 0.16138978 0.026257737 0.217348 -0.0003532877 0.027602388 0.10045254
0.18400367 0.021003505 0.21271573 0.08370343 -0.046333127 0.13916598 -0.048451293 0.13152331
0.16803358 0.16252698 0.099322535 0.032893278 0.018134318 0.11210809 -0.030261401 0.30581182
0.056135755 0.0034562224 0.11965404 0.027977843 -0.012712927 -0.01509119 -0.009225677 -0.13543877
0.13840912 0.02475976 0.035395388 0.21076447 -0.012190107 -0.0887532 0.06726266 0.09637185
0.021931188 0.18385819 0.10176639 0.20571326 -0.018744146 -0.03333807 0.007672812 -0.036835317
0.12649317 0.22833651 0.21032749 0.038236782 0.17344652 -0.06518225 0.038003173 0.1568511
-0.014148861 -0.0388065 -0.11786941 -0.0990782 -0.006953235 0.0750159 -0.047889274 -0.105972275
-0.09080817 0.04172807 -0.01625868 -0.12727806 0.07650321 -0.13973036 -0.101239994 0.107239746
0.12210471 -0.11052504 0.09994368 0.06734154 0.08435054 0.069626756 0.074576415 0.02411169
-0.07683739 0.09353218 0.07818225 -0.033455353 0.12129863 0.05305797 0.03859334 -0.07533623
-0.14530444 0.06713315 -0.12836654 0.010112092 -0.12219681 0.08955436 -0.013032897 -0.12692454
0.04634068 -0.009711561 0.0369495 -0.048395563 0.0034478493 -0.05668252 0.09004726 0.11417064
-0.05578447 0.108933315 0.08814226 0.13396178 0.08894265 0.13267234 0.051770665 -0.03448786
0.077316016 0.03841559 0.09449472 0.01773895 -0.038767543 0.07535286 -0.02944083 0.1791186
0.20155275 0.17220412 0.072354056 -0.023776485 -0.03032877 -0.12504461 0.022020414 0.069808364
-0.007879971 -0.10532531 -0.05100954 0.012523969 0.018168146 -0.13385008 0.092097126 0.0075196666
0.039666116 -0.035545405 0.18272637 -0.032623757 0.22116205 -0.05691629 -0.040286012 0.011034709
0.051614884 -0.089277215 0.16325624 -0.054841656 0.19814263 0.21811447 -0.001391149 -0.0032804017
0.15333076 0.08193721 0.0049983338 0.15017916 -0.073838025 -0.08534595 -0.004340994 0.18841794
0.029595608 0.19050121 -0.2600291 0.1581465 0.21820764 0.0012213798 -0.0469218 0.49076778
0.12502824 -0.117834754 0.14140262 0.11845577 0.23007347 -0.08665356 0.08770001 -0.0035365836
-0.08594977 0.04175565 0.115241855 -0.13790752 0.17729281 -0.12964565 0.18453021 -0.07206932
0.083678454 -0.10388287 0.15593152 0.06475463 -0.082661845 0.2921153 0.00092462916 -0.14491118
-0.17891926 0.28800794 0.14602244 -0.021895109 0.06633605 -0.04934085 0.15528768 0.27741063
0.11931788 0.1323819 -0.062721744 0.16120604 0.20213035 0.17927924 0.1842921 0.127486
0.111346655 -0.04955455 0.09963668 -0.068730436 0.15600666 0.1622455 -0.09878981 0.5429258
00000000: 4f63 453e aa9e 053d 7cf8 a7bc becc 08bd
00000010: 640d e03d 142b 9aba 6818 443e af06 b63d
00000020: b64f 3f3e 16d1 943d 69e4 ad3d da70 2bbd
00000030: bc58 ea3d b7fa 38bd 0636 403d 8442 a03e
00000040: 265a b73d de13 f23d 5834 0fbe efb0 77bd
00000050: 1c3e 62bc 648f 0c3d 3a80 dd3c fa0e 23bd
00000060: cd4a 483d 87b1 143e f6a4 5cbd 9bcb fc3c
00000070: 5f9c ed3d d05f 2a3d 34d0 043e 079d 4abb
00000080: 19fc cbbd e0d7 263c f6a5 3b3e 21f1 4c3e
00000090: 0f8c a4bd 02c0 143d 9dd6 2ebc 970f 663d
000000a0: c3b2 fbbc 0c8f 66bc 5d43 253e 771a d73c
000000b0: 7990 5e3e 7939 b9b9 671e e23c 10ba cd3d
000000c0: 756b 3c3e 8b0f ac3c 27d2 593e b46c ab3d
000000d0: cec7 3dbd 8781 0e3e dd74 46bd 0cae 063e
000000e0: ff10 2c3e 796d 263e 9d69 cb3d 1abb 063d
000000f0: 6c8e 943c ed98 e53d c2e6 f7bc 5e93 9c3e
00000100: 9bee 653d ca81 623b 2d0d f53d ca31 e53c
00000110: e149 50bc 0a41 77bc 4b27 17bc 76b0 0abe
00000120: 1fbb 0d3e fbd4 ca3c c1fa 103d a4d2 573e
00000130: 04b9 47bc 3dc4 b5bd 01c1 893d 9b5e c53d
00000140: 09a9 b33c 5245 3c3e e66a d03d 7fa6 523e
00000150: 538d 99bc 808d 08bd 366c fb3b a1e0 16bd
00000160: 6d87 013e 0cd1 693e 1760 573e 2c9e 1c3d
00000170: f79b 313e 467e 85bd 37a9 1b3d 939d 203e
00000180: a0d0 67bc 91f3 1ebd 8465 f1bd 83e9 cabd
00000190: f6d7 e3bb f0a1 993d 8b27 44bd fe07 d9bd
000001a0: a2f9 b9bd 0deb 2a3d ec30 85bc 2e55 02be
000001b0: b7ad 9c3d 7a15 0fbe ea56 cfbd 83a0 db3d
000001c0: 0912 fa3d f45a e2bd 46af cc3d 5cea 893d
000001d0: fabf ac3d 7998 8e3d 85bb 983d e185 c53c
000001e0: ec5c 9dbd cd8d bf3d 041e a03d 7b08 09bd
000001f0: 6b6b f83d 5053 593d 0d14 1e3d e249 9abd
00000200: b0ca 14be 1b7d 893d 8572 03be 30ad 253c
00000210: 5242 fabd 4768 b73d ef87 55bc 82f8 01be
00000220: bacf 3d3d 3d1d 1fbc 5c58 173d 6d3a 46bd
00000230: 50f5 613b ee2b 68bd b36a b83d 4cd2 e93d
00000240: 427e 64bd 6e18 df3d ee83 b43d 472d 093e
00000250: 9027 b63d 42db 073e 7a0d 543d 2443 0dbd
00000260: dc57 9e3d aa59 1d3d 7386 c13d 4651 913c
00000270: b7ca 1ebd 9a52 9a3d e52d f1bc de6a 373e
00000280: d863 4e3e 4756 303e 5d2e 943d e7c6 c2bc
00000290: 0a74 f8bc b20b 00be 2864 b43c b0f7 8e3d
000002a0: fe1a 01bc ccb4 d7bd 61ef 50bd 5531 4d3c
000002b0: 5dd5 943c ff0f 09be 6b9d bc3d 8967 f63b
000002c0: f078 223d 0f98 11bd 9f1c 3b3e 7da0 05bd
000002d0: 4e78 623e 0e21 69bd f202 25bd edca 343c
000002e0: 216a 533d f9d6 b6bd a52c 273e a5a1 60bd
000002f0: e7e5 4a3e 6659 5f3e 3757 b6ba 02fc 56bb
00000300: bd02 1d3e b2ce a73d 10c9 a33b 91c8 193e
00000310: 6438 97bd dcc9 aebd e63e 8ebb a2f0 403e
00000320: 7d72 f23c c012 433e 8922 85be 28f1 213e
00000330: d371 5f3e b516 a03a 1331 40bd ea45 fb3e
00000340: 6707 003e 5953 f1bd d9cb 103e f098 f23d
00000350: 6198 6b3e 6c77 b1bd 109c b33d 07c6 67bb
00000360: 6f06 b0bd f907 2b3d ec03 ec3d a137 0dbe
00000370: 3f8c 353e d4c1 04be 7df5 3c3e 1499 93bd
00000380: 9c5f ab3d 8bc0 d4bd 83ac 1f3e 139e 843d
00000390: 9d4a a9bd 2390 953e d062 723a 9963 14be
000003a0: 9c36 37be c775 933e e886 153e 5f5d b3bc
000003b0: 32db 873d a219 4abd bc03 1f3e c408 8e3e
000003c0: ef5c f43d 1f8f 073e 4274 80bd 3213 253e
000003d0: 42fb 4e3e fa94 373e 11b7 3c3e b18b 023e
000003e0: b709 e43d b6f9 4abd 510e cc3d 8bc2 8cbd
000003f0: 36c0 1f3e af23 263e 5052 cabd 2ffd 0a3f

conv2.bias f4 [8]
0.1191585 0.2191465 0.13531004 0.062333193 0.060220197 0.078143276 0.17464946 0.08811377
00000000: 5f09 f43d f167 603e b78e 0a3e 1751 7f3d
00000010: 74a9 763d 9509 a03d 4fd7 323e fe74 b43d

conv3.weight f4 [16, 8, 3]
0.16581504 0.20323157 0.105692975 -0.17458478 0.11147894 0.14469588 -0.03491684 -0.18585111
-0.15365285 -0.013335781 -0.10706707 -0.04942273 -0.14961807 -0.17284329 0.25446707 0.1130856
0.2391723 -0.13104922 0.19177261 0.107295655 0.10781371 -0.18694146 0.15821794 -0.18692175
-0.007458463 0.08485909 0.10564068 -0.06650626 -0.040799916 -0.07535222 0.10648442 -0.06733971
-0.1811094 -0.18176566 -0.10932678 0.02805166 -0.0635511 -0.18437178 -0.10332573 -0.00031176567
-0.07219847 -0.11191988 -0.1578637 0.1231386 -0.07853667 -0.14764114 0.15219225 -0.17862679
0.15670912 -0.009938185 0.1870875 0.2426702 0.19525807 0.06546237 0.08599451 -0.18294294
-0.1146635 0.2264052 0.0006452787 0.07610472 0.010177102 -0.03179901 0.26621225 0.061684273
0.12156742 -0.18564923 0.27979255 0.04040313 -0.16230984 -0.073108405 0.0641105 -0.049415052
0.06780314 0.150315 -0.20395458 -0.19144095 0.005134274 0.16002814 0.053961337 0.14568326
-0.039520934 -0.19045204 0.044321276 -0.04567813 -0.12144266 -0.08929285 -0.034770954 0.10435702
-0.028339848 0.0055209817 0.15447894 -0.08221237 0.07349062 -0.2014016 0.049701434 -0.073303245
0.1203976 0.035417333 -0.08985475 0.060710773 -0.1300806 -0.14972895 -0.122881964 -0.09139812
-0.08999492 0.1281199 0.051234648 -0.06758645 -0.15940106 -0.12805207 -0.01658714 0.14143997
0.1578506 0.0719838 0.21972394 0.27902457 0.046328574 0.26690432 -0.103991985 -0.019469641
-0.2044234 -0.0673156 -0.013810338 0.050556406 0.106763184 0.059961893 -0.05166032 0.049027666
-0.15994504 -0.10391754 -0.11962861 -0.023823721 -0.09681245 0.07788376 0.04628307 0.037429348
-0.12570311 -0.0856543 -0.11819605 0.10856707 0.040693123 -0.10208618 -0.14735642 0.009414771
-0.22860502 0.2024413 -0.040192675 -0.11629182 0.10165075 0.2814296 0.09928257 0.0061636386
-0.008252535 -0.19130093 0.027766364 0.07238303 -0.038985886 0.21868859 -0.1880734 -0.26240632
0.09725891 -0.016550839 -0.038720824 -0.17359325 0.11859398 0.09758968 0.22877683 0.25512844
-0.19983095 -0.1858214 -0.05673459 0.012749508 0.06731275 -0.1239449 -0.08183632 -0.17206156
-0.16303071 0.12638387 0.050398335 0.12408648 -0.13788383 -0.19838291 0.08327068 -0.19701497
0.10418611 0.1350998 -0.08108886 -0.15744823 -0.024751183 0.14611366 -0.13356505 0.006739947
0.14833796 0.20695226 0.22320977 0.123109534 0.21614955 0.19517177 -0.077908784 -0.19297616
-0.1882087 -0.0070856335 -0.06252369 0.16030927 -0.09403731 0.08599761 0.028136011 0.1171364
0.13920224 -0.1370925 0.21687643 0.102111645 -0.06872893 0.056724418 -0.12163464 0.103009544
-0.17440535 0.1623027 -0.07994674 -0.05108724 0.037184436 0.17024668 0.18329966 0.061647356
0.1674081 -0.25871027 -0.1746304 0.14792214 0.09658545 0.2575773 -0.095340975 -0.14875442
0.08357641 0.031067157 0.06792046 0.14419164 0.074481614 -0.04924764 0.10401479 0.31779432
0.12865742 0.10173566 0.20047425 0.058983475 0.08708297 0.21309048 -0.14567617 0.12798733
-0.1526978 -0.045369897 0.1261264 0.07522729 -0.08563572 0.17342095 0.2268907 0.07808938
00000000: 6bcb 293e f01b 503e 8f75 d83d 5ac6 32be
00000010: 124f e43d 282b 143e f604 0fbd c14f 3ebe
00000020: 2c57 1dbe 527e 5abc fb45 dbbd 7d6f 4abd
00000030: 7b35 19be d5fd 30be 8249 823e 6c99 e73d
00000040: 95e9 743e c431 06be 0a60 443e d3bd db3d
00000050: 6fcd dc3d 956d 3fbe e203 223e 6a68 3fbe
00000060: 1f66 f4bb 9aca ad3d 245a d83d 6f34 88bd
00000070: d01d 27bd 4452 9abd 8114 da3d 67e9 89bd
00000080: be74 39be c720 3abe b8e6 dfbd 98cc e53c
00000090: 1427 82bd f5cb 3cbe 719c d3bd 7b74 a3b9
000000a0: cbdc 93bd 4036 e5bd 06a7 21be 1730 fc3d
000000b0: d5d7 a0bd 3d2f 17be 49d8 1b3e f1e9 36be
000000c0: 5b78 203e c5d3 22bc de93 3f3e 897e 783e
000000d0: bbf1 473e 2311 863d e41d b03d 6555 3bbe
000000e0: b2d4 eabd c4d6 673e ec27 293a cbdc 9b3d
000000f0: dcbd 263c ae3f 02bd f94c 883e a6a8 7c3d
00000100: 57f8 f83d d51a 3ebe f840 8f3e c17d 253d
00000110: 8d34 26be dcb9 95bd 5e4c 833d 7067 4abd
00000120: 5fdc 8a3d 2dec 193e 78d9 50be 1909 44be
00000130: 693d a83b 6bde 233e 9006 5d3d fe2d 153e
00000140: b4e0 21bd dc05 43be 3a8a 353d fe18 3bbd
00000150: eeb6 f8bd 2bdf b6bd fd6b 0ebd 22b9 d53d
00000160: f828 e8bc 5ae9 b43b ba2f 1e3e f65e a8bd
00000170: 4082 963d 393c 4ebe bb93 4b3d 0320 96bd
00000180: 0493 f63d c411 113d c405 b8bd dcab 783d
00000190: d933 05be 8c52 19be 8aa9 fbbd f02e bbbd
000001a0: 424f b8bd dd31 033e 6cdb 513d c46a 8abd
000001b0: 083a 23be 1520 03be c1e1 87bc a4d5 103e
000001c0: 96a3 213e 3e6c 933d 50ff 603e 4fdc 8e3e
000001d0: 08c3 3d3d afa7 883e c0f9 d4bd cc7e 9fbc
000001e0: 5e54 51be c3dc 89bd c244 62bc 3c14 4f3d
000001f0: a8a6 da3d 9a9a 753d c699 53bd 3cd1 483d
00000200: a2c8 23be b8d2 d4bd d8ff f4bd f729 c3bc
00000210: 9b45 c6bd 8581 9f3d 5193 3d3d 844f 193d
00000220: 51b8 00be 866b afbd c510 f2bd 6958 de3d
00000230: d5ad 263d 8f12 d1bd 9ae4 16be 6940 1a3c
00000240: 6f17 6abe c64c 4f3e 13a1 24bd 682a eebd
00000250: 452e d03d 8a17 903e a954 cb3d 59f8 c93b
00000260: a435 07bc 64e4 43be 4976 e33c 8e3d 943d
00000270: aaaf 1fbd e7ef 5f3e 5096 40be 1f5a 86be
00000280: ae2f c73d a095 87bc ba99 1ebd 6ec2 31be
00000290: 67e1 f23d 19dd c73d 7944 6a3e 32a0 823e
000002a0: 7ca0 4cbe f747 3ebe 8862 68bd 50e3 503c
000002b0: 44db 893d d3d6 fdbd cd99 a7bd e830 30be
000002c0: 86f1 26be c66a 013e 7c6e 4e3d 0d21 fe3d
000002d0: 6b31 0dbe e424 4bbe d189 aa3d 4bbe 49be
000002e0: 875f d53d 9a57 0a3e eb11 a6bd 1c3a 21be
000002f0: fec2 cabc d29e 153e 47c5 08be c6da dc3b
00000300: e8e5 173e 4beb 533e 1a91 643e da20 fc3d
00000310: 4f56 5d3e 1cdb 473e a48e 9fbd 8b9b 45be
00000320: c8b9 40be 9a2e e8bb 6c0c 80bd 1d28 243e
00000330: a296 c0bd 841f b03d 7e7d e63c 35e5 ef3d
00000340: 088b 0e3e fa61 0cbe db14 5e3e e91f d13d
00000350: c1c1 8cbd dd57 683d 951b f9bd abf6 d23d
00000360: 5197 32be ae32 263e 1ebb a3bd db40 51bd
00000370: b54e 183d 2555 2e3e e8b2 3b3e f081 7c3d
00000380: 076d 2b3e ac75 84be 50d2 32be e778 173e
00000390: 98ce c53d 2ce1 833e 2142 c3bd 1453 18be
000003a0: 1c2a ab3d 8d80 fe3c e219 8b3d f9a6 133e
000003b0: d189 983d e5b7 49bd b505 d53d f0b5 a23e
000003c0: c5be 033e c95a d03d 1f49 4d3e a898 713d
000003d0: 8e58 b23d 6434 5a3e 222c 15be 1c0f 033e
000003e0: d05c 1cbe c9d5 39bd 4727 013e c410 9a3d
000003f0: c861 afbd 4395 313e 0956 683e 53ed 9f3d

conv3.bias f4 [16]
0.14115405 0.12203237 0.008544792 -0.054037146 -0.12414461 -0.13481376 -0.09319063 -0.1970646
0.20644803 -0.12114142 0.08709495 -0.010186794 0.34386814 0.2696192 -0.017620223 -0.19992135
00000000: b08a 103e 1bec f93d 75ff 0b3c 0e56 5dbd
00000010: 873f febd 9e0c 0abe bbda bebd 4dcb 49be
00000020: 1d67 533e fe18 f8bd d65e b23d 83e6 26bc
00000030: 7c0f b03e 870b 8a3e 4958 90bc 2fb8 4cbe

conv4.weight f4 [1, 16, 3]
-0.008314968 0.14559205 -0.024164261 0.076364085 -0.13415241 0.0155680915 0.049008705 0.16902927
-0.065141775 -0.107718885 -0.08650498 -0.06576285 0.24142693 0.0005114216 -0.17141756 -0.0008813631
0.0014340002 -0.008423398 -0.14426619 0.026086695 0.20945612 0.13614082 -0.12273013 0.01657778
0.19691363 0.12706597 0.09204261 -0.20647646 -0.020844473 0.3085394 0.12165717 0.20527388
0.19184843 0.08287728 0.08039097 -0.101562485 0.09714115 0.019846832 0.06022595 0.096288025
0.058153726 0.18485692 0.14565206 0.098403744 -0.06519933 -0.110765666 -0.096362725 -0.13812941
00000000: 813b 08bc 1516 153e 21f4 c5bc c664 9c3d
00000010: 405f 09be 4f11 7f3c 5abd 483d 0216 2d3e
00000020: 0d69 85bd b89b dcbd 8629 b1bd acae 86bd
00000030: 9f38 773e ec10 063a 1688 2fbe 470b 67ba
00000040: 10f5 bb3a 4b02 0abc 84ba 13be c4b3 d53c
00000050: aa7b 563e 8068 0b3e ef59 fbbd 20ce 873c
00000060: baa3 493e 951d 023e d680 bc3d 916e 53be
00000070: 07c2 aabc e0f8 9d3e 6527 f93d 5133 523e
00000080: ea73 443e 90bb a93d 05a4 a43d feff cfbd
00000090: f0f1 c63d d395 a23c 7caf 763d a832 c53d
000000a0: 9a32 6e3d 224b 3d3e d025 153e e787 c93d
000000b0: 3a87 85bd 1cd9 e2bd d259 c5bd cc71 0dbe
