Weight_Files/PredictionDecoder(Velocity)_trained_on_2D/vae_net_prediction_decoder_velocity.pth (torch_old, 42176 bytes, 9 tensors)

fc_lat.weight f4 [400, 4]
0	0x3ef3f3e9	0.47647026
1	0x3e958337	0.2920167
2	0x3f01f075	0.50757533
3	0xbe81e3be	-0.25369066
4	0x3e127ee0	0.14306211
5	0x3ef33932	0.47504574
6	0x3deba450	0.115059495
7	0x3e2f8394	0.17140037
8	0x3eb2e368	0.34939122
9	0x3e20b318	0.15693319
10	0x3cf6a140	0.030106187
11	0x3e382638	0.1798333
12	0xbe36e495	-0.17860635
13	0x3c779c3b	0.015112932
14	0xbec19945	-0.37812248
15	0x3ed7d1a7	0.4215214
16	0xbdd9d5d8	-0.106364906
17	0x3bdf21e0	0.006809458
18	0xbf1d3407	-0.6140751
19	0x3cf160fe	0.029465195
20	0xbe673ec6	-0.2258254
21	0x3dd28206	0.10278706
22	0x3b40fe69	0.0029448515
23	0xbdb7a8ae	-0.0896772
24	0x3e8b2d04	0.27182782
25	0x3dd1f340	0.102514744
26	0x3e581a44	0.2110377
27	0x3e9bd33a	0.3043459
28	0x3d25022d	0.040285278
29	0xbec527f0	-0.38507032
30	0x3ec24730	0.37944937
31	0xbf123f86	-0.5712818
32	0x3e9df490	0.3085065
33	0x3e80eb46	0.251795
34	0xbf0447f9	-0.5167232
35	0xbc0f3816	-0.008741399
36	0xbe01fabb	-0.12693302
37	0xbf009591	-0.5022822
38	0xbd9587ff	-0.0730133
39	0xbef39311	-0.4757314
40	0x3e08a9f2	0.13346079
41	0xbf04eab2	-0.51920617
42	0xbe018f1b	-0.12652247
43	0xbef91226	-0.4864666
44	0xbec040a2	-0.3754931
45	0xbe115cd4	-0.14195567
46	0x3ef72cf2	0.48276478
47	0x3ef23b94	0.4731108
48	0x3e428ab9	0.18998231
49	0x3cc99a9d	0.024609858
50	0x3c6f081a	0.014589334
51	0xbe3cefb6	-0.18450817
52	0xbef9b500	-0.48770905
53	0x3ef2fbbc	0.47457683
54	0x3ec7287a	0.3889807
55	0x3ea94580	0.33060837
56	0x3ecf8abc	0.40535533
57	0x3edcc4d0	0.43118906
58	0xbdf45a30	-0.119312644
59	0x3e8d8dd8	0.2764728
60	0xbeeb4bb9	-0.4595621
61	0x3ebc070e	0.36724132
62	0x3ec81414	0.39077818
63	0xbed4a1f0	-0.41529799
64	0x3ec02eff	0.37535855
65	0xbedf6cc7	-0.43637678
66	0xbe731d38	-0.23741615
67	0xbe778b5d	-0.24174257
68	0xbe048d38	-0.12944496
69	0x3ed660d6	0.41870755
70	0x3e3e408c	0.1857931
71	0x3e113548	0.14180481
72	0xbf0a161b	-0.5393998
73	0x3ec12e3a	0.3773058
74	0x3c90bad0	0.017667204
75	0xbe8d3108	-0.2757647
76	0x3f1ed51d	0.62043935
77	0x3ea35577	0.31901142
78	0x3e8e27ff	0.2776489
79	0xbe52de04	-0.20592505
80	0xbd8aad9f	-0.06771397
81	0xbeb855b2	-0.3600288
82	0x3dc527d1	0.09626735
83	0xbe2f3634	-0.1711052
84	0x3e564545	0.20924862
85	0xbeb4d340	-0.3531742
86	0x3eac84f4	0.33695185
87	0xbc098a6c	-0.008394819
88	0x3e1da5f0	0.15395331
89	0xbd6a9750	-0.05727321
90	0xbed5b390	-0.41738558
91	0x3ee3faf2	0.44527394
92	0xbe2b6a0e	-0.16739675
93	0xbef007ec	-0.46881044
94	0xbda5fde4	-0.081050664
95	0x3e3e5959	0.18588771
96	0xbea82b78	-0.32845664
97	0x3e274a0c	0.1633684
98	0x3ee874e2	0.45401675
99	0xbd8cae08	-0.06869131
100	0x3e34f9b4	0.17673379
101	0x3ef2c778	0.47417808
102	0xbe489cc8	-0.19591057
103	0x3eb7b1e6	0.35877913
104	0xbe5f2c5f	-0.2179427
105	0xbe0a1bd8	-0.13487184
106	0xbebf3311	-0.37343648
107	0x3e695671	0.22786881
108	0xbeb26aa6	-0.3484699
109	0x3d0cf51c	0.034413442
110	0x3edff74c	0.4374336
111	0xbeaa1962	-0.3322249
112	0xbe4b9d10	-0.19884133
113	0x3ec4ee96	0.38463277
114	0x3e602024	0.2188726
115	0x3edfa076	0.4367711
116	0xbedf8d3d	-0.43662444
117	0xbd441f41	-0.04788137
118	0x3ea834ab	0.32852682
119	0xbe9c6025	-0.30542102
120	0xbed1aa7e	-0.40950388
121	0xbf026b0a	-0.5094458
122	0x3e9bde13	0.30442867
123	0xbd26a18b	-0.040681403
124	0xbe08dca2	-0.13365415
125	0xbeb35f71	-0.35033754
126	0xbe8639b7	-0.26215908
127	0xbc8bb9f8	-0.01705645
128	0xbe6a1c94	-0.22862464
129	0x3efb3a36	0.4906785
130	0x3dd79740	0.105268955
131	0xbdf18000	-0.11791992
132	0x3ee07a76	0.4384343
133	0xbd76ea50	-0.06028205
134	0xbecdf400	-0.4022522
135	0x3ee0ab3e	0.43880647
136	0xbe04b378	-0.12959087
137	0x3ec60416	0.38674992
138	0xbeabee3a	-0.3358019
139	0x3de08680	0.10963154
140	0x3e2923b7	0.1651753
141	0xbf16d865	-0.5892394
142	0xbd176e5b	-0.036970478
143	0x3e34d1cf	0.1765816
144	0x3eb34266	0.35011595
145	0xbe7fd090	-0.24981904
146	0x3f1902fa	0.59770167
147	0x3ecbc88e	0.3980145
148	0xbdfb7062	-0.12277295
149	0xbebc8c90	-0.3682599
150	0x3ead3afa	0.33834058
151	0xbf10556c	-0.56380343
152	0xbe1fec28	-0.1561743
153	0x3ba75900	0.005107045
154	0xbd71a610	-0.05899626
155	0x3edee274	0.43532145
156	0xbed283cf	-0.41116187
157	0x3e18f398	0.14936674
158	0xbec924ca	-0.3928588
159	0xbf059925	-0.52186805
160	0x3e8b2d99	0.27183226
161	0x3da8dd75	0.082453646
162	0xbe8ced6d	-0.27524891
163	0xbf156058	-0.58350134
164	0xbe19f254	-0.15033847
165	0x3e02ef64	0.12786633
166	0x3e7fd220	0.249825
167	0xbdc8ebf0	-0.098106265
168	0x3eb23516	0.34806126
169	0xbe870f45	-0.26378837
170	0x3db79b09	0.089651175
171	0xbecd8e82	-0.40147787
172	0xbd69f5c0	-0.05711913
173	0x3ea2c7ca	0.31793052
174	0xbe8b0138	-0.27149367
175	0x3ed00068	0.4062531
176	0xbee80aba	-0.45320684
177	0x3dcdf910	0.100572705
178	0x3ea88fd0	0.3292222
179	0x3ef195fc	0.47184741
180	0x3ee5dd1a	0.4489525
181	0x3efaca6c	0.4898256
182	0x3e1ab968	0.1510979
183	0x3d1d4330	0.038394153
184	0x3e706164	0.23474652
185	0xbea99af2	-0.33126026
186	0x3e896705	0.2683641
187	0xbecf4b44	-0.4048711
188	0xbe3b6597	-0.18300472
189	0xbedda638	-0.43290877
190	0x3eed6e20	0.4637308
191	0x3e12cd6c	0.14336175
192	0xbe188f70	-0.14898467
193	0xbe984a33	-0.2974411
194	0x3df16b87	0.11788087
195	0xbec166d4	-0.37773764
196	0xbdf58466	-0.119881436
197	0x3e09d74e	0.13461038
198	0x3eccf898	0.40033412
199	0xbebe68c5	-0.37189308
200	0xbe51d7d8	-0.20492494
201	0x3eb5cb88	0.35506845
202	0x3effd11a	0.4996422
203	0x3e0d3f1c	0.13793606
204	0xbf1e7b01	-0.6190644
205	0xbec914c7	-0.39273664
206	0xbe53dfbc	-0.20690817
207	0x3eb46598	0.3523376
208	0xbe9b6a03	-0.30354318
209	0xbed67f71	-0.41894105
210	0xbe9dfe65	-0.3085815
211	0xbe7cac2b	-0.24675052
212	0x3d8b53f0	0.06803119
213	0x3ed2848a	0.41116744
214	0xbe8df214	-0.27723753
215	0x3ecde86e	0.40216392
216	0xbe6ec49c	-0.23317188
217	0xbf0825c0	-0.531826
218	0xbef11f71	-0.470943
219	0x3ebc7681	0.3680916
220	0xbf1472c9	-0.5798765
221	0xbc150ea2	-0.009097727
222	0xbd04a2b7	-0.03238174
223	0x3d6381d0	0.05554372
224	0x3d744b90	0.059642375
225	0x3ec16bc8	0.37777543
226	0xbe11b0fc	-0.1422767
227	0x3e97f034	0.29675448
228	0x3e46c92e	0.19412681
229	0xbdb0005c	-0.085938185
230	0xbda328b8	-0.07966751
231	0xbea8d70d	-0.3297657
232	0xbecf7886	-0.4052164
233	0x3eaeaf24	0.34117997
234	0x3e81f7de	0.2538442
235	0x3ee2ebde	0.44320577
236	0x3ece5fcd	0.40307465
237	0xbe847b4b	-0.25875315
238	0x3edcd914	0.43134367
239	0x3ebe6d5d	0.37192813
240	0x3edda9a4	0.43293488
241	0xbd174fc3	-0.0369413
242	0x3d6bdfda	0.05758653
243	0xbeb4adf3	-0.35288963
244	0x3ebd19ef	0.36933848
245	0xbe6f8a13	-0.23392515
246	0x3f1f557b	0.6223981
247	0x3eaf6e4a	0.3426383
248	0x3de90232	0.11377372
249	0xbe57445c	-0.21022171
250	0xbe511d52	-0.20421341
251	0x3bc69c4a	0.0060611116
252	0x3edf918e	0.43665737
253	0x3d574cae	0.05256336
254	0x3da98222	0.08276774
255	0xbe9fb112	-0.3118978

fc_lat.bias f4 [400]
0	0xbdec2629	-0.11530716
1	0xbe7708e8	-0.24124491
2	0x3ea0f666	0.31437987
3	0xbe718b90	-0.23588395
4	0x3d2bf39d	0.041980375
5	0xbe72b9b1	-0.23703648
6	0x3ea73f70	0.32665586
7	0x3e2aa75a	0.16665402
8	0x3ecfe501	0.40604404
9	0x3daf74af	0.085671775
10	0xbe253368	-0.16132891
11	0x3c389a80	0.011267304
12	0x3d744a8a	0.0596414
13	0xbeddbfde	-0.43310446
14	0xbeb59286	-0.3546335
15	0x3f0082c7	0.5019955
16	0x3dd36ec0	0.10323858
17	0xbe9537da	-0.29144174
18	0x3e54873a	0.2075471
19	0x3eb261d0	0.3484025
20	0x3d518fc0	0.05116248
21	0x3ed93fc3	0.4243146
22	0xbea607c4	-0.324278
23	0x3e1fda74	0.15610677
24	0xbd3e9050	-0.046524346
25	0xbea0a3b6	-0.31374902
26	0x3e89de31	0.2692733
27	0x3ec84a0e	0.39119
28	0x3dccadc8	0.09994084
29	0xbe537659	-0.20650615
30	0xbdb00ece	-0.08596574
31	0x3f0b6f58	0.5446677
32	0xbe8785ca	-0.2646926
33	0xbecdd632	-0.4020248
34	0xbe000c04	-0.12504584
35	0x3e328c7e	0.17436406
36	0x3eeef6b9	0.4667261
37	0xbe0c8e7f	-0.13726233
38	0xbe80cae2	-0.25154787
39	0xbdb4e65c	-0.08833
40	0xbcef6e3a	-0.029227365
41	0xbe849580	-0.2589531
42	0xbe5a1535	-0.21297152
43	0xbe9ac43a	-0.30227834
44	0xbebcf050	-0.36902094
45	0xbcad6ae0	-0.021169126
46	0x3ead8228	0.33888364
47	0x3e26a098	0.16272199
48	0xbe8cafc7	-0.27477857
49	0xbd6a5387	-0.057208564
50	0xbdf2d7b8	-0.11857551
51	0xbe9690f5	-0.29407468
52	0xbe9cb35f	-0.306056
53	0x3e973fc6	0.29540843
54	0x3dd6afd6	0.10482757
55	0x3d005c3d	0.031337965
56	0xbe9aaf82	-0.30212027
57	0x3ecd769a	0.40129548
58	0x3ed68eda	0.41905862
59	0x3eb23118	0.3480308
60	0xbe28b75f	-0.164762
61	0x3e965069	0.29358223
62	0x3efe0599	0.49613646
63	0x3f18a608	0.59628344
64	0xbded39d8	-0.115832984
65	0x3a15dbf7	0.0005716676
66	0x3eff2fc5	0.49841133
67	0x3eaa50b4	0.33264697
68	0xbe18772c	-0.1488921
69	0xbe0d3c86	-0.13792619
70	0xbe9c5b96	-0.30538625
71	0x3d728146	0.059205316
72	0xbecdae58	-0.40172076
73	0x3c993a20	0.018704474
74	0x3e5a91c9	0.21344675
75	0x3efe6922	0.49689585
76	0x3f00bcdd	0.5028818
77	0x3f0df6b4	0.55454564
78	0xbe683601	-0.22676851
79	0x3efe9a2e	0.49727005
80	0x3e86ad42	0.2630406
81	0x3db220e8	0.086976826
82	0xbd16ee18	-0.036848158
83	0x3ed52795	0.4163176
84	0x3e8aa727	0.27080652
85	0x3f020875	0.50794154
86	0x3e1984a8	0.1499201
87	0x3d85d7f8	0.065353334
88	0xbeb45fbe	-0.35229295
89	0x3da2e1d7	0.07953232
90	0xbec5d423	-0.3863841
91	0x3f082028	0.53174067
92	0xbed85d51	-0.42258695
93	0xbdac925c	-0.08426353
94	0x3d06040e	0.03271871
95	0x3f0180aa	0.5058695
96	0x3ef4cf68	0.47814488
97	0x3d1f63ae	0.03891342
98	0x3ea262b0	0.31715918
99	0xbe3ce887	-0.18448077
100	0xbe334838	-0.17508018
101	0x3e274177	0.16333567
102	0xbd89772e	-0.06712185
103	0x3eee813d	0.46582976
104	0x3daaa35e	0.08331941
105	0x3d908d7e	0.070582375
106	0x3f073b83	0.5282518
107	0x3ddb8087	0.10717874
108	0x3e6bc2c2	0.23023513
109	0x3f01257b	0.50447816
110	0x3eb58755	0.35454813
111	0x3e9b42fa	0.30324537
112	0x3f022db0	0.50850964
113	0xbe411cb7	-0.1885861
114	0x3f043d4e	0.51656044
115	0x3ca87b20	0.020566523
116	0xbe03f6fd	-0.12887187
117	0x3e6a15ec	0.22859925
118	0xbe13347a	-0.14375487
119	0x3e65dcf6	0.22447571
120	0xbd9d0c4d	-0.07668362
121	0x3e9449d2	0.2896257
122	0x3dff7b70	0.12474716
123	0xbe8d4466	-0.27591246
124	0xbebcfbde	-0.3691091
125	0xbe13f7b9	-0.14449967
126	0xbe3124df	-0.17299221
127	0xbe8d024c	-0.27540815
128	0xbe5a3034	-0.2130745
129	0xbe23508a	-0.15948692
130	0x3e80d394	0.2516142
131	0x3d0e9444	0.034809366
132	0x3ec65290	0.38734865
133	0x3caf5cf3	0.021406626
134	0xbe4e2f6b	-0.20135276
135	0xbe35f24c	-0.1776821
136	0x3eaadc8d	0.33371392
137	0xbe82ae89	-0.25523785
138	0xbe93f0f8	-0.28894782
139	0x3e78a871	0.24283005
140	0xbe7d6c94	-0.2474845
141	0x3ea62797	0.3245208
142	0x3ee8c7a2	0.45464808
143	0x3d1d3a55	0.038385708
144	0xbd933840	-0.07188463
145	0xbe950d2e	-0.29111618
146	0xbdc231a7	-0.09482127
147	0xbb612ea3	-0.0034360073
148	0xbdd2bb98	-0.10289687
149	0x3eba5159	0.36390188
150	0x3ebe6cc4	0.37192357
151	0xbe277cbc	-0.16356176
152	0x3efa75e0	0.48918056
153	0xbec011a2	-0.37513453
154	0x3e5209a7	0.20511495
155	0x3ee36e9e	0.44420332
156	0x3e8f9d4a	0.2804969
157	0x3db00720	0.08595109
158	0xbe870686	-0.26372164
159	0x3dc5412f	0.096315734
160	0x3e2f06de	0.17092463
161	0x3e44b804	0.19210821
162	0xbee8a9e8	-0.45442128
163	0xbce19648	-0.02753748
164	0xbe80c650	-0.251513
165	0x3e9e8abe	0.30965227
166	0x3f075cef	0.5287618
167	0x3da892b1	0.08231104
168	0x3c91fcfb	0.017820826
169	0x3ee742bf	0.4516811
170	0x3eb56df2	0.35435444
171	0xbdb88d7f	-0.09011363
172	0xbe4c7a28	-0.19968474
173	0xbe29780c	-0.165497
174	0xbe9ce8b1	-0.3064628
175	0x3e9dab51	0.30794767
176	0x3eae543c	0.3404864
177	0x3efaeb56	0.49007672
178	0x393c7049	0.00017970907
179	0x3ed4b6e0	0.41545773
180	0x3f01e49a	0.50739443
181	0x3eb8cfab	0.36095938
182	0xbe9037c4	-0.28167546
183	0x3ecae636	0.39628762
184	0x3e223d8b	0.1584379
185	0x3edcd263	0.43129262
186	0xbd6e6c83	-0.058208954
187	0xbeae5c8f	-0.34054992
188	0xbcb3ea7a	-0.021962393
189	0xbd0b21c1	-0.033967737
190	0xbee28caa	-0.44247943
191	0x3deb8258	0.114994705
192	0xbe7d73ec	-0.24751252
193	0xbe7779ff	-0.24167632
194	0xbebd81c4	-0.37013066
195	0x3d5d77e3	0.05406941
196	0x3d786aa0	0.06064856
197	0x3e99cbf3	0.30038413
198	0x3f01cbb2	0.5070144
199	0x3f1016d3	0.56284827
200	0x3d29cc40	0.041454554
201	0x3f06f450	0.5271654
202	0x3eb4561f	0.35221955
203	0x3ec5a9d0	0.3860612
204	0xbe6ead08	-0.23308194
205	0xbeaffa3a	-0.34370595
206	0x3c20f7d3	0.009824711
207	0x3e2103d0	0.1572411
208	0x3ec0fe66	0.3769409
209	0xbdf0b529	-0.117533036
210	0xbe73663e	-0.23769471
211	0xbd0a1d30	-0.03371924
212	0xbe5aff20	-0.21386385
213	0xbd9574a8	-0.07297641
214	0x3e51a98f	0.20474838
215	0x3e5eaf48	0.21746552
216	0xbe35376d	-0.17696925
217	0x3ef132f6	0.47109193
218	0xbe375230	-0.17902446
219	0xbe605f17	-0.21911274
220	0x3e898f66	0.26867217
221	0xbeb56280	-0.35426712
222	0x3c037ad0	0.008024886
223	0xbea93d68	-0.33054662
224	0x3e074dcd	0.13213272
225	0xbe733ea8	-0.2375437
226	0xbe82ac04	-0.25521863
227	0xbec472eb	-0.38368925
228	0x3ddf0883	0.10890295
229	0xbeccd3ee	-0.4000544
230	0x3e206608	0.15663922
231	0x3ec95f0b	0.39330325
232	0xbe572b6c	-0.21012658
233	0xbe3e83ec	-0.18605012
234	0x3d1ad890	0.037804186
235	0x3e3f4e06	0.18682107
236	0xbd9420d0	-0.07232821
237	0xbebe5e81	-0.37181476
238	0xbd8f8602	-0.07007982
239	0xbe6d24a4	-0.23158509
240	0xbec79a2e	-0.38984817
241	0x3e0b3b35	0.13596804
242	0x3ee2a344	0.44265187
243	0x3dbba93b	0.091631375
244	0xbd635202	-0.05549813
245	0xbe61bd83	-0.22044949
246	0x3e343e84	0.17601973
247	0xbea4390a	-0.32074767
248	0xbe0f5ba5	-0.13999803
249	0xbed3577e	-0.4127769
250	0x3eb7e899	0.35919645
251	0x3e3ec9a2	0.18631604
252	0xbeaac174	-0.33350718
253	0xbd957f02	-0.072996154
254	0x3d88e60d	0.06684504
255	0xbead7982	-0.33881766

fc1.weight f4 [20, 400]
0	0xbca1fdf7	-0.01977442
1	0x3d2dda51	0.04244453
2	0xbd17bccd	-0.03704529
3	0xbd365dca	-0.044523038
4	0x3d28dfd1	0.041229073
5	0x3c0a72e9	0.008450248
6	0xbd148503	-0.036259662
7	0xbcc011a1	-0.023445906
8	0x3d2645c1	0.040593866
9	0xbd2a17d5	-0.041526634
10	0xbd284077	-0.041077103
11	0x3b2ee8d0	0.002668906
12	0x3d1657d3	0.03670485
13	0x3d145b47	0.03621986
14	0xbce3ddc3	-0.027815705
15	0xbcbe4beb	-0.02322956
16	0xbc7ec8ad	-0.0155507745
17	0xbd446f77	-0.047957864
18	0xbd452a50	-0.048136055
19	0xbb8cc0c0	-0.0042954385
20	0x3ca300a0	0.019897759
21	0x3cd9b6c6	0.026576411
22	0xbcf3e64d	-0.029772902
23	0x3ce14943	0.027500754
24	0xbd0fcc4a	-0.035106935
25	0x3d46d9d1	0.04854757
26	0x3ca5c81a	0.020237017
27	0xbcf6532e	-0.03006896
28	0xbc8ac696	-0.016940396
29	0xbd015aba	-0.031580664
30	0xbc171fd1	-0.009223894
31	0x3d02bbc5	0.031917352
32	0x3bcfef40	0.0063456595
33	0xb9bc5700	-0.00035922974
34	0x3c6f2584	0.014596347
35	0x3d32172b	0.043479126
36	0xbcf3e253	-0.029771006
37	0x3d1a90e8	0.03773585
38	0xbca6b7ca	-0.02035131
39	0xbc7c6f13	-0.0154073415
40	0x3d1fb56f	0.038991388
41	0x3d1e09c9	0.03858355
42	0x3c85246c	0.016252719
43	0xbc9920d0	-0.018692404
44	0xbccc2293	-0.02491883
45	0x3c12f874	0.008970369
46	0xbd008746	-0.031379007
47	0x3cfac46a	0.030611236
48	0x3c2c5f8f	0.01052083
49	0x3c1d1bfd	0.009589192
50	0x3d2cc925	0.042184014
51	0x3d2912ce	0.0412777
52	0xbd0b3dfa	-0.033994652
53	0xbcfd8b7a	-0.030950297
54	0xbcf1f90f	-0.029537706
55	0x3c765b17	0.015036366
56	0xbca3457d	-0.019930596
57	0x3c80fa18	0.015744254
58	0xbd3077e2	-0.04308308
59	0xbd168bf5	-0.036754567
60	0x3ccf9a4b	0.025342127
61	0xbc6200dd	-0.013794151
62	0xbc13cc2e	-0.009020848
63	0xbd04311d	-0.0322734
64	0x3ca382c2	0.019959811
65	0x3cd9d9aa	0.026593048
66	0xbd4707f5	-0.048591573
67	0xbd0aa8b4	-0.033852294
68	0x3c9c9622	0.019114558
69	0x3ade06c1	0.0016939269
70	0x3d251382	0.040301807
71	0x3cb41bd6	0.02198593
72	0xbbbcc1aa	-0.0057603912
73	0xbd130702	-0.035895355
74	0xbd0183f8	-0.031619996
75	0xbd10c718	-0.03534612
76	0x3d22fe55	0.03979333
77	0x3d34d97e	0.04415273
78	0xbc42ba06	-0.011885172
79	0xbcf43e60	-0.029814899
80	0x3d1d9d7d	0.03848027
81	0xbd4ad4dd	-0.04951941
82	0xbce6d8a4	-0.028179474
83	0xbc04d24f	-0.008106782
84	0xbb8619f9	-0.0040924517
85	0x3b729458	0.003701469
86	0x3c8fe592	0.017565522
87	0x3cbb4992	0.02286223
88	0x3cff308e	0.031151082
89	0xbd4883c9	-0.048953805
90	0x3bdbc02c	0.0067062583
91	0x3b93c341	0.00450936
92	0x3bc94268	0.0061419494
93	0x3b8611e1	0.004091487
94	0xbc9de9b8	-0.019276485
95	0x39fe1b00	0.00048466772
96	0x3d123405	0.03569414
97	0x3d2d13ba	0.04225514
98	0xbb670220	-0.003524907
99	0xbd279f2d	-0.040923286
100	0x3a84a1a0	0.0010118969
101	0x3cecb9a2	0.02889711
102	0x3cc59419	0.02411847
103	0x3c57330f	0.013134732
104	0xbca9c6d8	-0.020724699
105	0xbcaf669c	-0.021411233
106	0xbcf95cfd	-0.030439848
107	0xbbf682a5	-0.0075228983
108	0x3d0a7f15	0.0338126
109	0xbcbe4815	-0.02322773
110	0x3d35b045	0.044357557
111	0xbd29bece	-0.04144173
112	0x3c5a491a	0.013323093
113	0xbd0c3f2c	-0.034239933
114	0x3cbf711d	0.023369366
115	0x3d14bc4f	0.036312398
116	0x3c88c076	0.016693335
117	0x3cf5b016	0.02999119
118	0x3c7ce5df	0.015435665
119	0x3d0e2d92	0.034711428
120	0xbd243105	-0.04008581
121	0xbc2c7559	-0.010526025
122	0xbc295afc	-0.010336634
123	0x3c9fcbbe	0.019506332
124	0x3d296e55	0.041364986
125	0xbd02b7d7	-0.031913605
126	0x3c957c74	0.01824782
127	0x3d3e758f	0.04649883
128	0x3caa5906	0.020794403
129	0xbce396a7	-0.027781798
130	0x3c603d84	0.0136865415
131	0x3ca53479	0.020166622
132	0xbd386c5f	-0.045025226
133	0x3af90661	0.0018999093
134	0xbd3677bf	-0.044547793
135	0xbb24e54c	-0.0025161086
136	0x3b2e5632	0.002660167
137	0xbd39b647	-0.04533985
138	0x3d40a688	0.047033817
139	0xbb0ccd42	-0.0021484648
140	0xbcc4a834	-0.024005987
141	0xbbc7e792	-0.0061006034
142	0xbcf7e2cb	-0.03025951
143	0xbd1ff450	-0.039051354
144	0x3bbbdf50	0.005733408
145	0x3b87e3c0	0.004147023
146	0xbacbad23	-0.001553927
147	0x3c69b150	0.014263466
148	0xbc141bb8	-0.009039812
149	0xbd489db0	-0.048978508
150	0xbc28fb18	-0.010313772
151	0xbd384990	-0.04499203
152	0x3d1cd0e9	0.03828517
153	0xbc2ef3b3	-0.01067822
154	0xbca23c6f	-0.019804208
155	0xbcbdfbd8	-0.023191378
156	0x3cbe2c72	0.023214553
157	0xbb54b900	-0.0032458901
158	0xbc1348d4	-0.008989532
159	0xbd3919ca	-0.04519061
160	0xbd29ab4a	-0.04142312
161	0x3ce4189e	0.02784377
162	0xbd346b2d	-0.044047523
163	0xbd4faea4	-0.05070366
164	0x3cb28449	0.021791594
165	0x3b829d40	0.003986031
166	0xbc141c01	-0.00903988
167	0xbcf225df	-0.029559074
168	0xbd476066	-0.048675917
169	0xbad8f6eb	-0.001655308
170	0x3c997116	0.018730681
171	0xbcb48018	-0.022033736
172	0x3c8469f6	0.016163807
173	0x3d21aaa6	0.039469384
174	0x3d068f7c	0.03285168
175	0x3cbe7490	0.02324894
176	0xbca66d79	-0.020315873
177	0xbd3d9353	-0.046283077
178	0x3d2abe2c	0.04168527
179	0xbd18b5fe	-0.037282936
180	0xbcf52671	-0.029925557
181	0xbd262aec	-0.040568277
182	0x3cefffe2	0.02929682
183	0x3d179a61	0.03701246
184	0xbcb566c3	-0.022143727
185	0x3d09793b	0.03356288
186	0xbca2be16	-0.01986603
187	0x3cf4f086	0.029899847
188	0x3afe8552	0.0019418395
189	0x3d06c809	0.032905612
190	0x3c0992e8	0.008396842
191	0xbce4bc80	-0.027921915
192	0xbcf5105d	-0.02991503
193	0x3bb43559	0.0054995236
194	0xbd12038b	-0.03564791
195	0xbd33bc13	-0.043880533
196	0xbbd80d70	-0.0065933987
197	0xbd4500fe	-0.04809665
198	0x3cd8378b	0.026393672
199	0x3cfe5026	0.031044077
200	0x3cfd5426	0.030923914
201	0xbadd9047	-0.001690396
202	0xbc8d6725	-0.017261097
203	0xbd0203e8	-0.031742007
204	0x3cf59fee	0.029983487
205	0x3d3d1ae5	0.046168227
206	0xbc870000	-0.016479492
207	0xbcc04e23	-0.023474758
208	0xbbb1bc75	-0.005424077
209	0xbc61bdb0	-0.013778135
210	0xbd49cda5	-0.049268384
211	0xbc24a82c	-0.010049861
212	0xbd549dd9	-0.051908348
213	0xbc79a4c0	-0.015237033
214	0xbcb778b5	-0.022396425
215	0xbc182d80	-0.009288192
216	0x3d1b6c07	0.03794482
217	0x3d0cb760	0.034354568
218	0x3cfc1bcc	0.030774973
219	0x3ccab1a8	0.024742916
220	0x3c04b4a1	0.008099706
221	0x3cbce6f0	0.023059338
222	0xbcda045a	-0.026613403
223	0xbcc1c5e0	-0.023653924
224	0x3ce9b3ca	0.028528113
225	0xbceb796b	-0.02874442
226	0xba210000	-0.00061416626
227	0x3d45b035	0.048263747
228	0x3d02a44d	0.03189497
229	0x3cf44b72	0.029821131
230	0x3d08fb35	0.033442695
231	0xbc9e68a3	-0.019337004
232	0x3d021673	0.03175969
233	0x3b572320	0.0032827333
234	0xbbe49df0	-0.0069768354
235	0x3c9bd652	0.019023094
236	0xbd1c9cf3	-0.038235616
237	0xbd273412	-0.040821142
238	0xbceb7820	-0.028743804
239	0xbd18ab70	-0.03727287
240	0xbd42206d	-0.047394205
241	0x3d352c18	0.044231504
242	0x3d1b70c3	0.037949335
243	0xbce1fd69	-0.027586656
244	0x3b9f431b	0.0048602945
245	0x3bfc9bcb	0.0077090017
246	0x3d12fb91	0.035884444
247	0xbbc00aa5	-0.005860644
248	0xbd16291e	-0.036660306
249	0x3c9b448a	0.01895358
250	0x3befab1b	0.0073140985
251	0xbd2fecd4	-0.042950466
252	0x3cd8122a	0.026375849
253	0x3d37df6b	0.044890802
254	0xbd3c5985	-0.04598381
255	0xbc4c1408	-0.012455948

fc1.bias f4 [20]
0	0x3c9346a4	0.01797802
1	0x3e160566	0.14650497
2	0x3d121deb	0.035673063
3	0x3bee60be	0.007274716
4	0x3ce2721a	0.027642298
5	0x3dedeb13	0.116171025
6	0xbd605ec5	-0.05477788
7	0xbd0ce295	-0.034395773
8	0x3c9faad0	0.01949063
9	0x3d475fc5	0.048675317
10	0x3c7875a4	0.015164766
11	0x3c578246	0.013153618
12	0xbd3237b0	-0.04351014
13	0xbbd9b8f0	-0.0066443607
14	0x3e172741	0.14761068
15	0xbb8a9801	-0.004229546
16	0x3dd25296	0.10269658
17	0x3d24c16d	0.040223528
18	0x3e08713f	0.1332445
19	0xbc3fc994	-0.011705775

conv1.weight f4 [4, 4, 3]
0	0x3e983734	0.29729617
1	0xbdb9592f	-0.090502135
2	0x3e176f00	0.14788437
3	0xbe8b84f1	-0.27249864
4	0x3ea8709c	0.32898414
5	0xbedd638f	-0.4324002
6	0x3e1a2f8e	0.15057203
7	0xbeb58e91	-0.35460332
8	0xba780473	-0.0009461112
9	0x3eb228f2	0.34796864
10	0x3e3f55ab	0.18685023
11	0x3ec1abcb	0.3782638
12	0x3e6a1e7c	0.22863191
13	0xbe5258be	-0.20541665
14	0x3c32e0a0	0.010917813
15	0xbded204f	-0.11578428
16	0xbe034549	-0.12819399
17	0x3bfcf3de	0.007719501
18	0xbe869e97	-0.2629287
19	0x3e375ec9	0.17907251
20	0xbd741214	-0.059587553
21	0xbe516fbb	-0.20452778
22	0xbd9f25c5	-0.07770876
23	0xbd781f9b	-0.060577016
24	0xbe1df6b4	-0.15426141
25	0x3e88fc7e	0.26755136
26	0xbc34b933	-0.011030483
27	0xbd96db5c	-0.07366058
28	0xbcd45165	-0.025917718
29	0x3d09bfb9	0.033630107
30	0xbc80d7b0	-0.015727848
31	0xbe4ada8c	-0.19809932
32	0xbe931301	-0.28725436
33	0xbdc087fa	-0.094009355
34	0xbe9d699a	-0.3074463
35	0x3d236d0d	0.03989892
36	0x3d90c5dd	0.070689894
37	0x3e80005b	0.2500027
38	0xbd1b9066	-0.037979506
39	0x3e7afc12	0.2451022
40	0xbe894478	-0.2681005
41	0x3e89b380	0.2689476
42	0xbe11477d	-0.14187427
43	0x3e19d5b4	0.15022928
44	0x3e07bd94	0.13255912
45	0xbe3766e3	-0.17910342
46	0x3eac2f6d	0.33629933
47	0xbc882193	-0.016617572

conv1.bias f4 [4]
0	0x3ebeb9d9	0.37251166
1	0x3d0b1406	0.033954643
2	0xbec82c42	-0.39096266
3	0x3eb771e8	0.3582909

conv2.weight f4 [4, 4, 3]
0	0x3e8054d4	0.2506472
1	0xbdcd4929	-0.1002372
2	0x3ea8915e	0.32923406
3	0xbe8136c0	-0.25237083
4	0xbe608b55	-0.21928151
5	0xbbc305c6	-0.005951616
6	0x3dfdcd00	0.12392616
7	0x3bd32680	0.0064437985
8	0xbe20eb47	-0.15714751
9	0xbc4fb746	-0.012677973
10	0x3ebf7a9d	0.37398234
11	0xbe092dbc	-0.13396353
12	0xbf1d990b	-0.6156165
13	0x3e840989	0.25788525
14	0xbbfdef2f	-0.00774946
15	0x3e04ee48	0.12981522
16	0x3db427ab	0.087966286
17	0x3e557ec0	0.20849133
18	0xbe1108b3	-0.14163475
19	0xbdb82adc	-0.0899255
20	0xbe6b9447	-0.23005782
21	0xbe007492	-0.12544468
22	0xbd254cf6	-0.0403566
23	0xbe3a0096	-0.18164286
24	0x3ec55a04	0.3854524
25	0xbc9b5c1f	-0.018964825
26	0x399f1e1d	0.0003034928
27	0x3db27fce	0.08715783
28	0x3d6a3a59	0.05718455
29	0xbe10665a	-0.14101544
30	0xbde76736	-0.11298983
31	0xbd605d1c	-0.054776296
32	0x3e1a2b54	0.15055591
33	0xbcc3a139	-0.023880588
34	0x3eabc453	0.3354822
35	0xbdf6a569	-0.12043268
36	0x3e8fe6bc	0.28105724
37	0xbdaa0d84	-0.08303359
38	0xbe047bdf	-0.12937878
39	0x3d62eeb8	0.05540344
40	0x3e9fcc84	0.3121072
41	0x3e5b16be	0.21395394
42	0x3d176b86	0.036967777
43	0x3e767484	0.24067885
44	0x3db6c738	0.08924717
45	0x3e6711ce	0.22565386
46	0xbdcb57ab	-0.09928831
47	0xbe2adb74	-0.16685277

conv2.bias f4 [4]
0	0x3e130d4e	0.14360544
1	0x3e8c3fa9	0.2739232
2	0x3ea4aa71	0.32161286
3	0x3df8197b	0.12114235

conv3.weight f4 [1, 4, 3]
0	0xbd1f69a9	-0.038919125
1	0x3e2d8ede	0.16949031
2	0x3e8edc47	0.27902433
3	0x3e64afbf	0.22332667
4	0x391e4297	0.00015092861
5	0xbe30b1de	-0.17255351
6	0x3e9079e0	0.28217983
7	0x3e16c993	0.14725332
8	0xbc3d2d1d	-0.0115464
9	0x3ddcbb44	0.107779056
10	0x3e3797f1	0.17929055
11	0xbc933e17	-0.017973943
