Weight_Files/PredictionDecoder(Velocity)_trained_on_2D/vae_net_prediction_decoder_torque.pth (torch_old, 46172 bytes, 11 tensors)

fc_lat.weight f4 [400, 4]
000000 b4 ca 23 3e 54 9b 9e 3e c4 eb 03 be 70 c3 95 3e
       0.15995294 0.3097788 -0.12882906 0.2925067
000010 41 da 5f be 4f 6f b0 3d 76 91 30 3e 96 3a ea be
       -0.21860601 0.086149804 0.17242989 -0.45747823
000020 5a 41 a2 be e0 bd 6f 3e f0 c5 b1 bd 1a fc 9f 3e
       -0.31690484 0.23412275 -0.08680332 0.31247026
000030 5e 6f 19 bf 82 ec fe be b8 bd 29 be f2 39 05 bf
       -0.5993556 -0.49789816 -0.16576278 -0.5204154
000040 20 ce 05 3d 82 f9 94 3e b8 56 97 3d d0 b0 6a 3e
       0.03266728 0.2909661 0.07389587 0.22919011
000050 eb da 9f be 84 d9 3b 3e 26 9d d5 bd ed 0e 1a bf
       -0.3122171 0.18344694 -0.10430364 -0.60179025
000060 76 36 bb be 36 ba 72 3e 28 0e 95 3e 0d 78 91 be
       -0.36564988 0.23703846 0.29112363 -0.28411904
000070 c9 f6 3e 3d d3 1a 12 be 14 ed 79 3e e3 3a e0 3d
       0.04662207 -0.14268045 0.24406844 0.10948732
000080 32 3e 03 bf 57 d4 c0 3e 2b 16 67 3e 5e 1b 9a bd
       -0.5126678 0.37662002 0.2256705 -0.07524751
000090 ab 8e 25 3f f0 13 c7 bd ac 1f fa 3d bf 6f 00 3e
       0.6467082 -0.097206 0.12213072 0.12542628
0000a0 bf d7 a3 be d7 7f a7 be e6 a2 ac 3e f3 12 a2 3e
       -0.3200054 -0.32714722 0.33718032 0.31655082
0000b0 23 93 b4 be 4d f5 98 be 50 dd df be 13 e1 a3 3e
       -0.35268506 -0.2987465 -0.43723536 0.32007656
0000c0 46 76 e3 be 32 59 92 3e 2e 4d 9e be 9a 9e a2 3e
       -0.44426173 0.28583676 -0.30918258 0.31761628
0000d0 33 f4 16 3f d8 35 a0 3d 4d b3 21 3e ac 45 ac bb
       0.5896637 0.0782277 0.15791054 -0.005257329
0000e0 f5 9c f0 bd 31 1e e7 be cc eb eb 3b 7a aa e7 be
       -0.11748687 -0.45140222 0.00719974 -0.4524725
0000f0 32 37 83 be e3 b5 89 be 35 2d c8 3e 9e d3 2b be
       -0.25628048 -0.2689658 0.3909699 -0.16779944
000100 f9 ad 96 bd 58 1d e2 be 9c 7e 6a be 2f 8c 7d be
       -0.073574014 -0.44163013 -0.2289986 -0.24760507
000110 4c f6 53 3e dc 0a fb 3e 30 b7 66 bd 0e b7 c5 3e
       0.20699424 0.49031723 -0.056327045 0.38616222
000120 cf 1f a0 3e b8 69 ba be 08 58 86 be 25 95 e0 be
       0.31274268 -0.36408782 -0.26239038 -0.43863788
000130 b2 8f 1b bf 5d 58 be bd f0 42 19 3e a4 67 ef be
       -0.60766137 -0.09294198 0.14966941 -0.4675876
000140 90 6b b2 be 89 12 04 be 08 00 9a 3c 8d 77 4e 3e
       -0.3484769 -0.12897696 0.018798843 0.20162793
000150 dc 1b a8 be 94 c6 af 3e 70 38 5f be 40 2a 78 bc
       -0.32833755 0.3433119 -0.21798873 -0.015146792
000160 34 40 a6 be a6 3b 90 3e b4 0b ba 3e a8 1e fd 3e
       -0.32470858 0.28170508 0.36337054 0.4943745
000170 2d 11 08 3f 9a a4 c5 3d ee 86 87 be 7e de 9b 3c
       0.5315121 0.09650536 -0.2647013 0.019026991
000180 5c 0e 94 be 79 ab 02 bf 93 8c e2 bd 16 10 35 be
       -0.28917205 -0.51042897 -0.11061969 -0.17681918
000190 7c b1 ab be ff 9f dc be 8f 94 de 3e 13 cb 6f be
       -0.33533847 -0.43090817 0.43472716 -0.2341731
0001a0 e5 b6 04 bf 86 ca ca be 91 80 4f 3e 7a eb 86 be
       -0.51841575 -0.39607638 0.20263888 -0.2635153
0001b0 9e 01 54 be fd 18 bf bd 2b be c1 3e d0 85 80 be
       -0.20703742 -0.09330938 0.378404 -0.2510209
0001c0 e8 7a ec 3e 08 6e b5 be 45 97 ba 3e 92 22 4a 3e
       0.4618752 -0.3543551 0.36443534 0.1973975
0001d0 b0 ac 91 bd ac be 40 be 70 44 d9 bd 74 5d f9 3e
       -0.07113016 -0.18822736 -0.106087565 0.48704112
0001e0 a0 a8 eb be e5 02 8c 3d c3 93 c8 be f8 f4 c0 3e
       -0.46027088 0.068364896 -0.39175233 0.37686896
0001f0 c7 b4 fe bb ef 5f ca be ee d3 76 3e f8 23 ba 3e
       -0.007773015 -0.39526317 0.24104282 0.36355567
000200 79 79 ea be 8e ee b8 be 0c 4d bc 3e bf e6 37 3e
       -0.457958 -0.36119503 0.36777532 0.17959116
000210 20 e0 60 3e 66 a5 b6 3e e8 cd c9 3d 50 87 8d 3e
       0.21960497 0.35673064 0.098537266 0.27642298
000220 2b cf 18 be d6 8b af be eb aa bb be d0 f5 32 3e
       -0.14922778 -0.34286374 -0.36653838 0.17476583
000230 1a 9c 1b 3f 35 50 f5 3d ec 87 08 3e e0 3c f2 be
       0.6078507 0.11978189 0.133331 -0.4731207
000240 98 13 88 bd f0 1b 94 3e 50 4a 2e bd b2 ef 92 be
       -0.06644362 0.28927565 -0.04255134 -0.28698498
000250 00 6c 3a 3c 20 87 6e 3d f8 bb ef bd ae 03 a6 3e
       0.011378288 0.058234334 -0.11705774 0.32424682
000260 34 d8 1c be 38 36 fe 3d ac a4 e9 be 70 00 e2 3e
       -0.1531685 0.12412685 -0.45633447 0.4414096
000270 71 e4 c6 be 88 00 7a 3e c7 0b 8f be f3 a0 ff bd
       -0.38846162 0.24414265 -0.27938673 -0.124818705
000280 c9 dc ec 3e 16 67 2f 3e e1 02 fa 3e e4 68 ce 3e
       0.46262196 0.17129168 0.4883032 0.403144
000290 d7 e6 dd be 21 ce d5 bd 22 68 69 be c8 b0 9c be
       -0.4334018 -0.104397066 -0.2279363 -0.30603623
0002a0 e5 9f ab bd c1 82 00 bf d6 8d a8 3e 18 67 0f be
       -0.08380107 -0.50199515 0.32920712 -0.14004171
0002b0 d2 d6 e2 be 67 aa 2d be e3 d1 fb bd b7 c3 95 be
       -0.4430452 -0.16959535 -0.12295892 -0.2925088
0002c0 43 b3 28 3f 2b b2 aa 3c e7 49 d5 bd ca 0b bc bc
       0.6589853 0.02083691 -0.104144864 -0.02295484
0002d0 d1 38 12 be 90 48 87 bd 32 5b b7 be b3 60 06 bf
       -0.14279486 -0.06605637 -0.35811764 -0.524913
0002e0 3a 8b 8d be 54 dc 06 bf 12 ee 2e 3e 2f 33 03 3e
       -0.27645284 -0.52679944 0.17083004 0.12812494
0002f0 4f 73 bd 3e 1b 2e 81 bc f8 27 6b 3e 86 57 bd 3b
       0.37002036 -0.015769055 0.22964466 0.005778256
000300 92 cd 08 3f 19 6b 82 be c7 e2 68 3e f6 47 18 3d
       0.53438675 -0.25472334 0.22742759 0.037178002
000310 96 d6 ce be 18 c1 c3 3e 00 bc 2e 3a ca bd d9 3e
       -0.4039809 0.38233256 0.00066655874 0.4252761
000320 c4 f7 29 3d 12 df f2 be 18 c7 c4 3e cb 21 72 3e
       0.041496053 -0.47435814 0.38433146 0.23645703
000330 8b 88 a5 be ae 2a 6e 3e a2 fa ec be 0d 29 0e bf
       -0.32330737 0.23258469 -0.46284968 -0.5553139
000340 2e 7f 01 be 4a 6e 39 be 83 43 0c bb c1 8f 98 be
       -0.12646171 -0.18108478 -0.0021402545 -0.29797176
000350 4c 18 9a be 3b a5 9b 3e aa 18 9b be e9 9c 10 bf
       -0.30096662 0.30399498 -0.30292255 -0.56489426
000360 87 81 11 3f be 6f 87 bc e8 2b 32 3e 84 a5 cd 3d
       0.5683827 -0.016532775 0.17399561 0.10041335
000370 7f 0c 84 3e 1d c7 79 be f6 1c 6f be 54 62 c4 be
       0.25790784 -0.24392362 -0.23350891 -0.38356268
000380 ef fb 9b be 72 40 a6 be 79 00 b4 be 3c 37 ca 3e
       -0.30465648 -0.32471043 -0.3515661 0.39495265
000390 07 49 90 be d9 17 13 be 87 3e a7 3d 25 81 07 be
       -0.28180715 -0.14364566 0.08166223 -0.13232858
0003a0 a7 8e f3 be df fd 8f be 78 bb 5c bd 6f 27 32 3e
       -0.47569773 -0.28123376 -0.05388972 0.17397855
0003b0 d6 ed 82 be 84 cc e8 3e 42 d2 d0 be 48 0a c7 3e
       -0.2557208 0.45468533 -0.40785414 0.3887503
0003c0 49 71 b1 be 4d e5 a1 be 86 6f c3 3d b0 f4 9c 3e
       -0.34656742 -0.31620255 0.09542756 0.30655432
0003d0 bf 9b dd 3e db 40 18 3d cc 7c d7 3e 4b db 05 3e
       0.43282887 0.037171226 0.420874 0.13071935
0003e0 78 b6 b7 3d 79 91 8a be bb 22 d1 be e6 6a 06 bd
       0.0897035 -0.27064112 -0.4084681 -0.03281679
0003f0 fc d6 96 3e 96 3b a8 3e 40 ad af bc 3c 34 8d be
       0.29460895 0.3285796 -0.021444917 -0.27578914

fc_lat.bias f4 [400]
000000 bc 26 78 be de 50 8d 3e 84 33 82 be 39 b0 69 3d
       -0.24233526 0.2760076 -0.25429928 0.057052825
000010 9a f2 fb be 5f 0d 29 be 97 2a bb 3e 36 df ec bd
       -0.49208528 -0.16509007 0.3655593 -0.115660116
000020 bd 4e fe 3e 04 3b a3 be 63 e1 c9 3c 55 66 12 3f
       0.49669448 -0.31880963 0.024643606 0.57187396
000030 3c 18 57 be 01 41 08 bd f2 78 88 be 1b 6e 94 3e
       -0.21005338 -0.033265118 -0.26654774 0.28990254
000040 3b cf 5c be 6c a1 7c 3e ba 9a fb bd 4a 08 ab 3d
       -0.21563427 0.24670953 -0.12285371 0.083511904
000050 ae b5 25 3f f4 66 b4 be da d9 ff be eb fc de bd
       0.64730346 -0.35234797 -0.49970895 -0.10888084
000060 b8 8c b5 be bb 61 90 3d 70 17 cb bd e0 92 1a 3e
       -0.35458922 0.070498906 -0.0991658 0.15095091
000070 1e 4b 2b be 4e 68 c1 be 66 65 32 3e f2 65 94 3e
       -0.16727874 -0.3777489 0.17421493 0.28984028
000080 ac 50 d2 3d f4 a1 e8 be a5 13 a0 be e7 d9 9f be
       0.10269293 -0.4543606 -0.31264988 -0.31220934
000090 d4 4f 66 be 04 23 50 be f6 2e db be 4d 75 ed be
       -0.2249139 -0.20325857 -0.42809266 -0.46378556
0000a0 a2 c1 60 3e 3e 78 95 be 4d 66 6e be b9 d8 b1 be
       0.21948865 -0.291933 -0.23281212 -0.3473566
0000b0 42 ec 19 3c 6f b1 0e 3e 2f 08 ae be b1 ae 4a 3e
       0.009394707 0.13934873 -0.3399062 0.19793202
0000c0 91 91 d2 be 98 00 c4 3d 14 d2 a4 3d 7c a2 dc bc
       -0.41126683 0.09570426 0.08047882 -0.026932947
0000d0 80 2e b2 be 2d 54 68 3e 4a 53 df bd a5 1b de 3d
       -0.34801102 0.2268836 -0.10904558 0.108451165
0000e0 25 79 8c be 41 17 b8 be d1 8d 95 3d a0 8e dc 3c
       -0.27436176 -0.3595524 0.0730244 0.026923478
0000f0 4d b7 e1 3c aa 4d a8 bd 27 41 fe bd 80 d5 64 bc
       0.027553225 -0.08217938 -0.124147706 -0.013966918
000100 71 00 d0 be 70 47 8b bd 6c 06 15 3e 24 1f 9b be
       -0.40625337 -0.06800735 0.14553231 -0.30297196
000110 27 2d 6e be 9d a6 88 3e aa d1 38 3e 25 21 92 bd
       -0.23259412 0.26689616 0.1804873 -0.07135228
000120 40 b6 d7 be c0 a4 c4 be ed 80 20 3e b2 2a d9 be
       -0.42131233 -0.38406944 0.15674181 -0.42415386
000130 3a eb 97 be 71 01 05 3e 74 6b 78 bd 1a 8f de 3d
       -0.2967165 0.12988831 -0.06064935 0.10867138
000140 03 ef ca 3e 24 cb c4 be f2 3c 11 bd e0 32 18 3e
       0.39635476 -0.38436234 -0.035458513 0.14863157
000150 33 61 66 be 76 73 07 3e 17 9b a6 3e 50 0b c1 be
       -0.22498016 0.13227639 0.325402 -0.37703943
000160 31 63 af 3c 45 51 52 be 65 b9 92 bd 49 e3 de 3e
       0.021409603 -0.20538814 -0.071642675 0.4353278
000170 ee 81 13 3f 3e c1 44 bd 26 48 0f 3f d8 a3 89 bd
       0.5762013 -0.048035853 0.55969465 -0.06720704
000180 78 99 3e 3e 16 21 82 bd 5c 87 e8 be 28 a9 dc 3e
       0.18613231 -0.06353967 -0.4541577 0.43097806
000190 b4 8e f5 3e 56 4b e4 3e fe f3 d1 be eb f0 a2 be
       0.47960436 0.44588727 -0.41006464 -0.3182443
0001a0 ac 58 5e 3e c2 b1 ef 3c 8f 4a 26 3c 84 31 3a 3e
       0.21713513 0.029259566 0.010149612 0.18182951
0001b0 d8 10 f7 3d 36 19 ed 3e 1b 1b 0d 3f 3b b0 e0 3e
       0.120637596 0.46308297 0.55119485 0.43884453
0001c0 4c 89 d9 be f0 8c e0 3e 4a e6 8c be a2 d8 9e 3e
       -0.42487562 0.43857527 -0.27519447 0.31024653
0001d0 fc 05 87 3e b3 3f 32 3e 24 4b d1 3d 18 0b 2a 3e
       0.26371753 0.17407112 0.1021941 0.16605794
0001e0 e0 9c f3 3e 9e cd c8 3d 44 46 f8 3e 63 bd e2 3e
       0.47580624 0.09804843 0.48491108 0.44285116
0001f0 78 49 45 be 4a 0a c9 3c 00 a0 c5 bc 6c 6a f3 3e
       -0.19266307 0.024541039 -0.024124146 0.4754213
000200 5f ca f5 3e 4c 37 c0 3e d0 9f cd be 15 4b 69 3e
       0.4800596 0.37542188 -0.4016099 0.22782548
000210 f4 d8 46 3e be 9f c9 be 0b 55 2d be 28 23 3b be
       0.19418699 -0.39379686 -0.16926973 -0.1827513
000220 e4 3c 28 3e 6a d8 80 3d 87 a6 57 be 08 2e c6 3e
       0.16429478 0.06291278 -0.21059619 0.38706994
000230 a3 85 14 3e b2 db 1a 3e 90 3b 78 3d 70 8f fd be
       0.14504103 0.1512287 0.06060368 -0.49523497
000240 c3 35 86 3d 0e 94 9d be d0 4d 3d 3e f3 03 fd bd
       0.06553223 -0.3077702 0.18486714 -0.12354269
000250 74 6c 0d 3f 3b f7 e3 3e 71 71 57 3e 14 6f 4e 3e
       0.5524361 0.4452456 0.21039368 0.2015956
000260 f0 51 89 3e 41 0f 97 3e 93 e5 ec 3e 72 7b 11 be
       0.26820326 0.29503825 0.462689 -0.14207247
000270 23 14 dd 3e fc 74 89 3e 2b a3 c2 be 0b 99 1f be
       0.43179426 0.26847064 -0.38015112 -0.15585725
000280 0b 0d 37 be 48 7e 91 be 54 68 8d be fa 62 27 be
       -0.17876069 -0.28416657 -0.2761866 -0.1634635
000290 08 c1 0b be 8b 41 7c 3e 01 51 4f 3e 03 b9 03 be
       -0.13647854 0.24634378 0.20245744 -0.12863545
0002a0 d4 3e 58 3e d1 90 09 3f 6a d5 d0 be 77 98 cb be
       0.21117717 0.537366 -0.40787822 -0.3976476
0002b0 10 e7 35 3e d0 ed be be 94 71 32 be 92 33 ac be
       0.17763925 -0.37290812 -0.17426139 -0.33633095
0002c0 24 bb a4 be f5 9d b0 be ce 53 3f be 5b 21 6f 3c
       -0.32174027 -0.34495512 -0.18684313 0.014595355
0002d0 f6 d0 ac 3e c1 45 6d 3d 6d d3 3f 3e 67 1b 99 be
       0.33753175 0.05792785 0.18732996 -0.2990372
0002e0 d2 f8 a4 be 37 62 c5 bd bc a8 6b 3e d0 ac 6d be
       -0.32221085 -0.096378736 0.23013586 -0.23210454
0002f0 d0 79 90 be 4f 8f 3f be b5 94 93 bd b8 a3 1c 3f
       -0.28217936 -0.18707012 -0.07206098 0.61187315
000300 31 98 b7 3e 72 91 76 3e c4 fd bf be e7 06 db bd
       0.358583 0.2407892 -0.37498295 -0.10694676
000310 38 ce 12 3e 2d 81 c2 3d 5c 9e 04 3f 13 b0 a0 bd
       0.14336479 0.094972946 0.5180414 -0.078460835
000320 a9 eb 04 3f ba ed 4a be 60 e4 0b 3e 26 6c 8d 3e
       0.5192209 -0.19817248 0.13661337 0.27621573
000330 51 58 0c 3f 3f 2b 75 3c f9 56 f8 3d 84 dc c6 be
       0.5482226 0.014963924 0.12125964 -0.38840115
000340 88 15 cb be 14 d1 9c bd 85 f8 06 3e 22 74 56 be
       -0.39664865 -0.07657066 0.1318074 -0.20942739
000350 e6 29 df be fe 20 de 3e c4 29 c9 be 72 a0 03 be
       -0.43586653 0.43384546 -0.39289677 -0.12854174
000360 5d 56 2e 3d fc 10 8c be 1e a7 a8 3e 60 69 ce 3e
       0.04256283 -0.27356708 0.3294 0.4031477
000370 90 8f 8e 3e d2 25 9d 3e ba 51 d7 3e 7c 35 d0 be
       0.27843904 0.30692917 0.4205454 -0.40665805
000380 ac 08 35 be ff a4 cd 3d 3a 65 7e be 8c 6e e7 3e
       -0.1767909 0.10041236 -0.24843302 0.45201528
000390 69 15 c4 bd 6d 60 c5 3d e5 8b 1b bd 48 ae 7e 3e
       -0.09574396 0.096375324 -0.03797521 0.2487117
0003a0 e0 67 1e 3d 31 e8 52 3e 3a 43 db 3e 23 1c a5 bd
       0.03867328 0.20596386 0.42824727 -0.08062007
0003b0 6f a1 f1 3e f9 2e d0 be 09 a5 cd be 28 1c 10 be
       0.47193477 -0.40660837 -0.40164974 -0.14073241
0003c0 88 f4 ca 3e f2 55 41 be 40 d1 cf 3e 24 72 fd 3e
       0.39639688 -0.18880442 0.40589333 0.49501145
0003d0 e8 a1 b1 3d bf 68 57 bd a0 af cf 3d a6 23 6c 3e
       0.08673459 -0.052590128 0.1014092 0.23060474
0003e0 ab cb 0d 3d f0 5a c4 bd 96 7f 6b 3e b6 db 7d bd
       0.03461806 -0.095876575 0.22997889 -0.06197711
0003f0 04 43 7f be 55 37 92 3c e2 70 29 3e 68 ae be 3e
       -0.24927908 0.01784865 0.16546968 0.37242436

fc1.weight f4 [20, 400]
000000 4b f0 2b 3d 25 2e 8e 3d f4 be 04 bd b1 ff be 3d
       0.041977208 0.06942395 -0.03240867 0.09326113
000010 2d e8 f7 bc c2 de 03 be 8e 12 34 3c 4e c7 8b 3d
       -0.030262077 -0.12877944 0.010990752 0.06825124
000020 95 02 0c bd 07 c4 40 be 3f d0 ac 3d 61 f1 e4 3d
       -0.03418215 -0.18824778 0.08438157 0.11178852
000030 7a fa c4 bc 80 45 28 be 8f 84 b8 3d ca df 95 3d
       -0.024045218 -0.16432762 0.090096585 0.07318075
000040 f5 bb c3 3d fd 79 a1 bc a8 c7 b8 3c 68 1f 96 3d
       0.09557334 -0.019711489 0.022556141 0.07330209
000050 79 ae ac 3d 02 1d c9 3c df b2 0e 3d 4f ca f5 bd
       0.084317155 0.024549965 0.034838554 -0.12001478
000060 3b a9 a3 3d 1b 29 04 3d 4a 7c 47 3d ce 3a 10 3d
       0.079912625 0.032265764 0.048702516 0.03521233
000070 5b 05 c8 bb 52 ab fa 3c 5c 43 56 bd f5 b4 99 3d
       -0.006104154 0.03059927 -0.052310333 0.07505218
000080 12 14 2b 3d 83 83 a6 bc 84 ce ee 3d a6 7d fe bd
       0.041767187 -0.020326382 0.116604835 -0.12426309
000090 5a ab 37 bd 6f f1 45 bd a3 54 ba bc 05 b7 54 3c
       -0.044841148 -0.048325952 -0.022745436 0.012983088
0000a0 a1 55 ec bc ed 5e e2 3d 0f 59 9f 3d 7f 30 64 3d
       -0.028849425 0.11053262 0.077806585 0.055710312
0000b0 ae 33 00 be 45 67 98 3d c4 45 df 3d 05 b6 65 3c
       -0.12519714 0.07441572 0.109019786 0.014020448
0000c0 b9 7d 9c 3c 22 77 90 3c 22 8e f1 3b d1 41 c1 bd
       0.019102918 0.017634932 0.00737168 -0.094363816
0000d0 92 73 d4 3b 11 f0 b4 bd ae 61 cb bd d4 3a 50 3d
       0.0064835036 -0.088348515 -0.0993074 0.050837353
0000e0 f7 f1 83 3c 06 f7 d1 3c 4f 6e b1 3d 00 ea cb 38
       0.016106589 0.025630485 0.08663618 9.72338e-05
0000f0 03 88 e6 3d fd 85 91 bd 52 02 2a bc 86 17 a5 3c
       0.11256411 -0.07105634 -0.01037653 0.020152818
000100 c9 77 0e bd 1f 94 76 bc a2 b7 32 bd 1a d4 59 3d
       -0.034782205 -0.015049963 -0.043632157 0.05318079
000110 8a 0b b2 bd 10 16 b9 3d a6 55 a2 3c 88 9d 87 3d
       -0.08693607 0.09037411 0.019816231 0.066218436
000120 f8 f2 ae 3c 9e 9c 1e bd 5f 9e 25 bd 7d cc 30 be
       0.02135609 -0.03872358 -0.040434238 -0.17265506
000130 6d 3c e5 3d 72 85 b5 bd 6b 46 ae bc b8 99 92 3d
       0.11193166 -0.08863343 -0.021273812 0.07158226
000140 11 52 cc 3d 40 2d f4 bc f9 a7 b7 bd 54 72 7d bc
       0.099765904 -0.029806733 -0.08967585 -0.0154691525
000150 3d 68 f5 3d 97 d9 0e 3d f5 ac bd 3d bf c5 33 bd
       0.119827725 0.03487548 0.092615046 -0.043889757
000160 a5 8f 66 bc ee d9 07 be 3b 04 94 bd eb bb f3 3c
       -0.014072333 -0.13266727 -0.072273694 0.029752692
000170 a5 f7 1d 3e 52 c1 17 bc b9 7e d0 3d 88 ef 03 bd
       0.154265 -0.0092624 0.101804204 -0.032210857
000180 4c 94 ca bc bc cd 24 bd 8b 86 11 3d 6e a4 ed bd
       -0.024728917 -0.040235266 0.0355287 -0.11603628
000190 6e c9 91 3d 15 81 5a 3d 63 c6 c3 3c bf 8f af 3c
       0.07118498 0.05334576 0.02389831 0.021430848
0001a0 70 74 c4 bc 40 75 f9 bc ea 76 9f 3d 5d 3a 92 3d
       -0.023981303 -0.030451417 0.07786353 0.07140038
0001b0 66 22 93 bc 2d 47 02 bd e5 cd 98 3d 14 fe af 3d
       -0.017960738 -0.03180616 0.07461146 0.085933834
0001c0 90 4c 2a bd f8 3c 89 3d d2 ec df 3c c8 d0 18 bc
       -0.041576922 0.06701082 0.027334604 -0.009327121
0001d0 d2 d0 9f 3d 66 35 e3 3d a8 12 43 3d 5b 89 11 3e
       0.07803501 0.11094169 0.047625214 0.14212553
0001e0 c8 75 a2 bd fa 4c a4 3c 07 b8 7b 3d 27 12 b7 3c
       -0.07932621 0.020056237 0.0614548 0.022347523
0001f0 5c fe 9f 3d 76 8f 52 3d 4e ff 0d bd 3e d2 95 3c
       0.07812187 0.051406346 -0.034667306 0.018288728
000200 c6 e1 f7 bd 54 bc 73 bd da 1a 64 3c 8c e0 b5 bc
       -0.1210361 -0.059505776 0.013922418 -0.022201799
000210 7e 5d d5 3c b9 4b c0 3d e3 af d6 3b a0 90 a3 3a
       0.026045557 0.09389443 0.006551729 0.0012479015
000220 27 c7 df bc 82 43 a1 3d e8 d8 92 3c 63 f8 16 3e
       -0.027316643 0.07874204 0.017925695 0.1474319
000230 1a 41 96 bd 16 d7 c3 bb 8a 12 8e 3c b4 69 08 3c
       -0.07336636 -0.005976568 0.017342824 0.008325983
000240 61 68 01 be 19 d6 a6 3d 86 56 da 3d 95 55 51 bc
       -0.12637474 0.08146305 0.10661034 -0.012776752
000250 f5 b9 fe 3d dc d5 20 3d 40 ed cd 3d e2 de 6c 3d
       0.12437812 0.039266452 0.100550175 0.057829745
000260 c9 a5 0e bd d3 43 a7 3c 4c d0 b4 3d 23 93 1a 3d
       -0.034826074 0.020418083 0.08828792 0.037737977
000270 6f e0 03 bd 42 5f e3 3d d9 a7 b0 3c 9b d4 5c 3d
       -0.03219646 0.11102153 0.021564411 0.053913694
000280 a2 e4 90 3c 69 5f 42 3d 79 07 10 3d 4e 37 af 3d
       0.017687146 0.04745427 0.035163376 0.085554704
000290 4a 5c a2 3c f4 0d 86 3d 64 b2 71 bb 6e 4e 1f 3d
       0.019819397 0.0654563 -0.003688001 0.038893156
0002a0 ea 94 09 3e b0 4d 7a 3d 2c ab 4c bc 7c 32 0e be
       0.13435712 0.061109245 -0.012491982 -0.13886446
0002b0 41 eb c9 3d da ee 9c bc 08 d1 22 3c c1 41 47 3d
       0.09859324 -0.019156862 0.009937532 0.048646692
0002c0 c4 b5 6e 3d 9f ae f6 bc ef e9 b1 bd 20 4b 9a bd
       0.058278814 -0.030112563 -0.086871974 -0.0753386
0002d0 65 8c 35 bc 76 95 e3 bd 7c d1 03 3e b9 d8 56 3d
       -0.011080836 -0.11112492 0.1287288 0.052452777
0002e0 66 bc aa 3c 30 bd c6 3d 90 c9 ed bb b8 0c 53 3d
       0.020841789 0.097040534 -0.007256694 0.0515258
0002f0 df aa 86 3c a9 4d e1 bd fe e4 3a bd 92 76 9c 3d
       0.0164389 -0.110011406 -0.04562854 0.07639803
000300 28 9f 6c bc 54 53 31 bd f0 7f 22 bd 03 87 ae 3c
       -0.014442243 -0.04329236 -0.039672792 0.021304613
000310 80 4b fe bb 7d ed ab 3d 9a 29 85 3d bc 5f 14 bd
       -0.007760465 0.08394907 0.065020755 -0.036224112
000320 1c 47 e2 3d d9 91 05 be 9c ec 40 3d d7 02 91 bd
       0.11048719 -0.13043918 0.04710065 -0.0708062
000330 33 21 b3 3d c5 b9 06 3d 27 77 bb 3d 4a dd 98 3c
       0.087465666 0.032892007 0.09153586 0.018660206
000340 fa 7b 32 bd 25 af a0 3d 89 d9 c6 3c 88 bd b8 bc
       -0.043575265 0.07845906 0.02427365 -0.022551313
000350 6f 54 3b 3b 88 6c 88 3d 80 10 75 bb 35 11 d3 bc
       0.0028584262 0.06661326 -0.0037393868 -0.02576504
000360 69 7a 49 3d 1b 95 b4 bc ba 63 f9 3c f4 dc b4 3d
       0.049189005 -0.022043755 0.030443061 0.08831206
000370 08 60 46 bc 04 bf 55 3c 20 83 a3 3d 60 87 f9 3a
       -0.012107857 0.01304603 0.079839945 0.0019037537
000380 34 79 9a 3c ee 73 61 3d c6 02 b9 3d 63 8e 42 bd
       0.018856622 0.0550422 0.09033732 -0.04749907
000390 93 68 43 3d 6b df cf bd f7 97 9b 3d b3 63 e3 bc
       0.04770715 -0.101500355 0.07597344 -0.027757501
0003a0 e9 d7 02 3e 2a 29 82 bd a2 ba c0 3c a9 7d f2 bd
       0.12777676 -0.06355508 0.023526493 -0.11840374
0003b0 b0 ef 8f 3d 20 1a 05 3d f7 b7 41 3d e8 a3 98 ba
       0.07028139 0.032495618 0.047294583 -0.0011645528
0003c0 ca eb a2 3d ef 91 02 bd 5e 95 01 3e d8 65 87 3d
       0.079551294 -0.031877454 0.12654635 0.06611222
0003d0 e0 77 e3 bc e6 95 10 3d 6a 6d c3 3c 8a 0d 98 3d
       -0.027767122 0.035299204 0.023855884 0.07424457
0003e0 7a ea 76 3d d9 2f 0d 3d fe 75 ce 3c 85 56 e6 3d
       0.060282208 0.03446946 0.025202747 0.11246971
0003f0 14 c8 83 bc 76 64 91 3d a5 a1 07 3c 3a 2a fa bc
       -0.016086616 0.070992395 0.008278285 -0.030537713

fc1.bias f4 [20]
000000 a6 19 0a 3d c2 c6 25 bd b0 f6 ea 3b d7 91 31 bd
       0.033715867 -0.040472753 0.0071705207 -0.043351974
000010 21 b3 50 bd ab ad cf 3d c2 a5 34 3d 31 ed 70 3d
       -0.05095208 0.101405464 0.04410339 0.058819953
000020 5b 20 80 3c 23 76 02 3d 0f 02 aa 3d dc 37 37 3d
       0.015640428 0.031850945 0.08301174 0.044731006
000030 7a 72 07 3c 6c ba e4 3d 26 0a 9f 3c 50 50 e4 3b
       0.008267039 0.1116837 0.019414019 0.006967582
000040 b3 48 1c bd a5 5c d5 3c 5e 68 7b 3d 80 1c a1 3c
       -0.03815527 0.026045153 0.06137883 0.01966691

conv1.weight f4 [16, 4, 3]
000000 f1 23 75 3c 2d ea 2f be 0c 92 a2 bc e2 aa 83 3c
       0.014962182 -0.17179175 -0.019845031 0.016072694
000010 ff 38 38 3e c2 aa a9 3e 8f 60 6c 3d 1d 73 a3 3e
       0.17990492 0.3313809 0.057709273 0.31923762
000020 a0 ed 89 bd 90 27 87 3e d5 ad b7 3b e8 1c a8 bd
       -0.067347765 0.2639737 0.005605439 -0.082086384
000030 98 dc 85 be 3a c1 ad 3d c5 2b 0d bd 41 62 8f 3e
       -0.26144862 0.08484121 -0.03446557 0.2800465
000040 2a e1 b3 bd 86 ed 20 be a6 3c 74 3e ce 5e 7e 3e
       -0.08783181 -0.15715608 0.2385126 0.24840853
000050 f2 4f 3f 3d 6a 18 e8 bd 83 6c 00 3e 94 42 d5 3d
       0.0467071 -0.113327816 0.12541394 0.104130894
000060 26 f5 9a 3e 19 78 6f 3e 84 0b b3 3d 19 45 93 3e
       0.30265158 0.23385657 0.08742431 0.28763655
000070 c9 3f ac 3d 38 79 b7 3d 8d 87 48 3e 03 cc 80 bd
       0.084106036 0.089586675 0.19582959 -0.06288912
000080 fe c8 9b bd e0 b0 81 3e b9 cd 9a 3e 97 56 86 3d
       -0.076066956 0.25330257 0.3023508 0.065594845
000090 c0 ac 26 bc f3 59 93 3e a6 3a 90 3e ba 8c 8e bd
       -0.010173023 0.28779563 0.28169745 -0.06960435
0000a0 ad 8b 5b 3e 2d b4 8f bd 43 f1 12 be 70 41 ff 3c
       0.21440001 -0.07016788 -0.14349847 0.031159133
0000b0 ef 70 25 3e 59 11 2f 3e c8 4c 97 3d e4 f7 8c 3e
       0.16156362 0.17096461 0.07387692 0.27532876
0000c0 76 d2 30 be fe e1 81 3e 02 74 c6 bc 7a c6 55 bc
       -0.17267784 0.2536773 -0.024225239 -0.013047809
0000d0 5d ff 73 3e 20 f3 c2 3d e8 a4 38 3d 57 ca 37 3e
       0.23827882 0.09519029 0.04507914 0.1794828
0000e0 36 d6 d3 3d 4d 90 24 be da 60 de 3d 7a 87 bb bd
       0.10343592 -0.16070671 0.10858317 -0.091566995
0000f0 1e e9 5f 3d 8f af 90 be 55 5c 50 be e5 ab 05 be
       0.054665677 -0.2825894 -0.20347722 -0.13053854
000100 e3 4d 33 3e 2d 31 c3 bd d9 df 7d 3e 82 01 1e 3d
       0.1751018 -0.09530864 0.24792422 0.038575657
000110 e5 e9 80 be d5 6e a7 bc 86 81 0c 3c 10 f1 75 be
       -0.25178447 -0.020438591 0.008575803 -0.2401774
000120 94 4a 05 be bb 1d 52 be e4 df 29 bd 6c 0e 84 bd
       -0.1301673 -0.20519154 -0.041473284 -0.06448063
000130 2e 30 c0 3d f4 96 3e 3d ed 02 41 3e f9 15 ce bd
       0.093841895 0.04653068 0.18848772 -0.10062785
000140 dc 30 88 be 97 59 39 be 5b ec 42 be b5 29 b8 3d
       -0.26599777 -0.18100582 -0.19035475 0.0899233
000150 88 5f 1b 3d d1 b8 7a bd 22 b6 0e 3e 36 0f 69 bd
       0.037932903 -0.06121141 0.13936666 -0.056899272
000160 51 8f 91 be d4 a5 1f be dd 1e e7 3c 1e 7e 7a 3d
       -0.28429654 -0.15590602 0.028212959 0.06115543
000170 de ea 1a be aa 2c 69 3e 94 70 35 3e 42 d4 31 be
       -0.15128657 0.22770944 0.17718726 -0.17366126
000180 1a 70 2c be 1b c2 a3 3e 48 0b 37 3e c6 26 8a 3e
       -0.16839638 0.31984028 0.17875397 0.26982707
000190 90 0a 01 3e f6 6d 6c 3e f2 64 b9 bc c8 5a 07 be
       0.12601686 0.23088822 -0.022631142 -0.13218224
0001a0 ec f7 90 3e de 88 0a be 15 5a eb bd 96 a3 69 be
       0.2831415 -0.13528773 -0.11491791 -0.2281631
0001b0 7d 0c 71 3e 35 0f 62 be c4 e0 c9 bd 32 9d 8a 3c
       0.2353992 -0.22076114 -0.09857324 0.01692066
0001c0 66 59 01 be 1a a7 f1 bd 32 ba 87 3e 07 63 87 be
       -0.12631759 -0.1179945 0.26509243 -0.2644274
0001d0 3b 26 93 3c 58 18 83 3d ee 34 39 3e 40 ca 30 3e
       0.017962566 0.064011276 0.18086597 0.17264652
0001e0 eb 09 54 3d a0 f7 95 3e 80 5b 46 be 3d d5 ef bb
       0.05176727 0.29290485 -0.19370842 -0.007319121
0001f0 cb 40 80 3e ea f5 94 3d 44 9a d4 3d 3a 05 c7 3d
       0.25049433 0.07273467 0.10380986 0.09717794
000200 05 c5 ff 3a 8f 6f 2a 3e b2 dd 18 be 9d a8 c5 3c
       0.0019513672 0.16644119 -0.1492832 0.024128253
000210 86 89 b5 3e 34 8a 3a 3d 09 56 2c bd 88 79 24 be
       0.35456485 0.045541957 -0.042074237 -0.16061985
000220 da 4c 97 bd db 80 ab 3e 70 85 c8 3d 2a 43 2c 3d
       -0.07387705 0.33496746 0.09791076 0.04205624
000230 93 48 8c 3e d4 b2 e4 3d fc 2e 14 be 71 ea f1 bd
       0.2739912 0.11166921 -0.14471048 -0.11812294
000240 40 83 17 3c db 67 e4 3d 60 e0 db 3d 1f 08 82 3c
       0.009247601 0.11152621 0.107361555 0.015873013
000250 4a cd 96 be b4 a7 a2 3e 4d a6 5e 3d 03 d7 5b bb
       -0.29453498 0.31768572 0.054357816 -0.0033544905
000260 da b5 72 be cd 13 17 3e 25 2c 44 bc 65 a8 da 3d
       -0.23702183 0.14753647 -0.0119734155 0.1067665
000270 81 53 6c be 61 96 01 be 54 39 8a 3e 6a ce 2c be
       -0.23078729 -0.12655021 0.26996863 -0.16875616
000280 be b5 f1 bd 4a e5 9b 3e ed f4 5e 3e d4 66 8c be
       -0.11802243 0.3044837 0.2177312 -0.27422202
000290 c5 21 aa 3e 87 3b 8a bd 47 8f 1a 3d 7b 47 e4 3d
       0.3322889 -0.06749635 0.037734296 0.11146446
0002a0 93 c7 88 3d 1f 68 69 3c b4 f3 aa bd 6f 04 81 3d
       0.06678691 0.014246016 -0.08347264 0.06299674
0002b0 bc cf 9a 3e e1 22 09 3d b3 69 8b 3d 93 65 14 be
       0.30236614 0.03348053 0.0680727 -0.14491872
0002c0 70 57 9f 3e a1 af 37 3e 1e 5c a9 3e d1 d8 73 3e
       0.31121397 0.17938091 0.33078092 0.23813178
0002d0 cb 0d 5d be 23 d1 f8 3d 08 43 bb bd c5 42 53 3e
       -0.21587293 0.12149265 -0.091436446 0.2063094
0002e0 44 76 34 be 33 9c 70 3e ef ab 10 3e 53 bb 7f be
       -0.1762324 0.23497085 0.14128087 -0.24973802
0002f0 46 79 85 3d 40 4a 95 3c ec bd 80 be 0f 7a 23 3e
       0.06517272 0.018223882 -0.251449 0.1596453

conv1.bias f4 [16]
000000 9e 6f 80 3e cb 18 1f bd 8b 12 40 be 10 5b 2a be
       0.25085157 -0.038842004 -0.18757074 -0.166363
000010 61 e3 2a bb f6 f7 b5 3e 52 5a 2e 3e 92 30 17 be
       -0.002607547 0.35540742 0.17026642 -0.14764622
000020 a9 7f 28 be c0 56 78 be 20 b5 20 be 07 67 85 3e
       -0.16454948 -0.24251842 -0.15694094 0.26055166
000030 69 54 87 3e 09 ee f1 bd 90 df 6e 3e f3 fc 18 be
       0.26431587 -0.1181298 0.2332747 -0.14940242

conv2.weight f4 [8, 16, 3]
000000 42 6d 34 3e 97 57 8c 3c 92 43 0a bd 8c a2 05 bd
       0.17619804 0.01713161 -0.033755846 -0.03262572
000010 3b f1 c9 3d 10 6d 08 bc 85 21 35 3e b7 4c 90 3d
       0.09860464 -0.008326784 0.17688568 0.07045882
000020 74 00 32 3e 07 c3 55 3d 61 62 98 3d 2d 91 38 bd
       0.17382985 0.052187946 0.07440639 -0.045060325
000030 29 95 bf 3d 1a 68 6f bd fb 80 2e 3d 8c a4 1a bd
       0.09354622 -0.05844889 0.042603474 -0.03775458
000040 b9 ea 5e 3d 8a 0f cb 3d e7 75 11 be dd 57 15 be
       0.054423068 0.09915073 -0.14205132 -0.14584298
000050 cc 57 d9 bd 64 8f 0c 3d 09 ca 03 3d 2d 7b 9b bc
       -0.10612449 0.034316435 0.032175098 -0.018979633
000060 5b 88 12 3d 2a c0 0d 3e 84 e1 4b bd 62 f7 f4 3c
       0.03577457 0.13842836 -0.049775615 0.029903118
000070 bf 6c cf 3d 8d 6a 07 3d 13 8d f1 3d 8b 20 36 bc
       0.101281635 0.0330606 0.11794486 -0.011116157
000080 79 27 cb bd ff 24 a3 bb 5b 1a 2d 3e d1 2c 3a 3e
       -0.09919638 -0.0049787755 0.16904585 0.18181159
000090 7d ae 9b bd 75 a0 13 3d 0b e3 a0 ba a8 5b 15 3d
       -0.076016404 0.036041696 -0.0012274695 0.036464363
0000a0 76 c7 2c bd a1 1c 0b bd d0 54 0b 3e 2f d3 e6 3b
       -0.04218241 -0.03396285 0.13606572 0.007044218
0000b0 fa f8 4e 3e dc af 11 3a b0 4e d2 3c 0f a4 b4 3d
       0.20212165 0.0005557516 0.025672287 0.08820354
0000c0 94 e6 2b 3e 9e a2 10 3c 90 91 4e 3e 68 3b 90 3d
       0.16787177 0.008827833 0.20172715 0.07042581
0000d0 d0 a8 51 bd a3 e5 0b 3e 66 a2 81 bd 32 e7 ec 3d
       -0.051186383 0.13661818 -0.06329803 0.115675345
0000e0 5c bb 23 3e b9 04 18 3e db 95 c2 3d 40 63 fd 3c
       0.1598944 0.14845552 0.09501239 0.030931115
0000f0 e1 53 97 b9 07 e4 d9 3d a8 4d 0d bd 94 aa fc 3c
       -0.0002886346 0.10639196 -0.034497887 0.030843057
000100 11 d5 f6 3c 14 cd 91 3a 27 cc ef 3d 0b 8a 98 bd
       0.030130895 0.001112374 0.11708861 -0.074482046
000110 a0 30 bd bd 83 19 75 bc c6 1b f1 3b 32 aa d0 bd
       -0.0923779 -0.014959696 0.007358047 -0.10188712
000120 7a 2d 06 3e d8 bd b5 3c 28 81 30 3d 99 88 50 3e
       0.13103285 0.022185251 0.043091923 0.20364608
000130 6e 09 08 bd 80 39 b4 bd ab 59 6e 3d 4e 49 b9 3d
       -0.033212118 -0.0880003 0.058190983 0.09047185
000140 42 a3 b9 3c 93 03 32 3e de 7f aa 3d 33 4b 3d 3e
       0.022660855 0.17384176 0.0832517 0.18485717
000150 d5 af 92 bc df 75 24 bd f5 98 b4 3c 0d 44 28 bd
       -0.017906109 -0.040151473 0.022045592 -0.041080523
000160 c0 d0 e2 3d 88 b3 4c 3e 12 0b 47 3e bc 4b bd 3c
       0.11074972 0.1999036 0.19437817 0.023107402
000170 3b fd 24 3e c3 56 83 bd 34 54 ac 3c 06 56 04 3e
       0.16112225 -0.06413033 0.021036245 0.1292344
000180 e8 ad 60 bc 28 8d 1d bd d4 76 f1 bd 78 97 ca bd
       -0.0137133375 -0.038464695 -0.11790243 -0.098921716
000190 5f ef fe bb 84 b8 99 3d 99 d4 42 bd ad a4 d8 bd
       -0.00778 0.07505897 -0.04756603 -0.105782844
0001a0 96 af ba bd 94 5c 2a 3d 4a 4a 88 bc b8 6a 02 be
       -0.091155216 0.041592196 -0.016636986 -0.12736022
0001b0 6b 39 9d 3d 9e 5c 0f be 50 1f cf bd a5 fc db 3d
       0.07676967 -0.14000174 -0.10113394 0.107415475
0001c0 8b 72 fa 3d e3 c5 e2 bd 50 e1 cc 3d 1b d9 8a 3d
       0.122288786 -0.110729 0.100039124 0.06779691
0001d0 3e 87 ac 3d 1f a0 8e 3d 4a cb 98 3d 11 5a c6 3c
       0.08424233 0.069641344 0.07460649 0.024212869
0001e0 4a 88 9d bd 5b e5 be 3d eb 4e a0 3d 14 2e 08 bd
       -0.07692011 0.0932109 0.078275524 -0.03324707
0001f0 d1 db f8 3d bb c1 57 3d 4e af 1d 3d b7 b5 99 bd
       0.12151302 0.05267499 0.03849726 -0.075053625
000200 e9 0c 15 be 35 89 89 3d fc 85 03 be a0 d3 21 3c
       -0.14555706 0.06715623 -0.1284408 0.0098771155
000210 fd eb f9 bd 57 22 b7 3d a8 02 56 bc a7 23 02 be
       -0.12203214 0.08942097 -0.013062157 -0.12708913
000220 be 38 3e 3d 14 bd 1f bc bf 66 18 3d 1f 0a 45 bd
       0.046440832 -0.00974967 0.03720736 -0.048105355
000230 56 00 5e 3b 11 dc 68 bd 91 57 b7 3d 5a f9 e9 3d
       0.0033874712 -0.056850497 0.08952249 0.11424513
000240 14 31 80 bd 33 4a e8 3d 9e be b5 3d be 6a 0e 3e
       -0.06259361 0.113422774 0.08874248 0.13907906
000250 0c 7d d2 3d 35 fb 0a 3e d7 26 26 3d fc 12 0b bd
       0.10277757 0.1357239 0.040564384 -0.03395365
000260 5c a4 a9 3d c9 26 1f 3d ed b6 d0 3d e2 05 e5 3c
       0.08283302 0.038855348 0.1019114 0.027956907
000270 39 7b 22 bd 32 35 ab 3d 73 56 d6 bc c5 45 96 bd
       -0.039668296 0.083597556 -0.02616427 -0.07337526
000280 d8 88 38 3e d1 b2 29 3e 41 af 8f 3d 1e c4 08 be
       0.18020952 0.1657212 0.07015849 -0.13356063
000290 ee c0 9a bd b2 0b 00 be 1e 9f 1f 3d 54 ee bf 3d
       -0.0755633 -0.12504461 0.038970105 0.09371629
0002a0 cd 57 f7 bb ac 46 c0 bd 37 bc b8 bc d7 5e e3 3a
       -0.0075483085 -0.093884796 -0.022550685 0.001734699
0002b0 7e 09 d9 3c d2 73 db bd 18 aa c6 3d 47 1f b1 3c
       0.026493784 -0.1071545 0.097004116 0.02162136
0002c0 2e 3d 70 3d 56 74 3b bd 5c 09 39 3e a8 be 7b bc
       0.058652095 -0.045765243 0.18069977 -0.01536528
0002d0 06 27 5d 3e 93 3c b9 bc ca b0 0a 3b 73 fc 20 3b
       0.21596918 -0.022611892 0.0021162503 0.0024564534
0002e0 8d fe 0c 3d b9 5a a0 bd c3 28 1c 3e 99 40 80 bd
       0.034422446 -0.07829804 0.15249924 -0.06262321
0002f0 a1 16 4c 3e 6e b7 59 3e c6 aa be 3b 01 81 27 3d
       0.19930507 0.21261379 0.0058186976 0.040894512
000300 6d e6 10 3e 38 98 9c 3d 84 a6 5b 3c 2e 43 00 3e
       0.141504 0.07646221 0.0134064 0.12525627
000310 59 03 99 bd f3 8d 8c bd 82 c1 2b 3b 80 67 32 3e
       -0.07471342 -0.06863012 0.002620787 0.17422295
000320 ad 98 4e 3d 8b b8 37 3e 4a c1 46 be 37 17 26 3e
       0.05043857 0.17941491 -0.19409671 0.16219793
000330 1f 60 48 3e 45 5e 2e 3d 3b c6 ec bc 69 7a 4d 3e
       0.19567917 0.04257037 -0.028903117 0.20066227
000340 78 bc e8 3d 2e 46 e1 bd 2f 87 0f 3e 03 52 37 3c
       0.113640726 -0.10999714 0.14016412 0.011188987
000350 2e 77 ec 3d 3e 92 b1 bd f5 cd ea 3d 9d 2d 32 3d
       0.11546169 -0.086704716 0.114650644 0.04350053
000360 d0 3d 9d bd 91 e8 ca 3d 61 02 0a 3e 5f f0 e1 bd
       -0.076778054 0.0990764 0.1347747 -0.11032175
000370 41 9c 10 3e 58 0f be bd ee 20 36 3e 3c 5b 19 bd
       0.14122106 -0.0928027 0.17785999 -0.037440524
000380 72 a8 b6 3d 8d 66 bd bd 98 cd 0c 3e b8 a7 65 3d
       0.08918847 -0.09248076 0.13750303 0.056068152
000390 2e 59 2c bd 68 00 87 3e 34 cf c5 3b db 2f 10 be
       -0.042077236 0.26367497 0.0060366634 -0.14080755
0003a0 a3 83 20 be c1 1a 80 3e 6d ea 11 3e c9 f2 95 bc
       -0.15675215 0.25020412 0.14249583 -0.018304246
0003b0 3e a7 81 3d 4b 74 d7 bc 3b 06 c1 3d 0d f7 72 3e
       0.06330727 -0.02630057 0.094250165 0.23727055
0003c0 5d d1 e4 3d ae e4 fd 3d c6 f2 83 bd ae 09 2f 3e
       0.111727454 0.12397133 -0.0644279 0.17093536
0003d0 85 ef 49 3e 16 79 3b 3e 5c ec 2f 3e 55 26 ee 3d
       0.19720276 0.1830791 0.17180008 0.11628405
0003e0 33 67 d7 3d bd a1 71 bd 09 0f b2 3d f3 15 5e bd
       0.105177306 -0.058992136 0.08694274 -0.05422015
0003f0 40 36 17 3e 41 c8 15 3e a0 c4 b7 bd c0 e6 0f 3d
       0.14766788 0.14627172 -0.0897305 0.03513217

conv2.bias f4 [8]
000000 c0 25 68 3c b2 b9 f6 3d 19 93 0a 3e d5 67 00 bd
       0.014169157 0.12047137 0.13532676 -0.031349022
000010 68 6a c2 bc d3 40 c2 bc 7d 25 bf 3d 62 9e 00 3d
       -0.02373238 -0.023712551 0.09333322 0.031401046

conv3.weight f4 [16, 8, 3]
000000 65 03 27 3e 85 1d 53 3e ec d6 e8 3d a6 a3 33 be
       0.16309889 0.2061673 0.11369118 -0.17542896
000010 4e 17 e2 3d 4e 42 17 3e ff 03 0f bd ee 40 3e be
       0.11039601 0.14771387 -0.03491592 -0.18579456
000020 87 54 1d be a7 c4 25 bc ce ae c5 bd b1 71 d3 bc
       -0.15364276 -0.010117686 -0.09652482 -0.025811048
000030 64 b2 1d be 6c b3 28 be d9 41 7c 3e 70 0d e5 3d
       -0.15400082 -0.16474694 0.24634494 0.111842036
000040 7c 24 6c 3e cb 3f e9 bd c6 76 5e 3e 09 85 e3 3d
       0.23060793 -0.11389121 0.21724996 0.11109359
000050 58 4b 01 3e 96 45 14 be b9 f6 2e 3e 95 c1 e6 bd
       0.12626398 -0.1447967 0.17086305 -0.112673916
000060 6b 62 f5 bb 72 f3 ab 3d 97 33 d7 3d 78 39 88 bd
       -0.007488539 0.08396043 0.10507887 -0.06651586
000070 fb e6 26 bd d0 10 9a bd 4f 33 da 3d 13 f4 89 bd
       -0.040747624 -0.07522738 0.106543176 -0.067360066
000080 c2 68 39 be 3c 40 3a be 1a 26 e3 bd bc d5 d4 3c
       -0.18106368 -0.18188566 -0.11091252 0.025980823
000090 62 5f 82 bd ab ed 3c be 10 37 d4 bd a6 03 ac b9
       -0.06365849 -0.18450038 -0.10362065 -0.00032809115
0000a0 8c 63 93 bd 25 1e e7 bd fc a4 21 be ba 01 fc 3d
       -0.071967214 -0.112850465 -0.15785593 0.12305017
0000b0 03 e5 a0 bd 1e 2f 17 be 61 9e 1a 3e b8 45 36 be
       -0.078561805 -0.14764068 0.1509948 -0.17800033
0000c0 44 a9 13 3e 72 63 99 bc 1a 5e 41 3e 9a 58 6d 3e
       0.14420038 -0.018724177 0.18883553 0.2317833
0000d0 e3 08 3e 3e 80 2b 81 3d e4 1d b0 3d 65 55 3b be
       0.18558078 0.06307125 0.08599451 -0.18294294
0000e0 b2 d4 ea bd 2b ed 60 3e 14 ca db 3a 15 81 c5 3d
       -0.1146635 0.21965472 0.0016768598 0.09643761
0000f0 c1 8c 0d 3b e2 11 d8 bc 30 02 81 3e 8d 34 55 3d
       0.0021598788 -0.026375715 0.2519698 0.05205207
000100 bd 84 d4 3d 2d 58 35 be 90 fb 97 3e 0c 66 1f 3d
       0.1037688 -0.17709418 0.29684114 0.03891568
000110 ff a8 17 be 51 e8 50 bd b9 ff 6c 3d b9 a3 59 3c
       -0.1481056 -0.051002804 0.057861064 0.013283663
000120 ff 49 86 3d 93 d2 1a 3e 59 e2 4f be 5a 68 46 be
       0.065570824 0.1511939 -0.20301189 -0.19375744
000130 d3 90 c8 3b e5 d5 24 3e 90 06 5d 3d fe 2d 15 3e
       0.00612078 0.1609722 0.053961337 0.14568326
000140 b4 e0 21 bd ab 6b 45 be df b5 39 3d 24 16 2e bd
       -0.039520934 -0.19279353 0.04533946 -0.042501584
000150 d9 66 fc bd 01 06 b5 bd 20 69 01 bd 9d ed d0 3d
       -0.12324304 -0.08839036 -0.031594396 0.10201571
000160 4f 1b df bc 1a 22 d2 3b ba 2f 1e 3e 86 dd a1 bd
       -0.027234701 0.0064127566 0.15447894 -0.0790358
000170 b0 03 9d 3d d3 b1 50 be 65 e2 4e 3d 10 e7 92 bd
       0.07666719 -0.20380335 0.050508875 -0.07172978
000180 d1 14 ea 3d 47 69 09 3d 80 a3 1c bd 29 db 52 3d
       0.11429752 0.033547666 -0.038241863 0.05147854
000190 b3 3b fa bd 51 93 c3 bd 8a a9 fb bd f0 2e bb bd
       -0.12218418 -0.09549583 -0.122881964 -0.09139812
0001a0 42 4f b8 bd 4d 93 d5 3d af 41 30 3d d7 df 3c bc
       -0.08999492 0.10428486 0.04303139 -0.011527977
0001b0 f5 69 b6 bd 28 dc bb bd b5 4b 39 bb d3 3a 02 3e
       -0.089069284 -0.09172851 -0.0028273885 0.12717752
0001c0 3c b2 28 3e 8f 4d e5 3d 62 b2 48 3e 84 0c 8f 3e
       0.16474241 0.11196434 0.19599298 0.27939236
0001d0 3c 77 46 3d 0d f3 1b 3e bf 93 b5 bd 99 ca 9e 3d
       0.048453555 0.15229435 -0.08866071 0.07753486
0001e0 87 4a 0c be 4f 4f 43 bb 50 ea 48 3d 7b 71 e8 3d
       -0.13700305 -0.002980191 0.049051583 0.1134977
0001f0 a7 2b 2d 3e 2b c7 f5 3d 99 a6 55 bd 7e 01 46 3d
       0.16911183 0.12000879 -0.052160833 0.048341267
000200 03 d5 24 be 90 23 fc bc 0f 51 2c bd 8e ad 52 3d
       -0.16096883 -0.030778676 -0.04206949 0.051435046
000210 98 b8 46 3c 0d e3 0f 3e b9 9c c5 3d 11 a3 d9 3d
       0.0121289715 0.14051457 0.09649033 0.106268056
000220 da e7 80 bd 66 e6 81 bc c4 11 f1 bc 24 15 3c 3e
       -0.06294222 -0.015856933 -0.029427417 0.1836744
000230 4e fd f3 3d dd 33 0f bd f4 3a b2 bd 8a 86 cd 3d
       0.119135484 -0.03496157 -0.08702651 0.10035427
000240 5d 99 39 be 55 ad 5a 3e 28 6e 3a bd 29 c0 8d bd
       -0.1812491 0.21355183 -0.04551521 -0.06921417
000250 1c bc ee 3d 1b 99 8c 3e e0 78 cb 3d a1 53 cc 3b
       0.11656973 0.2746056 0.099351645 0.0062355553
000260 c5 17 05 bc fe bf 16 be 56 fe 6b 3d 4b cc 85 3d
       -0.008123343 -0.14721677 0.0576156 0.065331064
000270 e5 8a 9c 3b 22 0f 4f 3e 4a aa 49 be 90 2e 69 be
       0.0047772997 0.20220616 -0.19693866 -0.22771668
000280 b1 62 fb 3d 52 a1 a3 bc 28 f6 6b bc 20 80 49 be
       0.12274683 -0.019974384 -0.01440195 -0.19677782
000290 d5 95 11 3e 84 6c 41 3e 83 f7 82 3e d4 d5 64 3e
       0.14217313 0.18889052 0.2557946 0.22347194
0002a0 7c a0 4c be 0d e0 3b be 07 86 5e bd 50 e3 50 3c
       -0.19983095 -0.18347187 -0.054327037 0.012749508
0002b0 8f 8b 8e 3d a1 cb f8 bd cd 99 a7 bd e8 30 30 be
       0.069602124 -0.12148214 -0.08183632 -0.17206156
0002c0 86 f1 26 be c6 6a 01 3e 91 2e 5b 3d c6 1e 02 3e
       -0.16303071 0.12638387 0.053511206 0.12707052
0002d0 6b 31 0d be 11 d7 46 be f0 66 af 3d 4b be 49 be
       -0.13788383 -0.19417979 0.08564556 -0.19701497
0002e0 ed 9d da 3d d0 b5 0d 3e eb 11 a6 bd 84 4f 1c be
       0.10674653 0.13838887 -0.08108886 -0.15264708
0002f0 de 3b 9d bc d2 9e 15 3e be 1d 04 be d0 9c e1 3b
       -0.019193586 0.14611366 -0.1290197 0.0068851486
000300 4e ad 0b 3e 16 ac 44 3e fe 99 5b 3e 74 5d d8 3d
       0.13640329 0.1920627 0.21445462 0.105647
000310 0e d6 4c 3e c0 73 3d 3e 46 9f 9f bd 04 ab 45 be
       0.2000353 0.18501186 -0.07794051 -0.19303519
000320 82 d9 40 be ba 1b 86 bc 8a db 88 bd 63 c3 25 3e
       -0.18832973 -0.016370643 -0.06682499 0.16187815
000330 9d b6 ab bd 07 9d 8e 3d 40 8b 91 3c 6f 2b d3 3d
       -0.0838444 0.06963544 0.017766595 0.10311019
000340 7d 27 ff 3d f7 c9 14 be b3 1f 66 3e ba f0 c9 3d
       0.12458704 -0.14530168 0.2247303 0.09860368
000350 3f 71 8f bd f5 28 3d 3d 5e 0a db bd 56 0f fb 3d
       -0.07004022 0.046181638 -0.10695337 0.122587845
000360 bb df 17 be c3 54 1e 3e 69 6e b6 bd 1c 46 f6 bc
       -0.1483144 0.15462022 -0.08907778 -0.030062728
000370 05 35 1d 3d 63 ae 23 3e 1d c2 3b 3e e5 c6 7c 3d
       0.03838064 0.15984492 0.18335767 0.061713118
000380 92 76 2b 3e 1b 82 83 be 2a 48 27 be 04 c0 fe 3d
       0.1674445 -0.256852 -0.16336122 0.12438968
000390 dd a3 01 3e 2e 22 61 3e 7d 61 b6 bd e3 48 14 be
       0.12660165 0.21985695 -0.08905313 -0.14480929
0003a0 1c 8a b6 3d 30 2f 76 3c 47 72 17 3d 02 82 e7 3d
       0.08913061 0.015025899 0.036974218 0.11304094
0003b0 13 32 89 3d a1 eb f0 38 04 d0 ee 3d ea 52 83 3e
       0.06699004 0.00011487981 0.116607696 0.25649196
0003c0 f0 25 f2 3d 50 61 b1 3d 00 29 41 3e bb fe 32 3d
       0.11823642 0.08661139 0.18863297 0.04369996
0003d0 1d 6d 8f 3d 10 26 4b 3e 56 05 15 be dd 9e 04 3e
       0.070032336 0.19838738 -0.14552817 0.12951227
0003e0 53 f0 1b be 6e 85 51 bd eb 90 f9 3d 5a 9c 94 3d
       -0.15228395 -0.05115264 0.12185844 0.07256384
0003f0 c8 83 a6 bd 86 92 1f 3e bd 52 5a 3e c3 c0 86 3d
       -0.08130604 0.15583238 0.21320625 0.06579735

conv3.bias f4 [16]
000000 8c b7 f7 3c b8 d7 f9 3d 1f eb e0 bd 14 98 58 bd
       0.03023889 0.12199348 -0.10982346 -0.052879408
000010 dc 9e b8 bd 6c 75 2a be 2c 99 17 bd e2 eb 47 be
       -0.09014675 -0.16646355 -0.03701131 -0.19523576
000020 63 7f b8 3d 05 be 11 bc f1 87 f4 bc fe 47 26 bc
       0.09008672 -0.008895402 -0.029849978 -0.010149
000030 1c 17 76 3e 20 27 21 3e 45 b0 06 be 58 18 4d be
       0.24032253 0.15737581 -0.13153179 -0.20028818

conv4.weight f4 [1, 16, 3]
000000 68 ee ec bb 42 97 0a 3e 7d 38 4e bc c8 fd 9c 3d
       -0.0072305687 0.13534263 -0.01258671 0.076655924
000010 aa 1c 09 be 6b a4 7c 3c 3e d0 2a 3d 01 01 22 3e
       -0.1338984 0.01542006 0.0417025 0.15820695
000020 8e 59 74 bd 6b b4 de bd 54 3f b3 bd 0a 46 82 bd
       -0.05965572 -0.10874256 -0.08752313 -0.06361015
000030 eb 44 40 3e 04 f5 39 bb 8c cc 1f be 3e 02 be 3c
       0.1877629 -0.00283748 -0.15605372 0.023194429
000040 22 b8 be 3c 3b 17 56 3b 88 18 f6 bd 75 e6 97 3b
       0.02328116 0.0032667655 -0.12016398 0.004635627
000050 7c 98 25 3e e9 dd 07 3e 3f ec 02 be 20 ce 87 3c
       0.1617145 0.13268246 -0.12785433 0.01657778
000060 20 44 3e 3e d0 9b ef 3d fa c3 b1 3d 36 ee 4d be
       0.18580675 0.11699641 0.08679958 -0.20110402
000070 d4 aa 4a bd 41 da 7d 3e 39 2c e6 3d 14 27 49 3e
       -0.04947932 0.24790289 0.112389036 0.19643813
000080 2a e2 3d 3e 90 bb a9 3d 07 c3 a3 3d cb e6 d0 bd
       0.18543306 0.08287728 0.07996183 -0.1020027
000090 14 2a b1 3d 10 5a 21 3c 8b a4 6e 3d a4 98 bd 3d
       0.08650604 0.009848133 0.05826239 0.092576295
0000a0 36 6b 75 3d 48 53 37 3e 2d 03 17 3e 4f f7 c9 3d
       0.059916697 0.17902863 0.14747305 0.098616235
0000b0 47 05 61 bd 5c df e0 bd 6a fd c2 bd cc 71 0d be
       -0.054936673 -0.109801024 -0.09520991 -0.13812941
