Weight_Files/PredictionDecoder(Velocity)_trained_on_1D/vae_net_prediction_decoder_thrust.pth (torch_old, 46172 bytes, 11 tensors)

fc_lat.weight f4 [400, 4]
00000000: b4ca 233e 549b 9e3e c4eb 03be 70c3 953e
00000010: d866 29be dcd8 b13d 246d 0c3e e823 e4be
00000020: 5a41 a2be e0bd 6f3e f0c5 b1bd 1afc 9f3e
00000030: 2ef4 12bf a168 03bf 6f61 3bbe 15e7 05bf
00000040: 20ce 053d 82f9 943e b856 973d d0b0 6a3e
00000050: 93cb a8be d7ab 513e d48f 29be 15e2 0ebf
00000060: 5863 a8be 94f5 173e 84b8 813e 1378 bcbe
00000070: 00bc 2b3d 0c38 11be c19f 973e ba47 113e
00000080: 64c1 30bf 20a2 773e 1a76 993d 8e35 24be
00000090: 6d87 293f 3682 ebbd 9579 ed3d 3d27 b33d
000000a0: 3692 5fbe e025 a8be 0b5d d53e 6a06 ac3e
000000b0: 2d97 a1be 7f30 a5be 5483 d8be 770e 9a3e
000000c0: 4676 e3be 3259 923e 2e4d 9ebe 9a9e a23e
000000d0: 784d 0f3f 6484 b93d 9093 463e 7d1b adbb
000000e0: 5274 b3bd dfd7 e7be 2a93 e2bb 233a e2be
000000f0: 8a91 6fbe fc21 90be a86e be3e 385a 2cbe
00000100: 4473 6dbd 340a e8be cc7f 77be 71a0 7cbe
00000110: 4cf6 533e dc0a fb3e 30b7 66bd 0eb7 c53e
00000120: 9cc1 a73e e9c4 bbbe 3307 8fbe 471c dbbe
00000130: d01f 0abf f9ad c4bd 7ff1 d63d 84e5 e9be
00000140: fdad 9bbe 1a70 03be 16f3 023d c001 533e
00000150: dc1b a8be 94c6 af3e 7038 5fbe 402a 78bc
00000160: 3440 a6be a63b 903e b40b ba3e a81e fd3e
00000170: 5bfe 103f 4703 e53d c33f 05be 6625 6abc
00000180: 3216 89be eb0a 05bf 5d7c 03be 9fdb 31be
00000190: dcd7 9bbe a873 dfbe b219 d93e 6145 69be
000001a0: b245 ffbe f8ae d1be 0c3b 3b3e 0669 87be
000001b0: 30a0 0bbe 90ee bcbd ea90 d33e d99d 70be
000001c0: d9a6 b23e 00c7 fbbd 4f60 2e3e dc9b e73e
000001d0: b0ac 91bd acbe 40be 7044 d9bd 745d f93e
000001e0: 7015 08bf b101 e33b 62e5 c1be 191c a43e
000001f0: 4d44 533c 8766 d0be a8f7 633e a55d bb3e
00000200: f569 d7be c38c bbbe 61f7 b73e 834b 403e
00000210: 20e0 603e 66a5 b63e e8cd c93d 5087 8d3e
00000220: 3587 bebd 6e52 b3be d237 c7be 15cb 3c3e
00000230: 3e40 183f 5817 193e 1f6a 643d 9779 e1be
00000240: 9813 88bd f01b 943e 504a 2ebd b2ef 92be
00000250: 006c 3a3c 2087 6e3d f8bb efbd ae03 a63e
00000260: 34d8 1cbe 3836 fe3d aca4 e9be 7000 e23e
00000270: 20cc fcbe fd3b 423e 657b b5be 90b9 12be
00000280: b600 073f 548d 003e 20de 0d3f 68d1 ae3e
00000290: 14b5 cebe ccbc efbd 5cb2 54be 7af3 a0be
000002a0: 9657 7abd 100d 03bf 2b1d 9e3e 78f0 0bbe
000002b0: 317c e8be 5eb1 32be e219 10be 41c5 91be
000002c0: c6a8 273f 473a 113d 0fff f4bd 9c98 4f3b
000002d0: 4ca7 e9bd 1a4d 95bd ce53 bbbe 3af2 04bf
000002e0: 8fb4 72be 55ec 07bf c10a 2a3e 0123 0c3e
000002f0: d682 c43e 3779 723c 470c 4d3e beb6 e13c
00000300: 7351 413e 51c8 1dbe abef 133e 70fc 0d3e
00000310: 96d6 cebe 18c1 c33e 00bc 2e3a cabd d93e
00000320: 8d87 573d 70bf f5be 2b58 bd3e eef9 783e
00000330: 6b7f abbe e620 703e f2d3 f9be ff2e 08bf
00000340: 7a67 d8bd cc03 3ebe a518 86bc 9e17 95be
00000350: 79a7 acbe 9dee bf3e 8006 86be de15 00bf
00000360: 02c2 043f 1730 753b ea9b 393e 052f c03d
00000370: e241 923e 6606 84be 609d 6dbe 8664 c5be
00000380: 8d56 7ebe a21f babe 191c c2be edfd c23e
00000390: 2b3b 61be b735 0ebe a52d 243d 74ab eabd
000003a0: fe59 ddbe 3059 96be 6a74 41bd c825 2d3e
000003b0: d6ed 82be 84cc e83e 42d2 d0be 480a c73e
000003c0: 2189 b6be e0f2 a7be f07a b73d 3b2f 9b3e
000003d0: 3042 bc3e 0cf8 563c 3bd4 f53e 0106 b83d
000003e0: 8aaa e13d b750 90be f023 dabe afd4 10bd
000003f0: a0f1 bc3e a1e9 a03e b850 16be 8729 68be
0.15995294 0.3097788 -0.12882906 0.2925067 -0.16543138 0.08683941 0.13713509 -0.44558644
-0.31690484 0.23412275 -0.08680332 0.31247026 -0.5740384 -0.51331526 -0.18298887 -0.5230573
0.03266728 0.2909661 0.07389587 0.22919011 -0.32967815 0.20475708 -0.16558772 -0.55813724
-0.32888293 0.14839774 0.25336087 -0.3681036 0.041927338 -0.14181536 0.2961407 0.14187518
-0.6904509 0.2418294 0.07493229 -0.16036054 0.6622227 -0.11499445 0.115954556 0.087477185
-0.21833119 -0.32841396 0.4167255 0.33598644 -0.3156065 -0.32263562 -0.42287695 0.3008916
-0.44426173 0.28583676 -0.30918258 0.31761628 0.5597758 0.09058455 0.19392228 -0.005282818
-0.08762421 -0.45281884 -0.006914516 -0.4418498 -0.23395362 -0.28150928 0.371938 -0.1683129
-0.057971254 -0.45320284 -0.24169844 -0.24670579 0.20699424 0.49031723 -0.056327045 0.38616222
0.327649 -0.36673668 -0.2793518 -0.4279501 -0.5395479 -0.09603495 0.104952805 -0.4568292
-0.3040618 -0.12835732 0.031970106 0.20606136 -0.32833755 0.3433119 -0.21798873 -0.015146792
-0.32470858 0.28170508 0.36337054 0.4943745 0.56638116 0.11182266 -0.13012604 -0.014291143
-0.26774746 -0.51969784 -0.1284041 -0.17368935 -0.30438125 -0.43642926 0.42402416 -0.22780372
-0.4985786 -0.40953803 0.18284243 -0.26447314 -0.13635325 -0.0922519 0.41321498 -0.23497714
0.3489292 -0.122938156 0.17028926 0.452361 -0.07113016 -0.18822736 -0.106087565 0.48704112
-0.5315771 0.006927692 -0.37870318 0.32052687 0.012894702 -0.40703222 0.22262442 0.36594883
-0.42073026 -0.3663083 0.35930923 0.18778805 0.21960497 0.35673064 0.098537266 0.27642298
-0.093031324 -0.35023826 -0.38909775 0.18436845 0.59473026 0.14950311 0.055765267 -0.44038078
-0.06644362 0.28927565 -0.04255134 -0.28698498 0.011378288 0.058234334 -0.11705774 0.32424682
-0.1531685 0.12412685 -0.45633447 0.4414096 -0.49374485 0.18968196 -0.35445705 -0.14328599
0.5273546 0.12553912 0.5541706 0.3414414 -0.40372527 -0.11705932 -0.20771164 -0.31435758
-0.061118685 -0.51191807 0.30881628 -0.1366595 -0.4540725 -0.17450473 -0.14072374 -0.28470805
0.654919 0.03545597 -0.11962711 0.0031676656 -0.114088625 -0.072900966 -0.36587375 -0.5193211
-0.2370169 -0.5309499 0.16605665 0.13685228 0.3838107 0.014799408 0.20024215 0.027552959
0.18878727 -0.15408446 0.14446895 0.13865829 -0.4039809 0.38233256 0.00066655874 0.4252761
0.052619506 -0.47997618 0.3698133 0.2431409 -0.3349565 0.2345005 -0.48794514 -0.5319671
-0.105666116 -0.18556136 -0.016369173 -0.2911958 -0.33721521 0.37486735 -0.26176834 -0.50033367
0.5185853 0.0037412697 0.18125883 0.09383968 0.2856589 -0.25786132 -0.23204565 -0.38553256
-0.24837704 -0.3635226 -0.37912062 0.38084355 -0.21995227 -0.13887678 0.040082593 -0.11458483
-0.4323272 -0.2936492 -0.04723016 0.16908944 -0.2557208 0.45468533 -0.40785414 0.3887503
-0.35651496 -0.32802486 0.08958995 0.3030947 0.36769247 0.013120662 0.48013481 0.0898552
0.11018856 -0.2818658 -0.42605543 -0.03535908 0.36903095 0.31428245 -0.1467923 -0.22672091

fc_lat.bias f4 [400]
00000000: bc26 78be bb3d 923e 8433 82be 2ad4 a63d
00000010: 9af2 fbbe 9ede 49be 9885 db3e 077f c2bd
00000020: bb24 1f3f 6e41 9abe d43d f33c a922 1a3f
00000030: 3c18 57be b74a 1cbd 088d 82be 3ce7 9f3e
00000040: f77a 46be 6ca1 7c3e eb4e dfbd a54c bb3d
00000050: 8167 283f f466 b4be dad9 ffbe 4a74 05be
00000060: 5185 abbe 2bfd ad3d 6451 9abd 94bf 1e3e
00000070: 877d ccbe 4e68 c1be 20e7 653e 799c 9f3e
00000080: 615a ed3d f4a1 e8be dda2 98be 6bc7 aebe
00000090: d44f 66be 0423 50be f62e dbbe 3620 d8be
000000a0: 89d3 833e 0cc7 89be dfc0 5abe 2a34 aabe
000000b0: 0ce7 c4bb c671 1e3e 1402 a8be 0ec0 233e
000000c0: 866b fdbe 9800 c43d 14bd c83d 5189 3cbd
000000d0: ebab aabe 4489 153e 085b f6bd 1ba7 083e
000000e0: 7ebb 6bbe c69a b6be c5b8 bd3d a08e dc3c
000000f0: f7a2 4b3d 97db 55bd a2ca cfbd 2f9c f63b
00000100: 504d e2be db47 f4bc 6c06 153e c5ad 92be
00000110: ac96 95be f7af 983e a92c 4e3e dc32 febd
00000120: 975b d7be c0a4 c4be 5886 413e bf24 e8be
00000130: 2cae 8cbe f196 093e 4bb5 1b3d 5f71 0c3e
00000140: 3160 d63e 24cb c4be 76a7 00bd 2d37 143e
00000150: 177c 4ebe c2e8 123e 30ac b63e 8f68 9fbe
00000160: cebf 4e3d c74a 86be a427 febd 4b30 0c3f
00000170: 6855 1b3f 4f1b 23bd 4995 143f d8a3 89bd
00000180: c984 233e f2f9 96bd 5c87 e8be 6925 d73e
00000190: 6f95 003f 3c6d f03e c44c dbbe a50c 9abe
000001a0: ac58 5e3e 5a91 0ebd 894f 20ba 1a87 473e
000001b0: d810 f73d 3619 ed3e b9b5 113f 0c27 eb3e
000001c0: 4c89 d9be c552 e73e 68f9 6fbe a2d8 9e3e
000001d0: 8d30 933e efa9 473e 741a 9fbd 6158 443e
000001e0: 8cfb f43e 3541 ea3d 8553 ff3e 722c e03e
000001f0: 479c 3cbe 8b83 153d 00a0 c5bc 6c6a f33e
00000200: 491f c53e 6ec8 c73e ff41 e5be dd34 8d3e
00000210: f4d8 463e 6245 c1be 06fb 30be 2823 3bbe
00000220: e43c 283e 4df4 a63d d692 87be f6e9 d23e
00000230: 7025 f23d f2f3 633e 903b 783d 708f fdbe
00000240: 5d7c a23c e8e4 92be 3348 523e f5bb 02be
00000250: 6023 0c3f 79ba ee3e d212 773e 4389 613e
00000260: c6c4 963e c445 a23e 243c f93e eb00 f7bd
00000270: b142 cc3e c1f4 943e 2e3c b5be e9b6 0dbe
00000280: 794d 28be 487e 91be 9fee 86be a6cc 18be
00000290: 08c1 0bbe ea78 873e 9e4d 463e 4429 1ebd
000002a0: 54a7 4b3e 1b8f 0f3f 6ad5 d0be 5156 debe
000002b0: 8e32 4e3e d0ed bebe 9471 32be 5756 a2be
000002c0: a3ca 96be ea6e cebe bed5 54be abdb c83c
000002d0: e5ff b83e 2f1b bb3d 974c 543e b943 90be
000002e0: 8c8e 8fbe 9172 96bd bca8 6b3e 925c 5ebe
000002f0: 033d 81be b4d6 61be b8d8 27be af83 203f
00000300: 07f5 c93e 23b5 783e c4fd bfbe 83ea 84bc
00000310: 38ce 123e 2469 ac3d 8688 073f d3cd a6bd
00000320: d825 0a3f 2a76 59be 79bf 1d3e 93b0 8d3e
00000330: c96f 123f faf8 3a3d 9b5d 123e 84dc c6be
00000340: 8815 cbbe e407 81bd 10ad 193e 2925 1bbe
00000350: 56dc babe 04fc e63e c429 c9be d569 2fbe
00000360: 2cbe 9c3d 43a0 a0be 1ea7 a83e 2007 da3e
00000370: 908f 8e3e d225 9d3e 7d7b e23e 7c35 d0be
00000380: 151b 44be 006a ea3d f281 67be 8c6e e73e
00000390: b792 afbd f592 e33d f16a acbc 48ae 7e3e
000003a0: 0969 813d cd87 303e 3a43 db3e 88de bbbd
000003b0: ca78 fe3e 5c0e c5be d141 d6be 8151 0fbe
000003c0: 60c5 da3e 652c efbd cb83 d63e e7b1 043f
000003d0: e8a1 b13d c821 16bd a0af cf3d 33fc 813e
000003e0: 60cd 8e3d f05a c4bd 8e28 393e 9c78 47bd
000003f0: 0443 7fbe 7c09 c63c 2584 473e 68ae be3e
-0.24233526 0.28562722 -0.25429928 0.08145936 -0.49208528 -0.19713828 0.4287536 -0.09496885
0.6216542 -0.30128044 0.029692568 0.6020914 -0.21005338 -0.03815719 -0.25498223 0.31231105
-0.19382845 0.24670953 -0.10903724 0.09145478 0.65782934 -0.35234797 -0.49970895 -0.13032642
-0.3350015 0.084955536 -0.07535055 0.15502769 -0.3993952 -0.3777489 0.22451448 0.31174067
0.11589504 -0.4543606 -0.29811755 -0.3413652 -0.2249139 -0.20325857 -0.42809266 -0.42212075
0.25747326 -0.26909673 -0.21362637 -0.33242923 -0.0060089882 0.15473089 -0.32814085 0.15991232
-0.49496096 0.09570426 0.09801689 -0.046029393 -0.33334288 0.14603144 -0.120290816 0.13344996
-0.23020741 -0.35664958 0.092637576 0.026923478 0.049715962 -0.05221137 -0.10146071 0.0075259428
-0.4419961 -0.02981942 0.14553231 -0.286482 -0.29216516 0.2982175 0.20134224 -0.124120444
-0.42062065 -0.38406944 0.18898904 -0.45340535 -0.27476633 0.13436486 0.03801469 0.13715123
0.41870263 -0.38436234 -0.031409703 0.14474173 -0.20164524 0.14346603 0.35678244 -0.3113446
0.050475888 -0.26228926 -0.124099046 0.5476119 0.60677195 -0.039820965 0.5804029 -0.06720704
0.15968622 -0.07371892 -0.4541577 0.4202073 0.5022802 0.4695834 -0.42832005 -0.30087772
0.21713513 -0.034806587 -0.0006115367 0.19485131 0.120637596 0.46308297 0.5691791 0.45928228
-0.42487562 0.45180336 -0.23434985 0.31024653 0.2874798 0.19498418 -0.077687174 0.19174339
0.47848165 0.114382185 0.49868408 0.4378391 -0.1841899 0.036502402 -0.024124146 0.4754213
0.3850043 0.39020103 -0.44776914 0.27579394 0.19418699 -0.37748247 -0.17283258 -0.1827513
0.16429478 0.081520654 -0.26479214 0.41194123 0.11823547 0.22261027 0.06060368 -0.49523497
0.019834692 -0.28690267 0.20535354 -0.12767012 0.5474148 0.46626642 0.24128273 0.22025017
0.29447 0.31693852 0.48678696 -0.12060722 0.39894632 0.29092982 -0.35397476 -0.13839306
-0.16435803 -0.28416657 -0.26353928 -0.14921817 -0.13647854 0.26459438 0.19365546 -0.038613573
0.1988805 0.56077737 -0.40787822 -0.4342523 0.20136473 -0.37290812 -0.17426139 -0.31706497
-0.29451475 -0.40318996 -0.20784661 0.024518808 0.36132732 0.09136044 0.20732342 -0.28176668
-0.28038442 -0.073460706 0.23013586 -0.21715 -0.2524186 -0.22054559 -0.16391265 0.62700933
0.39444754 0.24287848 -0.37498295 -0.016225105 0.14336479 0.084184915 0.52942693 -0.081447266
0.53963995 -0.21236482 0.15405072 0.27673778 0.5720182 0.0456476 0.1429352 -0.38840115
-0.39664865 -0.06300333 0.15007424 -0.15150894 -0.36496228 0.45114148 -0.39289677 -0.17130215
0.0765346 -0.3137227 0.3294 0.4258356 0.27843904 0.30692917 0.4423484 -0.40665805
-0.19150956 0.11445999 -0.22608164 0.45201528 -0.085729055 0.11112014 -0.021047087 0.2487117
0.06318862 0.17239304 0.42824727 -0.09173304 0.4970153 -0.38487518 -0.4184709 -0.13995935
0.4272871 -0.116783895 0.41897425 0.5183396 0.08673459 -0.03665331 0.1014092 0.25387725
0.06972766 -0.095876575 0.18081877 -0.048699006 -0.24927908 0.024174444 0.19484003 0.37242436

fc1.weight f4 [20, 400]
00000000: 4bf0 2b3d 8f2a 7d3d f4be 04bd 72c1 e93d
00000010: 2de8 f7bc 282e 21be 4255 0cbb 572c df3d
00000020: 150a efbd 68d7 19be 9a1f de3d 11a1 003e
00000030: 7afa c4bc e33a dbbd fcc5 ef3d 4c58 c63d
00000040: b4ea ff3d fd79 a1bc 27aa 6e3d 5c32 9b3d
00000050: a370 ee3d 021d c93c dfb2 0e3d 600b 15be
00000060: c2b2 d63d c105 673d c293 883d 35db 393d
00000070: 7591 9f3c 52ab fa3c 6a9e 1ebd 1e12 f13d
00000080: 4448 753d 8383 a6bc 2ec0 043e 5789 17be
00000090: 5aab 37bd 6ff1 45bd a354 babc 7b61 69be
000000a0: 4bba 10bd 3294 d93d 713f de3d 1585 833d
000000b0: 8adb f3bd 81e0 bb3d 7b86 0b3e 729f 493d
000000c0: 75ae 903d 2277 903c 02e6 3e3d 906a 98bd
000000d0: eca3 b93c 8564 e4bd 5ee5 1fbd 99ec af3d
000000e0: 89a6 413d ecb7 2a3c 2dac d23d 00ea cb38
000000f0: 0d12 073e 0369 e1bc 043b cf3c 655d 193e
00000100: 38f3 96bd 6d3b aebd a2b7 32bd aed2 9a3d
00000110: a75e 21bd c6f1 c53d 60d1 6c3d 5886 8e3e
00000120: a331 823c 9e9c 1ebd cdb7 16be 41c8 c7bd
00000130: 8dea 073e 455f b4bd 2fad ea3c a9fe bd3d
00000140: 20b0 ff3d 402d f4bc 644f 80bd 4fac c23b
00000150: 595b 0e3e d2e5 713d 8927 eb3d cf81 1abe
00000160: 2653 b33b 12f7 34bd f957 2dbd 17ba 40bd
00000170: 6a60 2d3e f0df 943c 2762 f03d 88ef 03bd
00000180: a7da 0c3c 1032 c4bd 8b86 113d 197c 9dbd
00000190: 63c3 d13d 55ab 913d fb9d a53b ddcb a63c
000001a0: 7074 c4bc 8010 9d3b 8d3b c83d 6977 f73d
000001b0: 6622 93bc 2d47 02bd f10d e93d a615 e33d
000001c0: 904c 2abd a746 a73d ad18 c43b c8d0 18bc
000001d0: d232 e63d 2b6d 0a3e 6792 5fbd de25 2a3e
000001e0: bd68 c6bd 9695 703d 269c c63d 9076 9c3d
000001f0: c665 da3d 424a a23d 4eff 0dbd 3ed2 953c
00000200: 25ed dfbd 630d 82bd 2bca c1bd 3315 443c
00000210: 7e5d d53c 3674 d43d dbb9 8e3b a090 a33a
00000220: 27c7 dfbc 47ba a03d 3785 e6bd 8cc6 243e
00000230: 1065 e9bd 22c0 663d 8a12 8e3c b469 083c
00000240: 0b7a 1ebe 3acb dc3d 7566 0a3e 40c7 80bc
00000250: 53e4 cf3d b7fd 9b3d 5c7e dd3d 8014 bd3d
00000260: 7f71 763b 8bd4 323d 4dd5 f63d 5bfd 863d
00000270: a883 82bd 7958 103e 69bd 433d c8a0 9e3d
00000280: 283f 603d 695f 423d 1886 c63c f139 cb3d
00000290: 4a5c a23c 5b97 bf3d 580d cebd 2b95 57bd
000002a0: 5a96 1f3e bf23 a23d 2cab 4cbc 5abd f3bd
000002b0: c138 033e daee 9cbc 08d1 223c 01a4 5d3d
000002c0: 424f 4c3d ab31 82bd e614 7abe f673 6abd
000002d0: 7416 6d3c 32b6 c6bd 55b8 173e ceba b13d
000002e0: e9fd 0b3e beba e23d 90c9 edbb 6517 ad3d
000002f0: 7259 e93c 8e7c 0ebe cce9 12be bf48 9b3d
00000300: 9874 443b 362d 2bbe f07f 22bd ce86 9ebc
00000310: 804b febb 5ca5 ea3d 068b c33d 2306 00be
00000320: 2037 093e cf38 bfbd 2690 b13d d8d8 26bd
00000330: 04a5 df3d 19b1 863d 5a40 ec3d 4add 983c
00000340: fa7b 32bd 2cf1 aa3d 63ab 733d 0f16 dbbd
00000350: f1ca ff3c 2e5b a93d 8010 75bb 1000 b6bd
00000360: 3d21 a23d 5ec6 aaba ba63 f93c 49cb eb3d
00000370: 0860 46bc 04bf 553c 8997 b33d 6087 f93a
00000380: a950 203d 2503 913d c9dd e43d 638e 42bd
00000390: e9a4 a63d ecfe 14be 8a74 b03d b363 e3bc
000003a0: 6368 1d3e 8cb0 02bd a2ba c03c 34f7 e1bd
000003b0: 856b c03d e5c6 943d ded1 9b3d 8868 10bc
000003c0: 405c d53d f7b5 49bd aa45 fe3d f51f a73d
000003d0: e077 e3bc fbc9 7d3d 6a6d c33c 28ca c23d
000003e0: 0f10 b6bd d92f 0d3d 8318 29bc 0034 033e
000003f0: 14c8 83bc 7757 e93d 0928 283d 3a2a fabc
0.041977208 0.061808165 -0.03240867 0.1141385 -0.030262077 -0.15740263 -0.0021413122 0.10897129
-0.11671845 -0.15023577 0.10845871 0.12561442 -0.024045218 -0.10704591 0.117076844 0.0968481
0.12495938 -0.019711489 0.05826774 0.07577965 0.116425775 0.024549965 0.034838554 -0.1455512
0.10483314 0.05640197 0.066688076 0.045375068 0.019478539 0.03059927 -0.038725294 0.11771034
0.05988337 -0.020326382 0.12963936 -0.14798485 -0.044841148 -0.048325952 -0.022745436 -0.22791092
-0.035333913 0.10623969 0.10851944 0.06421868 -0.11907108 0.0917368 0.13625519 0.049224325
0.07064525 0.017634932 0.04660607 -0.074422 0.022661172 -0.11151985 -0.0390371 0.08590049
0.04727796 0.010419827 0.10286746 9.72338e-05 0.1319048 -0.027515894 0.025296696 0.14977033
-0.07370609 -0.08507428 -0.043632157 0.07559715 -0.039396908 0.09665255 0.057816863 0.2783687
0.01589281 -0.03872358 -0.14718552 -0.09754992 0.13273068 -0.08807234 0.028647033 0.09277088
0.12484765 -0.029806733 -0.062651426 0.005940951 0.13902034 0.059057064 0.1148215 -0.1508858
0.0054725586 -0.044180937 -0.042320225 -0.04705247 0.1693131 0.018173188 0.11737471 -0.032210857
0.008597053 -0.09579861 0.0355287 -0.076896854 0.10242345 0.07112757 0.005054233 0.020360881
-0.023981303 0.0047932267 0.097769834 0.120833226 -0.017960738 -0.03180616 0.11379612 0.110881135
-0.041576922 0.08167773 0.005984387 -0.009327121 0.11240162 0.13518207 -0.05458298 0.16616008
-0.09687946 0.058736406 0.09697752 0.076398015 0.10663943 0.0792432 -0.034667306 0.018288728
-0.109339036 -0.063502096 -0.094623886 0.011967945 0.026045557 0.10373728 0.004355652 0.0012479015
-0.027316643 0.078480296 -0.112558775 0.16091365 -0.11396229 0.056335576 0.017342824 0.008325983
-0.15476243 0.1078095 0.13515647 -0.01572001 0.10150971 0.07616752 0.10815117 0.09232426
0.003760427 0.043659728 0.12052403 0.065912925 -0.06372768 0.1409625 0.047788057 0.0774551
0.05474773 0.04745427 0.024233863 0.09923161 0.019819397 0.09355041 -0.10061139 -0.052632492
0.15584698 0.07916974 -0.012491982 -0.1190135 0.12814619 -0.019156862 0.009937532 0.054111484
0.049880274 -0.0635713 -0.24422035 -0.057239495 0.014470685 -0.0970272 0.14816411 0.08678208
0.13671078 0.110707745 -0.007256694 0.08451728 0.028485034 -0.13914701 -0.14346999 0.075822346
0.0029976722 -0.16716465 -0.039672792 -0.01935139 -0.007760465 0.11457321 0.09548001 -0.12502341
0.13399935 -0.09337007 0.08670072 -0.040734142 0.10920146 0.065767474 0.115357116 0.018660206
-0.043575265 0.08346781 0.05948962 -0.10697567 0.0312247 0.08269344 -0.0037393868 -0.08886731
0.07916496 -0.0013029089 0.030443061 0.11513383 -0.012107857 0.01304603 0.087691374 0.0019037537
0.039139424 0.07080678 0.11175115 -0.04749907 0.08136923 -0.1455037 0.08615978 -0.027757501
0.15371852 -0.03190665 0.023526493 -0.110334784 0.09395508 0.072644986 0.07608388 -0.008813985
0.10417986 -0.0492458 0.12415631 0.08160392 -0.027767122 0.0619602 0.023855884 0.095112145
-0.08889782 0.03446946 -0.010320785 0.12812805 -0.016086616 0.11393636 0.041053806 -0.030537713

fc1.bias f4 [20]
00000000: 9eec 983d c2c6 25bd b0f6 ea3b d791 31bd
00000010: e74d 50bd 54fc d83d 7328 343d ab27 6d3d
00000020: 58e0 763d e36b 8e3d a618 1a3e 5e27 e43d
00000030: b8a6 bf3d 245d 103e 260a 9f3c 5050 e43b
00000040: b348 1cbd 39cc 113d 2919 cf3d 0e20 dbbc
0.07467006 -0.040472753 0.0071705207 -0.043351974 -0.050855543 0.10595003 0.043983888 0.05789916
0.060272545 0.069541715 0.15048465 0.11140321 0.09357971 0.1409803 0.019414019 0.006967582
-0.03815527 0.035595153 0.10112221 -0.026748683

conv1.weight f4 [16, 4, 3]
00000000: c30d 863a d22d 0cbe d70c a2bc debf 993c
00000010: ad1e 403e c691 ad3e c2fb 993d 265d a53e
00000020: 11e3 73bd 4163 913e 324b b43c 5902 91bd
00000030: 97c9 80be 9228 ed3d 2835 0cbd f6d9 843e
00000040: d8b3 dfbd 1c78 33be 9467 5c3e f701 6e3e
00000050: afcc a43d bdaf f7bd 9f70 e93d 5f98 a13d
00000060: 02f1 a03e d01c 6c3e b6fa af3d 45f9 983e
00000070: fb9a b53d f6b3 c33d 09b2 543e 355a 4abd
00000080: 5dbf 26bd a9be 8c3e 510e a23e 101b 453d
00000090: c0ac 26bc 7c98 ae3e a63a 903e 2c1f aebd
000000a0: e41c 3e3e 01f3 b7bd a8c3 12be 68af 843d
000000b0: b009 353e bb9c 603e e019 df3c 70ee 843e
000000c0: 9fa1 11be 1d34 733e f32f c7bc 3db0 41bd
000000d0: d6d5 7f3e 3c1d d33d 8a52 a43d 3a61 333e
000000e0: c4ee e53d e0cb 69be c832 0c3e 3b4a ccbd
000000f0: 76ba c43d 1db8 90be 4a6c 50be 3fbd 2cbe
00000100: da94 0e3e 3821 68bd 0c33 593e e615 593d
00000110: 135d 83be ced0 d6bc c5cc 2dbd c979 99bd
00000120: 476e 05be 6f38 52be 8447 2abd 7c41 b2bd
00000130: cd62 bd3d f244 403c a979 313e 6f22 0bbe
00000140: 1941 87be c752 51be 3228 10be 88b7 bb3d
00000150: f51a fb3c 1fa7 7abd 0517 0e3e 32c0 31bd
00000160: 4c38 98be 3948 20be 2a34 193d 0ee9 783d
00000170: 66ab 1ebe 272a 703e a159 2a3e 8746 30be
00000180: 0b59 49be 1c53 b33e 480b 373e fea2 953e
00000190: faf6 143e 7ed2 563e b091 4fbc d6bd b6bd
000001a0: e3c5 8f3e f949 83bd f559 eabd 7d4b 7fbe
000001b0: 5241 823e c1f5 61be c4e0 c9bd 981a 62bc
000001c0: 384c 10be af5a 09be bda7 863e 040c 5dbe
000001d0: aa63 b33d 5964 2f3b 9a3b 153c 5b41 293e
000001e0: 1228 543d f503 9e3e 805b 46be 3cf5 54bc
000001f0: da42 763e 5cbd 843d afe3 d03d 9f47 e73d
00000200: a81d d6ba 8f7a 4f3e 75b7 0cbe b6e0 8f3c
00000210: 4a17 c63e 10b6 853d 5b87 2bbd 5863 41be
00000220: 7766 b2bd dcb0 a93e abc1 903d 2edb 993d
00000230: 4f84 963e 20f5 383e 6791 02be 3656 d6bd
00000240: 2ccc 48bd 98c3 eb3d e894 dc3d 0cc1 1fbd
00000250: 7cf8 bebe 9660 6a3e 724b 73be 9ff8 ecbc
00000260: c3ef 8cbe 87f4 443e 17fc 613e ccd4 8c3d
00000270: 2d2a 4cbe 988a 01be 5439 8a3e 46ca 1ebe
00000280: a7e4 11be a0a8 873e 9e34 923e a24f 5dbe
00000290: b980 983e 5cf0 febc fb15 143d 9905 d83d
000002a0: 31ce a53d ce7b 9ebc a149 aabd 120f 8e3d
000002b0: acb2 9c3e 74ed 353d 79d1 a33d 903f 0ebe
000002c0: 8568 a43e 51cd 433e 7ecf b23e aeba 7c3e
000002d0: 3c70 5cbe f7ff 013e 0843 bbbd 2f21 583e
000002e0: a13f 3bbe eb79 5b3e 2f3c 243e 4741 61be
000002f0: b433 713d 9e4b 0d3d 7865 0abe 5142 123e
0.001022749 -0.13689354 -0.019781513 0.018768247 0.18761702 0.3390028 0.07518722 0.3229763
-0.05954272 0.28396037 0.022008512 -0.07080526 -0.251538 0.11580004 -0.03423038 0.2594754
-0.10922974 -0.17526287 0.21523887 0.23242937 0.08046853 -0.12094066 0.11398434 0.078903906
0.31433874 0.23057866 0.08592741 0.29877678 0.08867451 0.09555809 0.2077104 -0.049402434
-0.040709842 0.27489212 0.31651548 0.048121512 -0.010173023 0.3410071 0.28169745 -0.08502039
0.18565708 -0.08981896 -0.1433245 0.064787686 0.17679477 0.21934788 0.027234018 0.25963163
-0.1422181 0.23750348 -0.024314856 -0.047287215 0.24983916 0.103083104 0.080235556 0.17517558
0.112271816 -0.22831678 0.13691247 -0.09975096 0.09605877 -0.28265467 -0.20353809 -0.16869067
0.1392397 -0.056672305 0.21210879 0.0529994 -0.25656947 -0.026222613 -0.04243161 -0.07493932
-0.13030349 -0.2052934 -0.04157211 -0.087038964 0.092473604 0.011735188 0.17331566 -0.13587354
-0.26416853 -0.20441733 -0.14077833 0.09165865 0.030652503 -0.061194535 0.13875969 -0.043396182
-0.2973045 -0.15652551 0.037403263 0.060769133 -0.15495071 0.2345358 0.16635753 -0.17214404
-0.19662873 0.35024345 0.17875397 0.29225916 0.14547339 0.20978734 -0.012669012 -0.08922927
0.28080663 -0.064105935 -0.11442939 -0.2493114 0.2544046 -0.22066404 -0.09857324 -0.013800286
-0.14091575 -0.134135 0.2629985 -0.21586615 0.08759244 0.0026762693 0.009108448 0.16528837
0.051796027 0.30862394 -0.19370842 -0.012997922 0.2404894 0.0648143 0.10199677 0.112929575
-0.0016335743 0.20261596 -0.13741858 0.017563205 0.38689643 0.06528866 -0.041877132 -0.18885553
-0.0871095 0.33142745 0.07068189 0.07512508 0.29397818 0.18062258 -0.12750779 -0.10465662
-0.04902284 0.11511916 0.10770589 -0.039002463 -0.37298954 0.22888407 -0.23759249 -0.028927146
-0.27526674 0.19233905 0.22068821 0.06876525 -0.19937964 -0.12650526 0.26996863 -0.15506849
-0.1424738 0.26495838 0.2855577 -0.21612409 0.29785708 -0.031120472 0.036153775 0.10547943
0.080959685 -0.019346144 -0.08314825 0.06936468 0.30605066 0.044415906 0.07998938 -0.13891435
0.32110992 0.1912129 0.3492393 0.24680588 -0.21527189 0.12695299 -0.091436446 0.21106409
-0.18285991 0.21433227 0.16038583 -0.21997558 0.0588872 0.034495942 -0.1351527 0.1428311

conv1.bias f4 [16]
00000000: f4d4 993e 4b51 6dbc 1b8c 0ebe 1ee9 f5bd
00000010: ee89 283d 9d4e c03e a42d 243e ed1d febd
00000020: 986b fbbd d310 45be 79b6 e8bd 5254 9b3e
00000030: d833 873e a184 eabd 9417 8f3e e201 e2bd
0.30045283 -0.014484714 -0.13920633 -0.12007354 0.041147165 0.37559977 0.16033036 -0.12408052
-0.12276381 -0.19244699 -0.11362929 0.3033777 0.2640674 -0.11451078 0.27947676 -0.11035515

conv2.weight f4 [8, 16, 3]
00000000: 27ce 443e bc02 ee3c e7ba 9abc 604d 6ebd
00000010: ad23 cd3d 955b 033b 977b 443e 3a6a af3d
00000020: 02f7 433e 52ab 783d 6a44 bc3d fb64 4bbd
00000030: 1631 d73d af3f 2fbd feaa 393d 7573 3fbd
00000040: 091c 3e3d e632 da3d cab9 d9bd 7981 b6bd
00000050: 6481 51bd 0e5c 1e3d 777e 97bc 1073 0cbd
00000060: 486c 343d f124 1b3e 4ac0 55bd 54f7 423d
00000070: 6afc bf3d d33b 5a3d 93cd 013e 2983 043c
00000080: 43d9 babd 40c5 823c 3048 383e 23dc 483e
00000090: 7f6b de3d 642f 3e3e 1a88 723d 0765 233d
000000a0: 63a5 08bd 6f3f 0cbd 502e 173e 18d2 cf3c
000000b0: d2b8 5c3e 2c4e edbb 7788 e53c ca6f bc3d
000000c0: 9ce6 373e 358a 8f3c 378d 5a3e 023d 913d
000000d0: b8e6 1bbd 1d57 163e 1d0e 5fbd 5391 073e
000000e0: f051 283e e509 2d3e 0052 c73d 2ba0 013d
000000f0: 4976 933c 14bf d93d 8625 f1bc 19c0 ed3c
00000100: 5523 f23c 98e7 8a3c f799 1d3e a6db 1fbc
00000110: 4e9c 0bbd 70a4 59bc 5f59 33bd 4993 d5bd
00000120: 944f 143e afc9 a93c 2d22 fe3c ac40 403e
00000130: ea2a d5bb 18cb b2bd 2679 8e3d ff17 d03d
00000140: a671 c43c 1feb 3d3e e5d1 c03d 1423 503e
00000150: 236e e63d 2c0f 583d affb 193d f2ba 3cbd
00000160: b981 f33d 0923 6a3e 3844 503e e280 183d
00000170: 5bee 2e3e b6a8 d4bd c561 943c ccd9 fe3d
00000180: 1843 9dbc ac27 33bd 08ae f1bd 28e0 d2bd
00000190: e619 30bc 02ba 9a3d 5ac8 4ebd c4ca e1bd
000001a0: 6c28 bbbd 3397 1e3d a57b a4bc 558b 01be
000001b0: 2f5d 933d cdcc 12be 34cb cebd c072 d23d
000001c0: 290c f13d a51d e3bd e731 cd3d 9f10 863d
000001d0: 7f48 ab3d c312 933d e255 973d c6ff cd3c
000001e0: 2e84 a3bd 55a3 b83d 8288 9f3d 4df6 03bd
000001f0: bd06 f23d 42c8 573d 58f6 113d 0619 a3bd
00000200: 10ee 15be 9765 813d 4084 03be d25c 213c
00000210: 5250 fcbd a78a b63d d3f8 5abc 4754 06be
00000220: d319 323d 8b01 1ebc aaaf 053d 497c 58bd
00000230: 6b93 573b b7ec 66bd 2cad b13d 860a ea3d
00000240: 2fad 8ebd 1813 cd3d 7656 b43d b51d 253e
00000250: a164 893d ecea ca3d ef73 103d cab2 bcbc
00000260: 176b 8a3d 535d 3f3d c5fb 9a3d c967 843c
00000270: 813b c4bc f395 833d bd16 25bd b310 a8bd
00000280: 3b34 353e 5fb1 183e cf67 9b3d 6e8c e1bc
00000290: c710 3dbc b20b 00be b17e a8bb 8b4d b73d
000002a0: ec5c a3bb 2c07 e6bd cab8 d8bc 4f3d 52bd
000002b0: 2157 783d 2b32 5bbe 2be3 d53d c49b 0c3d
000002c0: cc86 2f3d f8c9 81bd c81a 373e dc7a 023d
000002d0: 8f39 943e dc1e 203e 54b1 0f3e 369e f2bc
000002e0: 2014 8c3c 7e35 33bd 112a 103e 737d 85bd
000002f0: e0eb 413e 7386 023e 5663 523a e406 8c3d
00000300: 824a 1b3e 3bd6 993d 8efc 213d 9d99 043e
00000310: e998 80bd 9d92 e2bb 0391 2cbc 2103 333e
00000320: 6388 613d c36c 643e 077f 65be 0e7c 333e
00000330: 8ca5 493e c0b4 343d bd45 9fbc 3ecb 163e
00000340: 47fb f43d 801c d7bd adb2 333e 129a 6a3d
00000350: b7ec 2d3e cd01 b6bd 4164 a23d 6249 a83d
00000360: 72b5 6dbd 6d32 823d 6f5a 853d d5c1 d5bd
00000370: 56fd 2f3e 55b1 72be d64d 2a3e 58ec 08bd
00000380: 872f a23d f6d1 6ebd bc8d 0f3e 1602 043d
00000390: ad01 003e 9b94 0c3e a27d 7ebd 207e 18be
000003a0: 68e4 a1bd 808f 863e cda2 0f3e e551 993b
000003b0: 74df 8a3d 877d 19bd c181 593d 2ad5 393e
000003c0: 7d23 f93d d8d4 093e b7ae 90bd fdac af3d
000003d0: fc0c 253e 26a9 233e b765 4d3e d7f8 f73d
000003e0: 96a2 f93d 90cd d4bd ea72 f13d 5ff5 cabd
000003f0: 0560 133e 64c8 293e 5c1f e2bd 6b63 a43d
0.19219266 0.029054038 -0.01888795 -0.05817926 0.1001657 0.00200436 0.19187771 0.08565183
0.19137195 0.06071026 0.091927364 -0.04965685 0.10507409 -0.042785343 0.045329086 -0.046740968
0.046413455 0.10654239 -0.106311396 -0.08911414 -0.051148787 0.03866201 -0.01849292 -0.03428942
0.044048578 0.15150811 -0.052185334 0.04759915 0.09374316 0.05327971 0.12676077 0.008087912
-0.09123471 0.015963197 0.17996287 0.19615225 0.10860347 0.18572766 0.059211828 0.03989127
-0.03336085 -0.034240182 0.1476376 0.025368735 0.21554878 -0.007241985 0.028019173 0.092010096
0.17959064 0.017521957 0.21342932 0.070917144 -0.038061827 0.14681669 -0.05445682 0.1323903
0.16437507 0.16898306 0.09732437 0.03164689 0.018000739 0.106321484 -0.029436838 0.029022263
0.029557863 0.016956136 0.15390764 -0.009756958 -0.03408461 -0.013283834 -0.043786403 -0.10428483
0.14483482 0.020726053 0.031022156 0.1877467 -0.00650536 -0.08730143 0.06956701 0.10160827
0.023979973 0.18546723 0.09415034 0.20325881 0.11251476 0.052748844 0.03759354 -0.046076722
0.11889977 0.22864927 0.20338523 0.037232287 0.17083113 -0.103837416 0.018113026 0.12443885
-0.019197032 -0.043739006 -0.11800772 -0.10296661 -0.010748362 0.075550094 -0.05048404 -0.110250026
-0.09138569 0.038718414 -0.02007849 -0.12650807 0.07195508 -0.14335938 -0.10097352 0.10275793
0.117698975 -0.110896386 0.10019284 0.06546139 0.08363437 0.07181313 0.07389428 0.025146376
-0.07984196 0.09015528 0.07789709 -0.032217313 0.118176915 0.052681215 0.035635322 -0.07963757
-0.14641595 0.06318205 -0.12843418 0.00984879 -0.123200074 0.089131646 -0.013364988 -0.13118087
0.04348166 -0.009643923 0.03263823 -0.052852903 0.0032894264 -0.056378093 0.08675608 0.114277884
-0.06966626 0.100134075 0.088055536 0.16124614 0.067086466 0.09908089 0.035266813 -0.023034472
0.06758707 0.04671986 0.075675525 0.01616277 -0.023954155 0.06425085 -0.040304888 -0.0820631
0.17695706 0.14911412 0.07588159 -0.027532782 -0.011539645 -0.12504461 -0.005142056 0.08950337
-0.0049854424 -0.11231837 -0.026455302 -0.051328 0.060629968 -0.21405856 0.104437195 0.034328237
0.04285316 -0.063373506 0.1788131 0.03185545 0.28950164 0.15636772 0.14032489 -0.029616456
0.01709944 -0.043752186 0.14078547 -0.06518068 0.18937635 0.12746601 0.00080256665 0.06837252
0.15165141 0.07511564 0.039547496 0.12949224 -0.06279165 -0.0069144503 -0.01053262 0.17481662
0.05506171 0.22307114 -0.22411738 0.17527792 0.19692057 0.04411769 -0.019442433 0.14725968
0.1196199 -0.10503483 0.17548628 0.05727584 0.16984831 -0.08887062 0.07929278 0.08217122
-0.058034368 0.06357274 0.065113895 -0.10437361 0.17186484 -0.2370046 0.16631255 -0.03342852
0.07919221 -0.058305703 0.14018911 0.03222855 0.1250064 0.13728563 -0.06213153 -0.14891863
-0.07904893 0.26281357 0.14026947 0.004678952 0.067809016 -0.037473228 0.05310226 0.18147722
0.12164972 0.134601 -0.07064574 0.08577917 0.16118234 0.15982494 0.20058332 0.12108009
0.12189214 -0.103907704 0.11789496 -0.09910082 0.14392097 0.16580349 -0.110411376 0.08026775

conv2.bias f4 [8]
00000000: 9955 9f3d 4f4b 383e 529d 063e 6eb8 993c
00000010: 5851 c73c 29ef 113d 9a10 0a3e 94d6 b23d
0.07779998 0.17997478 0.1314595 0.0187647 0.02433078 0.03562847 0.13482895 0.08732334

conv3.weight f4 [16, 8, 3]
00000000: ddce 0f3e 3a80 5a3e 9a8c d83d fa17 44be
00000010: 967e d63d 0d31 1d3e 5473 0fbd 8f2d 3bbe
00000020: 12ee 19be b409 1ebd 8d59 e8bd b98f bcbc
00000030: 0dbd 13be 04d0 41be 435f 803e f9f5 d23d
00000040: 29fd 703e 26fa 04be 251b 653e e41e d63d
00000050: dec4 d03d adbc 50be 1ed4 833e 3b66 9abd
00000060: 05fc ffbb 54ba a13d 720b cf3d eb91 88bd
00000070: d68a 2fbd fe3a a1bd b0f4 d93d 4239 8abd
00000080: 8474 39be e783 3abe b82b ecbd b21c bf3c
00000090: 5749 82bd fc10 3dbe bba2 dcbd afb4 f1b9
000000a0: e4a4 96bd f296 eabd bbb0 21be ea39 fc3d
000000b0: 75a7 a0bd 4cf9 16be 403c 1f3e 3c24 34be
000000c0: 1a12 093e 69d5 1ebc 198f 373e 11ca 693e
000000d0: 97f1 383e 9eb9 7f3d e41d b03d 6019 38be
000000e0: 7a5e e4bd c61f 473e 82dc 7fbc 8412 ad3d
000000f0: 22b5 c83c fb08 25bd 2875 7d3e 335c 4d3d
00000100: d2f1 e53d 2be3 47be 8fba a43e ea9f 203d
00000110: 612f 2cbe 414e f3bd 4589 193e 9f0d b33d
00000120: 4dfe 7f3d 9e7f 103e 4372 5bbe ca55 49be
00000130: 37cc 5abb 09b3 1b3e 9006 5d3d fe2d 153e
00000140: b4e0 21bd 3f7f 48be ef44 153d 7642 54bd
00000150: df3e fcbd aa8c bbbd 3936 25bd 2be8 c93d
00000160: 522e 12bd 637c 80bb ba2f 1e3e 86dd a1bd
00000170: 67ee 983d 0c74 52be b7ed 463d 2457 a0bd
00000180: dfa5 273e d9a4 f33b 8589 cdbd edab b23d
00000190: 4dab 3abe b4b4 07be 8aa9 fbbd 31aa c1bd
000001a0: e3c7 bebd 9274 0d3e bc61 313a 1ea9 2ebd
000001b0: 8c63 593d 11cd d7bd fae6 debc 090b 2c3e
000001c0: 5b48 353e bc01 4a3d 000e 803e b30f 9b3e
000001d0: a6b5 853d 0061 df3b ca81 e0bd 29af 8e3e
000001e0: d284 45be e7d6 56bd 638c abbb 75e9 733d
000001f0: 7414 e73d a052 903d aae2 51bd 7b26 523d
00000200: 2249 21be 6581 d5bd 2810 e3bd b2a4 61bc
00000210: f7f6 00bd 2f71 a63d 9a7b 263d bda7 553d
00000220: 6d93 edbd ddc0 a4bd f919 99bd b331 ff3d
00000230: 55eb 3f3d 08c2 0dbe 7bc0 adbd c39f e33d
00000240: e00d 62be 51a6 543e 18bf e1bc 1f13 01be
00000250: 8ac2 173e 0bed 943e ea69 cb3d 651b c83b
00000260: ef2b b4bb 001d 2abe fb54 f03d 9c01 823d
00000270: daa6 97bd f70d 113e d435 a9bd 916b 8dbe
00000280: 03ee 0f3e 107b 6bbc bdf9 1abe abb4 49be
00000290: bb8e 213e dd21 933e 13ad 9e3e 3261 263e
000002a0: 7ca0 4cbe d41c 3dbe c324 64bd 50e3 503c
000002b0: 12d6 8a3d 32b2 fbbd cd99 a7bd e830 30be
000002c0: 86f1 26be c66a 013e 7603 563d 2e05 013e
000002d0: 6b31 0dbe 286a 48be b482 ac3d 4bbe 49be
000002e0: e729 d83d 5955 0c3e eb11 a6bd 99c7 18be
000002f0: 1caf f6bc d29e 153e 0b53 efbd 3444 8c3b
00000300: a740 183e a03a 4d3e 36f4 603e dd91 f23d
00000310: 1be0 563e a84e 453e 5c3b 9fbd 9453 41be
00000320: 979e 3bbe 1534 92bc 141f 8ebd 2be0 1c3e
00000330: ec9e 97bd 13ec a03d b9fe 883c 6120 f23d
00000340: 1340 083e 7698 12be c87d 6d3e 5f25 df3d
00000350: 814c 96bd 2048 b8bb 4818 9fbd 8e83 263e
00000360: f0d2 0bbe 1e64 8d3d a59a 26be f10e afbc
00000370: 4674 8bbc 6d82 733d c0c9 3b3e 239e 7c3d
00000380: f745 2b3e 9ddb 58be 158b 47be d446 9d3c
00000390: 409f 063e 015e 983d 753a aebd 133e ebbd
000003a0: 159c bd3d 61e4 96bd 69c6 963d 4765 1b3e
000003b0: 8104 a43c 04d6 ecbd 4da0 5fbd bad3 2b3e
000003c0: 3620 013e e4f5 cc3d e72b 4d3e 9493 553d
000003d0: 1e77 ac3d 73af 5c3e a1a2 14be 674e 063e
000003e0: 0a57 17be 5ba6 59bd 4d0a ff3d bba2 9a3d
000003f0: 1577 9ebd 2610 283e 8afa 5f3e c63b 9a3d
0.14043756 0.21337977 0.105736926 -0.19149771 0.10473363 0.15350743 -0.035022095 -0.18279098
-0.15032223 -0.038583472 -0.113452055 -0.023017751 -0.14427586 -0.18927008 0.2507268 0.10300822
0.23534073 -0.12986049 0.22373636 0.10455111 0.101937994 -0.20384474 0.2574777 -0.0753903
-0.0078120255 0.078968674 0.10109605 -0.06668457 -0.042857014 -0.0787258 0.106423736 -0.06749202
-0.18110853 -0.18214379 -0.11531776 0.023329113 -0.06361645 -0.1846351 -0.10773226 -0.00046101722
-0.07355669 -0.11454572 -0.15790074 0.12315734 -0.0784444 -0.14743537 0.15550327 -0.17591947
0.13385811 -0.009694436 0.17925681 0.22830988 0.18060909 0.062432878 0.08599451 -0.1797843
-0.111508325 0.19445714 -0.015616538 0.08450797 0.024500433 -0.040291768 0.24751723 0.050136756
0.11227764 -0.19520251 0.32173583 0.039215006 -0.16814949 -0.1188016 0.1499377 0.087428324
0.06249838 0.14111182 -0.21430306 -0.19661632 -0.0033385882 0.15205015 0.053961337 0.14568326
-0.039520934 -0.1957979 0.036442693 -0.051821195 -0.12316679 -0.09157689 -0.040334914 0.09858736
-0.035688706 -0.003921078 0.15447894 -0.0790358 0.07467347 -0.20552081 0.048566546 -0.07829121
0.16371869 0.007435423 -0.100359954 0.087241985 -0.18229409 -0.13252527 -0.122881964 -0.094562896
-0.09315469 0.13814 0.0006766578 -0.04264175 0.05307345 -0.1053716 -0.027209748 0.16801085
0.17703383 0.04931806 0.2501068 0.30285415 0.06528787 0.006816983 -0.10962255 0.27868012
-0.19288948 -0.05245104 -0.0052352413 0.059548814 0.11283198 0.070470095 -0.051241554 0.05130623
-0.15750554 -0.10425071 -0.11087066 -0.013772177 -0.031485524 0.08127057 0.04064522 0.05216192
-0.11600385 -0.08044598 -0.07475657 0.12460651 0.04685529 -0.13843548 -0.08483978 0.111144565
-0.22075605 0.2076657 -0.02755694 -0.1260495 0.14820305 0.290871 0.09932311 0.0061067813
-0.0054984014 -0.16612625 0.11734959 0.06347963 -0.07404871 0.14165483 -0.0826222 -0.2762113
0.14055638 -0.014372602 -0.1513433 -0.19697826 0.15777104 0.28736773 0.3099142 0.16248015
-0.19983095 -0.18468028 -0.05569912 0.012749508 0.06779112 -0.122898474 -0.08183632 -0.17206156
-0.16303071 0.12638387 0.052249394 0.12599632 -0.13788383 -0.19571745 0.08423367 -0.19701497
0.10554867 0.13704433 -0.08108886 -0.1491989 -0.030112796 0.14611366 -0.11685761 0.0042805914
0.14868413 0.20041895 0.21968159 0.118442275 0.20983927 0.19268286 -0.07774994 -0.18879539
-0.18322216 -0.0178471 -0.069395214 0.15319888 -0.07403359 0.078575276 0.016723024 0.11822582
0.13305692 -0.14315972 0.23192513 0.108958 -0.07338811 -0.0056238323 -0.07768303 0.16261122
-0.13654685 0.069038615 -0.1626993 -0.02136943 -0.017023217 0.059450556 0.1833868 0.06167425
0.16725908 -0.21177526 -0.1948665 0.019198813 0.13146687 0.07439805 -0.085072435 -0.11486449
0.09258286 -0.073677786 0.073620625 0.15175353 0.020021679 -0.11564258 -0.054596234 0.16779986
0.12609944 0.100078374 0.20036279 0.052142695 0.08421157 0.21551304 -0.14515163 0.13115846
-0.14779297 -0.053137165 0.124531366 0.075505696 -0.07737557 0.1641241 0.21872917 0.07530932

conv3.bias f4 [16]
00000000: 6111 ce3d 5f03 f83d 47fc 30bd 80de 6ebd
00000010: 708d e4bd 5260 22be 3a56 9cbb c9f6 48be
00000020: 2b2b 273e 6236 c7ba beb5 373d 8d33 0cbc
00000030: bfa5 9a3e 693d 653e 5f63 82bd 96ba 48be
0.100619085 0.12110018 -0.04320934 -0.05831766 -0.111597896 -0.15857056 -0.004771021 -0.19625391
0.16325061 -0.0015198702 0.044851057 -0.008557213 0.3020458 0.22386707 -0.0636661 -0.19602427

conv4.weight f4 [1, 16, 3]
00000000: afd3 adbc 68e4 193e 9212 90bc bf54 9e3d
00000010: 4777 08be 1834 803c 1ffc 373d 28f8 2c3e
00000020: 88b7 83bd b8a3 dabd c12c afbd 3cbf 7ebd
00000030: 400b 843e 72d8 273d 6fbb 63be 0750 4c3b
00000040: ad5d 833b 79f8 7cbc 58f8 32be 7a2c bf3d
00000050: c1da 3c3e 310b 093e d8ca 01be 20ce 873c
00000060: 4a42 423e 9373 033e a54d b63d 5a59 fbbd
00000070: bb2d 71bd 16c8 2d3e 999e de3d 588e 503e
00000080: 5806 4a3e 90bb a93d 582a 9f3d 627d d5bd
00000090: 91f1 be3d 4575 563c 38b0 7b3d f4d8 993d
000000a0: 5ea4 7d3d b3fd 4b3e 1642 1c3e a84c d03d
000000b0: bceb 90bd 7eb3 e5bd 0e72 c6bd 2c01 06be
-0.021219103 0.15028536 -0.01758698 0.07731008 -0.1332675 0.01564984 0.044918176 0.16891539
-0.0643149 -0.10675758 -0.08553458 -0.062194094 0.25789833 0.040977903 -0.22239469 0.003117563
0.0040089698 -0.0154401 -0.17477548 0.09334655 0.18442823 0.13383175 -0.12675035 0.01657778
0.189706 0.12837057 0.08901528 -0.12272902 -0.058881503 0.16970858 0.10870094 0.203668
0.19728982 0.08287728 0.07771748 -0.104243055 0.09323419 0.013089483 0.061447352 0.07512084
0.06192433 0.19920997 0.15259585 0.10170871 -0.07076213 -0.11215876 -0.09689723 -0.13086385
