Weight_Files/PredictionDecoder(Velocity)_trained_on_1D/vae_net_prediction_decoder_torque.pth (torch_old, 46172 bytes, 11 tensors)

fc_lat.weight f4 [400, 4]
0	0x3e23cab4	0.15995294
1	0x3e9e9b54	0.3097788
2	0xbe03ebc4	-0.12882906
3	0x3e95c370	0.2925067
4	0xbe5140a9	-0.20434822
5	0x3da71f37	0.08160251
6	0x3e2327da	0.15933171
7	0xbee445ed	-0.445846
8	0xbea2415a	-0.31690484
9	0x3e6fbde0	0.23412275
10	0xbdb1c5f0	-0.08680332
11	0x3e9ffc1a	0.31247026
12	0xbf1e3709	-0.61802727
13	0xbeff347b	-0.49844727
14	0xbe2e6510	-0.1703074
15	0xbf020e12	-0.5080272
16	0x3d05ce20	0.03266728
17	0x3e94f982	0.2909661
18	0x3d9756b8	0.07389587
19	0x3e6ab0d0	0.22919011
20	0xbe015067	-0.12628327
21	0x3ea558cf	0.32294318
22	0xbe34beba	-0.17650881
23	0xbefa7eb8	-0.48924804
24	0xbea79abe	-0.32735246
25	0x3ea00944	0.3125707
26	0x3e699ae3	0.22812991
27	0xbe62f53d	-0.22163863
28	0xbb07766c	-0.002066995
29	0xbe2a71f8	-0.16645038
30	0x3e89dc2c	0.2692579
31	0x3e4a6062	0.1976333
32	0xbee3a8bf	-0.4446468
33	0x3ee274fc	0.44229877
34	0x3e73fc2a	0.23826662
35	0xbd561f13	-0.05227573
36	0x3f215ad7	0.63029236
37	0xbde61b23	-0.11235645
38	0x3d7b3b23	0.061335694
39	0x3df009ff	0.117206566
40	0xbe99c3ca	-0.30032188
41	0xbeabfa48	-0.33589387
42	0x3ea54fe1	0.32287505
43	0x3ea6e7d4	0.32598746
44	0xbeb5fb0b	-0.35543093
45	0xbe9d6bef	-0.3074641
46	0xbedd6759	-0.4324291
47	0x3ea3d072	0.3199497
48	0xbee37646	-0.44426173
49	0x3e925932	0.28583676
50	0xbe9e4d2e	-0.30918258
51	0x3ea29e9a	0.31761628
52	0x3f149cf4	0.5805199
53	0x3d6e8ec7	0.05824163
54	0x3e55df58	0.2088598
55	0xbd3fd967	-0.04683819
56	0xbe0b5714	-0.13607436
57	0xbee44db0	-0.4459052
58	0x3c69cf00	0.014270544
59	0xbede7944	-0.43451893
60	0xbe8c0264	-0.27345574
61	0xbe89d317	-0.2691886
62	0x3ec54e5c	0.38536346
63	0xbe1ec595	-0.15505059
64	0xbdbcdfc6	-0.09222369
65	0xbedba83e	-0.42901796
66	0xbe6c7079	-0.2308978
67	0xbe63f9be	-0.22263238
68	0x3e53f64c	0.20699424
69	0x3efb0adc	0.49031723
70	0xbd66b730	-0.056327045
71	0x3ec5b70e	0.38616222
72	0x3e9109db	0.28327832
73	0xbea61ad5	-0.32442346
74	0xbe84a469	-0.25906685
75	0xbeca027f	-0.3945503
76	0xbf10a21d	-0.56497365
77	0xbde6683d	-0.112503506
78	0x3e04162c	0.12899083
79	0xbeec5ae0	-0.46163082
80	0xbeaea1e6	-0.34107894
81	0xbe02c402	-0.12770084
82	0x3d8a53f4	0.06754294
83	0x3e53a537	0.20668493
84	0xbea81bdc	-0.32833755
85	0x3eafc694	0.3433119
86	0xbe5f3870	-0.21798873
87	0xbc782a40	-0.015146792
88	0xbea64034	-0.32470858
89	0x3e903ba6	0.28170508
90	0x3eba0bb4	0.36337054
91	0x3efd1ea8	0.4943745
92	0x3f0db8bd	0.55360013
93	0x3de707ed	0.112808086
94	0xbe7d7234	-0.24750596
95	0x3c05bb22	0.008162292
96	0xbea020e8	-0.31275105
97	0xbeff4663	-0.49858388
98	0xbde50d04	-0.11184123
99	0xbe1c1c76	-0.15245232
100	0xbeac2be1	-0.33627227
101	0xbeda2400	-0.4260559
102	0x3edfe79f	0.437314
103	0xbe5da79d	-0.2164597
104	0xbf089267	-0.5334839
105	0xbec817d7	-0.39080688
106	0x3e469d34	0.19395906
107	0xbe7d3bef	-0.24729894
108	0xbe488a2a	-0.19583955
109	0xbda4516b	-0.08023342
110	0x3eb7c203	0.35890207
111	0xbe60aa89	-0.21940054
112	0x3e7403f1	0.23829629
113	0xbe330cf7	-0.17485414
114	0x3ed1aad3	0.4095064
115	0x3eacf1d1	0.3377824
116	0xbd91acb0	-0.07113016
117	0xbe40beac	-0.18822736
118	0xbdd94470	-0.106087565
119	0x3ef95d74	0.48704112
120	0xbeff6fa2	-0.49889857
121	0x3dbe9f64	0.09307745
122	0xbe92dddb	-0.28684887
123	0x3eccf1d6	0.40028256
124	0xbd0368bc	-0.032082304
125	0xbeca1de2	-0.39475924
126	0x3e7394e5	0.23787268
127	0x3ec1ab64	0.37826073
128	0xbee7bbce	-0.4526047
129	0xbec05d64	-0.3757125
130	0x3eaa8476	0.33304185
131	0x3e37e004	0.17956549
132	0x3e60e020	0.21960497
133	0x3eb6a566	0.35673064
134	0x3dc9cde8	0.098537266
135	0x3e8d8750	0.27642298
136	0xbe211044	-0.15728861
137	0xbeb29806	-0.3488161
138	0xbebbc3d5	-0.36672845
139	0x3e375482	0.17903331
140	0x3f0f85ff	0.56063837
141	0x3ddab220	0.10678506
142	0x3de6a06c	0.11261067
143	0xbef67818	-0.481385
144	0xbd881398	-0.06644362
145	0x3e941bf0	0.28927565
146	0xbd2e4a50	-0.04255134
147	0xbe92efb2	-0.28698498
148	0x3c3a6c00	0.011378288
149	0x3d6e8720	0.058234334
150	0xbdefbbf8	-0.11705774
151	0x3ea603ae	0.32424682
152	0xbe1cd834	-0.1531685
153	0x3dfe3638	0.12412685
154	0xbee9a4ac	-0.45633447
155	0x3ee20070	0.4414096
156	0xbed54032	-0.4165054
157	0x3e8210b1	0.2540336
158	0xbe8c8255	-0.27443185
159	0xbdf5a586	-0.11994462
160	0x3f12e705	0.5738376
161	0x3dd01314	0.10159889
162	0x3eec7af3	0.46187553
163	0x3eb6d693	0.35710582
164	0xbedc2dd7	-0.43003723
165	0xbdec037b	-0.11524101
166	0xbe4be194	-0.1991027
167	0xbea0c916	-0.31403416
168	0xbdd7b35e	-0.105322585
169	0xbefc60d4	-0.49292624
170	0x3ea575b6	0.3231637
171	0xbdedc1a8	-0.116092026
172	0xbef74db3	-0.48301467
173	0xbe2ce9d4	-0.16886073
174	0xbe08a1aa	-0.1334292
175	0xbe8ecc23	-0.2789012
176	0x3f2307bf	0.63683695
177	0x3d39600e	0.04525762
178	0xbddcb84e	-0.10777341
179	0x3b344766	0.0027508377
180	0xbe221c5e	-0.15831134
181	0xbd35c2ff	-0.044375416
182	0xbeb1fd61	-0.34763625
183	0xbef8f29b	-0.48622593
184	0xbe917abe	-0.28413957
185	0xbf042d90	-0.5163202
186	0x3e3d8f6a	0.1851174
187	0x3e2137b0	0.157439
188	0x3e973d28	0.29538846
189	0x3b3f25f7	0.0029166916
190	0x3e86f93e	0.26362032
191	0x3bee4c32	0.007272267
192	0x3f0b344c	0.54376674
193	0xbe56c793	-0.20974569
194	0x3e44bbdc	0.19212288
195	0x3dac8854	0.0842444
196	0xbeced696	-0.4039809
197	0x3ec3c118	0.38233256
198	0x3a2ebc00	0.00066655874
199	0x3ed9bdca	0.4252761
200	0x3cffa6a8	0.031207398
201	0xbee24604	-0.44194043
202	0x3ebe78d0	0.37201548
203	0x3e8f0390	0.27932405
204	0xbe8e33dc	-0.2777394
205	0x3e81c6fb	0.25347123
206	0xbecdee9a	-0.402211
207	0xbf130657	-0.5743155
208	0xbe0c4163	-0.13696818
209	0xbe29ddcd	-0.16588517
210	0xbb176503	-0.002310098
211	0xbe8adfd7	-0.271239
212	0xbe9bc47d	-0.30423346
213	0x3eaf050c	0.34183538
214	0xbe8951ed	-0.26820317
215	0xbf105ad1	-0.56388575
216	0x3eede2b5	0.46462026
217	0x3c84db8d	0.016217971
218	0x3e81fb4b	0.25387034
219	0x3ddbfc30	0.1074146
220	0x3d656357	0.05600294
221	0x3d2336e1	0.03984726
222	0xbe54a01b	-0.207642
223	0xbe051324	-0.12995583
224	0xbea161ef	-0.3152003
225	0xbea47b6a	-0.32125407
226	0xbeb9c677	-0.3628423
227	0x3ed73c9b	0.42038426
228	0xbe82b171	-0.25526002
229	0xbe232224	-0.15930992
230	0x3db3a131	0.08770979
231	0xbe07a1f4	-0.13245374
232	0xbef455e7	-0.47721788
233	0xbe937c0f	-0.28805587
234	0xbc281813	-0.010259646
235	0x3e2d5b3e	0.16929337
236	0xbe82edd6	-0.2557208
237	0x3ee8cc84	0.45468533
238	0xbed0d242	-0.40785414
239	0x3ec70a48	0.3887503
240	0xbec551a2	-0.38538843
241	0xbea3f38c	-0.3202175
242	0x3df59164	0.11990622
243	0x3e9dfd5f	0.3085737
244	0x3ed4ef76	0.41588944
245	0x3d2b5680	0.04183054
246	0x3ee3e54f	0.44510886
247	0x3e02e0ca	0.12781063
248	0x3d847482	0.064675346
249	0xbe8123c0	-0.25222588
250	0xbed28524	-0.41117203
251	0xbc12efe2	-0.008968325
252	0x3e8b7809	0.27240017
253	0x3eb37bc8	0.35055375
254	0xbd30fb41	-0.043208364
255	0xbe82006b	-0.25390944

fc_lat.bias f4 [400]
0	0xbe7826bc	-0.24233526
1	0x3e92665c	0.2859372
2	0xbe823384	-0.25429928
3	0x3d7daa87	0.061930206
4	0xbefbf29a	-0.49208528
5	0xbe9cef45	-0.30651298
6	0x3e9a1f50	0.30102015
7	0xbe7b064b	-0.2451412
8	0x3edc70c5	0.43054786
9	0xbe9af2a1	-0.30263236
10	0x3d044d33	0.032300185
11	0x3f16576a	0.58727133
12	0xbe57183c	-0.21005338
13	0xbc346a47	-0.011011667
14	0xbe8ace8a	-0.27110702
15	0x3e968972	0.29401737
16	0xbe6731f4	-0.2257765
17	0x3e7ca16c	0.24670953
18	0xbe18d9f3	-0.14926891
19	0x3dc1e549	0.09467561
20	0x3f2745ba	0.6534077
21	0xbeb466f4	-0.35234797
22	0xbeffd9da	-0.49970895
23	0xbe0ff62e	-0.14058754
24	0xbebb8bcf	-0.36630103
25	0x3d8bc4a4	0.068246156
26	0xbdc2155a	-0.09476729
27	0x3e050ffb	0.12994377
28	0xbeb6b19c	-0.3568238
29	0xbec1684e	-0.3777489
30	0x3e21ec28	0.15812743
31	0x3e956595	0.29179063
32	0x3df465c5	0.119334735
33	0xbee8a1f4	-0.4543606
34	0xbe9af028	-0.3026135
35	0xbe975d5b	-0.29563412
36	0xbe664fd4	-0.2249139
37	0xbe502304	-0.20325857
38	0xbedb2ef6	-0.42809266
39	0xbeefe722	-0.46856028
40	0x3e8a1aa2	0.26973444
41	0xbe8e6ba1	-0.2781649
42	0xbe7a5246	-0.24445447
43	0xbeaf1e4b	-0.342028
44	0xbc898d67	-0.016791059
45	0x3de1d167	0.110262685
46	0xbebabfc6	-0.36474437
47	0x3e352c08	0.17692578
48	0xbef4ed69	-0.4783738
49	0x3dc40098	0.09570426
50	0x3d62d4f1	0.055378858
51	0xbd3620d1	-0.04446489
52	0xbeb6dbbd	-0.35714522
53	0x3e424d45	0.18974788
54	0xbe0bbb3e	-0.13645646
55	0xbe88daf3	-0.26729545
56	0xbe8eebf4	-0.27914393
57	0xbeaf5ff5	-0.34252897
58	0x3da931cf	0.08261453
59	0x3cdc8ea0	0.026923478
60	0x3d115c9b	0.035488706
61	0xbdb87fde	-0.09008764
62	0xbe07c845	-0.1325999
63	0xbd134f6e	-0.035964422
64	0xbed15f5e	-0.40893072
65	0xbe402df2	-0.18767527
66	0x3e15066c	0.14553231
67	0xbe9c3542	-0.30509382
68	0xbe85136d	-0.25991383
69	0x3e92b1b3	0.286512
70	0x3e3e22a1	0.18567897
71	0xbde8c2ff	-0.113653176
72	0xbee5d3f7	-0.4488828
73	0xbec4a4c0	-0.38406944
74	0x3df99c14	0.12187973
75	0xbeeba8ad	-0.46027127
76	0xbe9558d7	-0.29169342
77	0x3deb2c75	0.11483089
78	0xbe0441c6	-0.12915716
79	0x3e01706c	0.12640542
80	0x3ecd866c	0.40141618
81	0xbec4cb24	-0.38436234
82	0xbcb058bf	-0.021526692
83	0xbd26e2e2	-0.040743716
84	0xbe621858	-0.22079599
85	0x3e102730	0.14077449
86	0x3eb010c0	0.3438778
87	0xbec1b6a8	-0.37834668
88	0x3c02137c	0.007939216
89	0xbe70335c	-0.23457092
90	0xbdb750f4	-0.089509875
91	0x3eec6484	0.46170437
92	0x3f171095	0.5900968
93	0xbdd65b24	-0.104666024
94	0x3f11761f	0.56820863
95	0xbd89a3d8	-0.06720704
96	0x3e3438eb	0.17599837
97	0xbd8bbf0e	-0.0682355
98	0xbee8875c	-0.4541577
99	0x3ed63e90	0.41844606
100	0x3ef4e33c	0.47829616
101	0x3ee91389	0.45522717
102	0xbeb516af	-0.3536887
103	0xbea6b85d	-0.32562533
104	0x3e5e58ac	0.21713513
105	0x3908945e	0.00013025242
106	0x3c826815	0.01591877
107	0x3e3bfa35	0.18357165
108	0x3df710d8	0.120637596
109	0x3eed1936	0.46308297
110	0x3f0d026e	0.5508183
111	0x3ee3e6a3	0.445119
112	0xbed9894c	-0.42487562
113	0x3edd333b	0.43203148
114	0xbe547165	-0.20746382
115	0x3e9ed8a2	0.31024653
116	0x3e801d98	0.25022578
117	0x3e360ae8	0.17777598
118	0x3d836b52	0.06416954
119	0x3e34200d	0.17590351
120	0x3f022ce8	0.5084977
121	0x3da28347	0.079351954
122	0x3ef36038	0.47534347
123	0x3ef5836c	0.4795183
124	0xbe60e6f4	-0.21963102
125	0x3d0d3fb5	0.034484584
126	0xbcc5a000	-0.024124146
127	0x3ef36a6c	0.4754213
128	0x3ee987ed	0.45611516
129	0x3e9d3029	0.30700806
130	0xbedb5a7d	-0.42842475
131	0x3e502f53	0.20330553
132	0x3e46d8f4	0.19418699
133	0xbec62a7c	-0.38704288
134	0xbe079480	-0.13240242
135	0xbe3b2328	-0.1827513
136	0x3e283ce4	0.16429478
137	0x3d8c1fdb	0.068420134
138	0xbe8c9c3f	-0.27462956
139	0x3ecd2203	0.4006501
140	0x3e235447	0.15950118
141	0x3cdc48af	0.026890127
142	0x3d783b90	0.06060368
143	0xbefd8f70	-0.49523497
144	0x3c4d6a30	0.012537524
145	0xbead811a	-0.3388756
146	0x3e403575	0.18770392
147	0xbd99f2ae	-0.075169906
148	0x3f01cec6	0.50706136
149	0x3ee1f892	0.44134957
150	0x3e544666	0.2072998
151	0x3e502b0b	0.2032892
152	0x3e87a2af	0.26491305
153	0x3e96bc2f	0.29440448
154	0x3eee441e	0.46536344
155	0xbe219962	-0.15781167
156	0x3ecd59fa	0.4010771
157	0x3e89c491	0.2690778
158	0xbec733e2	-0.3890677
159	0xbe2b2daa	-0.16716638
160	0xbe604947	-0.21902953
161	0xbe917e48	-0.28416657
162	0xbe9bb907	-0.30414602
163	0xbe1b6bb3	-0.15177803
164	0xbe0bc108	-0.13647854
165	0x3e6eeca4	0.23332459
166	0x3e0dae33	0.13835983
167	0xbe4b9c61	-0.19883873
168	0x3e67f812	0.22653225
169	0x3f0c2b8a	0.54753935
170	0xbed0d56a	-0.40787822
171	0xbed48555	-0.41507974
172	0x3e33bf0d	0.17553349
173	0xbebeedd0	-0.37290812
174	0xbe327194	-0.17426139
175	0xbeae080b	-0.3399051
176	0xbe99a37e	-0.30007547
177	0xbed4390f	-0.41449782
178	0xbe59fe73	-0.21288471
179	0x3b690a85	0.0035559249
180	0x3eab2762	0.33428484
181	0x3d7c9174	0.061662152
182	0x3e491266	0.19635925
183	0xbe9a032c	-0.30080545
184	0xbe9f1462	-0.31070238
185	0xbdbc94e7	-0.09208088
186	0x3e6ba8bc	0.23013586
187	0xbe810de2	-0.25205904
188	0xbe7ada79	-0.24497403
189	0xbe2afe3c	-0.16698545
190	0xbdd5fbd2	-0.104484215
191	0x3f14c5b3	0.58114165
192	0x3ece0190	0.40235567
193	0x3e9b1033	0.30285797
194	0xbebffdc4	-0.37498295
195	0xbd607dd1	-0.054807488
196	0x3e12ce38	0.14336479
197	0x3d9005ff	0.07032394
198	0x3f03832e	0.5137204
199	0xbdf1da9d	-0.11809275
200	0x3f0584f3	0.5215599
201	0xbe3b2f40	-0.18279743
202	0x3df88d5b	0.121363364
203	0x3e7fc958	0.2497915
204	0x3f0e2d74	0.55538106
205	0xb895b088	-7.137755e-05
206	0x3dfe0dd2	0.1240498
207	0xbec6dc84	-0.38840115
208	0xbecb1588	-0.39664865
209	0xbd9a3366	-0.07529335
210	0x3e058fc6	0.13043126
211	0xbea2ccd1	-0.31796888
212	0xbefcdd8d	-0.4938778
213	0x3ee0b2e6	0.4388649
214	0xbec929c4	-0.39289677
215	0xbe2e47f3	-0.17019634
216	0x3d37fa3d	0.04491638
217	0xbea95a79	-0.33076838
218	0x3ea8a71e	0.3294
219	0x3ecd6ec5	0.40123573
220	0x3e8e8f90	0.27843904
221	0x3e9d25d2	0.30692917
222	0x3edcd0d5	0.43128076
223	0xbed0357c	-0.40665805
224	0xbec0f235	-0.3768479
225	0x3ded6ded	0.11593232
226	0xbe7e20e4	-0.24817234
227	0x3ee76e8c	0.45201528
228	0xbe04a9ef	-0.1295545
229	0x3db5684d	0.088577844
230	0xbcb0396c	-0.021511756
231	0x3e7eae48	0.2487117
232	0x3d301583	0.042989265
233	0x3e3af862	0.18258813
234	0x3edb433a	0.42824727
235	0xbdbe7986	-0.093005225
236	0x3ef1fb21	0.4726191
237	0xbf008079	-0.50196034
238	0xbef1f1af	-0.47254702
239	0xbe06a34d	-0.13148232
240	0x3ed17e56	0.409167
241	0xbe808b38	-0.25106215
242	0x3ed1c4d4	0.4097048
243	0x3f02f50e	0.51155174
244	0x3db1a1e8	0.08673459
245	0xbdac03fb	-0.08399197
246	0x3dcfafa0	0.1014092
247	0x3e71c28e	0.23609373
248	0x3d047ecb	0.03234748
249	0xbdc45af0	-0.095876575
250	0x3da12a9b	0.078694545
251	0xbd5e869c	-0.054327592
252	0xbe7f4304	-0.24927908
253	0xbcb2c8bf	-0.021824239
254	0x3e0e0130	0.1386764
255	0x3ebeae68	0.37242436

fc1.weight f4 [20, 400]
0	0x3d2bf04b	0.041977208
1	0x3d520ed0	0.051283658
2	0xbd04bef4	-0.03240867
3	0x3de2a71b	0.11067029
4	0xbcf7e82d	-0.030262077
5	0xbd4c6e3c	-0.049909815
6	0x3d553498	0.05205211
7	0x3e825e2b	0.2546247
8	0xbdeda637	-0.116039686
9	0xbe4f9277	-0.20270716
10	0x3e1a6e9d	0.15081258
11	0x3df63f64	0.120238096
12	0xbcc4fa7a	-0.024045218
13	0xbe2deda4	-0.16985184
14	0x3dd8f710	0.105939984
15	0x3db7382d	0.089462616
16	0x3de58ea4	0.11208847
17	0xbca179fd	-0.019711489
18	0x3cd41cc6	0.025892626
19	0x3db1dc1b	0.0868456
20	0x3ddae75b	0.10688659
21	0x3cc91d02	0.024549965
22	0x3d0eb2df	0.034838554
23	0xbe792048	-0.2432872
24	0x3ddafef3	0.10693159
25	0x3d5af4cf	0.053456124
26	0x3d9ab77e	0.075545296
27	0x3d269c82	0.0406766
28	0x3d64aed9	0.05583081
29	0x3cfaab52	0.03059927
30	0x3e381953	0.1797841
31	0x3dd57ce4	0.104242116
32	0x3dab8c63	0.08376386
33	0xbca68383	-0.020326382
34	0x3e16d553	0.14729814
35	0xbe198f5d	-0.14996095
36	0xbd37ab5a	-0.044841148
37	0xbd45f16f	-0.048325952
38	0xbcba54a3	-0.022745436
39	0xbdea5408	-0.11441809
40	0xbe2b57f3	-0.16732769
41	0x3e0cfdc9	0.13768686
42	0x3dd2b4e8	0.102884114
43	0x3db90ff9	0.0903625
44	0xbe5adaeb	-0.21372573
45	0x3d83b8b8	0.06431717
46	0x3e1a6eed	0.15081377
47	0x3b8c8885	0.0042887353
48	0x3c75cdf4	0.015002716
49	0x3c907722	0.017634932
50	0x3d1204c2	0.03564907
51	0xbdd1f4c1	-0.10251761
52	0x3cc87a2b	0.024472317
53	0xbe296514	-0.16542464
54	0xbd86a147	-0.0657373
55	0x3e06bf71	0.13158967
56	0x3dc26a3c	0.09492919
57	0x3d90ef18	0.070768535
58	0x3e046c19	0.12931861
59	0x38cbea00	9.72338e-05
60	0x3e2dfe25	0.1699148
61	0xbccbc63a	-0.024874795
62	0xba005f71	-0.00048970344
63	0x3babe6ae	0.005246005
64	0xbe0f4574	-0.13991338
65	0xbe0e4b30	-0.1389587
66	0xbd32b7a2	-0.043632157
67	0x3d9170dc	0.07101604
68	0xbd98106a	-0.07425006
69	0x3dcb7534	0.09934464
70	0x3d0a63d8	0.033786625
71	0x3c50796d	0.012724263
72	0x3d13c74d	0.03607874
73	0xbd1e9c9e	-0.03872358
74	0xbe1859a2	-0.14877942
75	0xbe0fc089	-0.1403829
76	0x3e11d091	0.14239718
77	0xbda7fdb9	-0.08202691
78	0xbd083e31	-0.033262435
79	0x3dd5632b	0.104193054
80	0x3de0cdc3	0.10976746
81	0xbcf42d40	-0.029806733
82	0xbd935354	-0.07193628
83	0x3d0c9313	0.03431995
84	0x3e27be61	0.16381218
85	0x3d1a6780	0.03769636
86	0x3de5fb1a	0.112295344
87	0x3e203d5c	0.15648407
88	0xbe84cccc	-0.25937498
89	0xbd984e13	-0.074367665
90	0xbdc075d9	-0.09397478
91	0xbb6fcedd	-0.0036591806
92	0x3e47ca4d	0.19510765
93	0x3bd042d9	0.006355625
94	0x3da3cf81	0.079985626
95	0xbd03ef88	-0.032210857
96	0x3c97bd83	0.018522983
97	0xbdfe09a4	-0.124041826
98	0x3d11868b	0.0355287
99	0xbdcb7df4	-0.09936133
100	0x3d9e3478	0.07724851
101	0x3d7a894a	0.061166085
102	0xbde148ef	-0.11000239
103	0x3d4d15b8	0.05006954
104	0xbcc47470	-0.023981303
105	0xbd340304	-0.04394819
106	0x3df41269	0.11917574
107	0x3df4c325	0.11951283
108	0xbc932266	-0.017960738
109	0xbd02472d	-0.03180616
110	0x3d94a6a3	0.07258346
111	0x3dcb97c7	0.099410586
112	0xbd2a4c90	-0.041576922
113	0x3d86db09	0.065847464
114	0xbd6905e2	-0.056890376
115	0xbc18d0c8	-0.009327121
116	0x3dc783e7	0.09741955
117	0x3dff8062	0.12475659
118	0xbb1a1b90	-0.0023514964
119	0x3e5305ec	0.20607728
120	0xbe0ebcfd	-0.13939281
121	0x3cd1da20	0.025616705
122	0x3d8b60bb	0.06805559
123	0x3dc9a947	0.0984674
124	0x3dc3bf4a	0.0955797
125	0x3da12506	0.0786839
126	0xbd0dff4e	-0.034667306
127	0x3c95d23e	0.018288728
128	0xbe4852e3	-0.19562869
129	0xbd961cc6	-0.07329707
130	0xbd2924bd	-0.041294802
131	0xbc213a08	-0.009840496
132	0x3cd55d7e	0.026045557
133	0x3dec0959	0.115252204
134	0xbdbf2644	-0.093334705
135	0x3aa390a0	0.0012479015
136	0xbcdfc727	-0.027316643
137	0x3daeff38	0.08544773
138	0x3e21ee95	0.15813668
139	0x3e36c950	0.17850232
140	0x3d006366	0.031344794
141	0x3d1d03b7	0.03833362
142	0x3c8e128a	0.017342824
143	0x3c0869b4	0.008325983
144	0xbe39c904	-0.18143088
145	0x3dce6031	0.10076941
146	0x3e0e0a89	0.13871206
147	0xbe22561e	-0.15853164
148	0x3d9f2bcd	0.07772026
149	0x3d5dd4c7	0.054158
150	0x3dee4484	0.11634162
151	0x3d910ded	0.07082734
152	0xbd55c9d8	-0.052194446
153	0x3c7a7b8d	0.015288246
154	0x3dc645b8	0.096812665
155	0x3d759b85	0.059962768
156	0xbd4e1bd5	-0.05031951
157	0x3e07f90d	0.13278599
158	0x3d6d7452	0.05797226
159	0x3d93ed64	0.07223013
160	0x3d26ce10	0.04072386
161	0x3d425f69	0.04745427
162	0x3d39fdcf	0.045408066
163	0x3de7fb16	0.11327188
164	0x3ca25c4a	0.019819397
165	0x3d7d7575	0.061879594
166	0x3e5ec7ca	0.21755901
167	0xbe3fa772	-0.18716219
168	0x3e411186	0.18854341
169	0x3d929a29	0.0715831
170	0xbc4cab2c	-0.012491982
171	0xbddf56d9	-0.10905237
172	0x3df1adc5	0.11800722
173	0xbc9ceeda	-0.019156862
174	0x3c22d108	0.009937532
175	0x3dd35d22	0.10320498
176	0x3d93cb51	0.07216514
177	0x3d209838	0.039207667
178	0xbe16cdfe	-0.14727017
179	0xbd87bb7e	-0.06627558
180	0x3cbd3749	0.023097651
181	0xbdc089ad	-0.094012596
182	0x3e28506a	0.16436926
183	0x3d82d503	0.06388285
184	0xbdfb57ba	-0.12272592
185	0x3e081c76	0.13292107
186	0xbbedc990	-0.007256694
187	0x3d805712	0.06266607
188	0xbc813f35	-0.01577721
189	0xbe165a85	-0.14682968
190	0xbd0c64d8	-0.03427586
191	0x3dace4f2	0.08442105
192	0xbd8a7901	-0.06761361
193	0xbdd1c513	-0.10242667
194	0xbd227ff0	-0.039672792
195	0x3d8a658f	0.06757652
196	0xbbfe4b80	-0.007760465
197	0x3de98d67	0.114039235
198	0x3d9bef34	0.07613984
199	0xbe1a1cdc	-0.15050071
200	0x3de99d4f	0.11406957
201	0xbdfd8451	-0.12378753
202	0x3d4fbf07	0.050719287
203	0xbd8e23cd	-0.06940422
204	0x3d935d08	0.07195479
205	0x3d2e6e96	0.04258593
206	0x3de74bc9	0.11293752
207	0x3c98dd4a	0.018660206
208	0xbd327bfa	-0.043575265
209	0x3dad9551	0.084757455
210	0x3d1869c8	0.037210256
211	0xbdbe5759	-0.09294004
212	0x3e003e0c	0.12523669
213	0x3daa5787	0.08317476
214	0xbb751080	-0.0037393868
215	0x3c41fb9f	0.011839776
216	0x3d37f479	0.04491088
217	0x3b770f82	0.0037698452
218	0x3cf963ba	0.030443061
219	0x3dccba58	0.0999648
220	0xbc466008	-0.012107857
221	0x3c55bf04	0.01304603
222	0x3d89c758	0.06727475
223	0x3af98760	0.0019037537
224	0x3c562fdb	0.013072933
225	0x3d9be991	0.07612909
226	0x3df89cc1	0.121392734
227	0xbd428e63	-0.04749907
228	0x3d45dd07	0.04830649
229	0x3c7e9557	0.015538535
230	0x3e16c983	0.14725308
231	0xbce363b3	-0.027757501
232	0x3e32852a	0.1743361
233	0xbdc471e6	-0.09592037
234	0x3cc0baa2	0.023526493
235	0xbe4d51e3	-0.20050769
236	0x3dab4735	0.08363191
237	0x3d3d5158	0.046220154
238	0x3d630142	0.05542112
239	0x3c56c135	0.013107588
240	0x3d47f318	0.048815817
241	0x3b470a00	0.003037095
242	0x3e166029	0.1468512
243	0x3d9afa2f	0.0756725
244	0xbce377e0	-0.027767122
245	0x3d291404	0.041278854
246	0x3cc36d6a	0.023855884
247	0x3db9fcaf	0.09081399
248	0xbcfe758d	-0.031061912
249	0x3d0d2fd9	0.03446946
250	0xbc15947f	-0.0091296425
251	0x3e103478	0.14082515
252	0xbc83c814	-0.016086616
253	0x3daa703d	0.08322189
254	0x3cb1e45b	0.021715334
255	0xbcfa2a3a	-0.030537713

fc1.bias f4 [20]
0	0x3c37e19a	0.011223221
1	0xbd25c6c2	-0.040472753
2	0x3beaf6b0	0.0071705207
3	0xbd3191d7	-0.043351974
4	0xbd54a469	-0.051914606
5	0x3ce392bb	0.027779927
6	0x3d349d38	0.044095248
7	0x3d9bdfb7	0.076110296
8	0x3d29ea1d	0.041483033
9	0x3d56b31d	0.05241691
10	0x3dd48da5	0.10378579
11	0x3d330014	0.043701246
12	0x3dcc5c93	0.09978595
13	0x3e00680d	0.12539692
14	0x3c9f0a26	0.019414019
15	0x3be45050	0.006967582
16	0xbd1c48b3	-0.03815527
17	0x3dd1fc72	0.10253228
18	0x3dd4a04c	0.10382137
19	0x3dcf3384	0.10117248

conv1.weight f4 [16, 4, 3]
0	0x3bdd5ef3	0.0067557036
1	0xbe173093	-0.14764623
2	0xbc8660ac	-0.016403519
3	0x3c166ab9	0.009180718
4	0x3e322fb4	0.1740101
5	0x3ea729ff	0.32649228
6	0x3d6b20ba	0.057404257
7	0x3ea3e77c	0.32012546
8	0xbd8a2a90	-0.067463994
9	0x3e836564	0.25663292
10	0xbb5802c3	-0.003296063
11	0xbda1270d	-0.078687765
12	0xbe85dc98	-0.26144862
13	0x3e16c188	0.14722264
14	0xbcfc93d7	-0.030832214
15	0x3e84370c	0.25823247
16	0xbdf4560a	-0.11930473
17	0xbe436c63	-0.19084315
18	0x3e5bd7c8	0.21469033
19	0x3e70d934	0.23520356
20	0x3d25c397	0.040469732
21	0xbe0a1332	-0.13483885
22	0x3dd81321	0.105505235
23	0x3d8f014c	0.06982669
24	0x3e9de0c9	0.3083556
25	0x3e68c373	0.22730808
26	0x3dba39a2	0.09093024
27	0x3e925a93	0.28584728
28	0x3da128a4	0.0786908
29	0x3da929a3	0.08259895
30	0x3e4d777d	0.20065112
31	0xbd77ebc5	-0.06052758
32	0xbd51493f	-0.051095244
33	0x3e830bed	0.25595036
34	0x3e9aa13a	0.3020113
35	0x3d8f9978	0.07011694
36	0xbd0959ae	-0.03353279
37	0x3ea06ef4	0.3133465
38	0x3e920535	0.28519598
39	0xbdad55d7	-0.08463638
40	0x3e2d55d3	0.1692727
41	0xbdbc8d4d	-0.092066385
42	0xbe1314ca	-0.14363399
43	0x3d663fa2	0.05621303
44	0x3e0e167e	0.13875768
45	0x3e20b557	0.15694176
46	0x3d66f1e2	0.05638302
47	0x3e84df1f	0.25951478
48	0xbe2920f6	-0.1651648
49	0x3e82caf8	0.25545478
50	0xbcaa61ca	-0.020798583
51	0xbd4bdd4f	-0.049771603
52	0x3e588d79	0.21147718
53	0x3da485d8	0.08033341
54	0x3d1eeec5	0.038801927
55	0x3e28c292	0.16480473
56	0x3dc69472	0.096962824
57	0xbe54baa3	-0.20774321
58	0x3da3f1fc	0.08005139
59	0xbdd54dcc	-0.10415229
60	0x3e1287f5	0.14309676
61	0xbe8ef205	-0.2791902
62	0xbe5066ff	-0.2035179
63	0xbe32a28c	-0.17444819
64	0x3dedee65	0.11617736
65	0xbd7337ef	-0.059379514
66	0x3e5d5d47	0.21617614
67	0x3b654b95	0.0034987677
68	0xbe4c3996	-0.19943842
69	0xbd2df003	-0.04246522
70	0xbd0761f4	-0.0330524
71	0xbe82e88c	-0.25568044
72	0xbe055676	-0.13021263
73	0xbe52268d	-0.20522518
74	0xbd1c5db3	-0.038175296
75	0xbd757432	-0.059925266
76	0x3de8c024	0.11364773
77	0x3cf6240a	0.030046482
78	0x3e437da5	0.19090898
79	0xbdd4ebaa	-0.10396512
80	0xbe874119	-0.26416853
81	0xbe5fbc5c	-0.21849197
82	0xbe14c7bd	-0.14529319
83	0x3dd53f24	0.10412434
84	0x3cfd4999	0.030918883
85	0xbd6d9869	-0.058006678
86	0x3e0f73d6	0.14009032
87	0xbd5e2a07	-0.0542393
88	0xbe963bda	-0.29342538
89	0xbe1fa9e9	-0.1559216
90	0x3d026b3c	0.031840548
91	0x3d7b0c02	0.06129075
92	0xbe1e7461	-0.15474083
93	0x3e7093a6	0.23493823
94	0x3e2e80de	0.17041346
95	0xbe31e799	-0.17373504
96	0xbe4bc93f	-0.19900988
97	0x3e92c987	0.28669378
98	0x3e370b48	0.17875397
99	0x3e6a843f	0.2290201
100	0x3dc40f84	0.09573272
101	0x3e4b8730	0.19875789
102	0xbd3d6953	-0.046243023
103	0xbdf7f4d8	-0.12107247
104	0x3e88ef3c	0.2674502
105	0xbe13c2df	-0.14429806
106	0xbe2054a4	-0.15657288
107	0xbe84f366	-0.25966948
108	0x3e64a9f8	0.22330463
109	0xbe5e09ab	-0.21683376
110	0xbdc2ba9a	-0.09508248
111	0xbcc5307c	-0.02407097
112	0xbe0982ea	-0.13428846
113	0xbe140ac0	-0.14457226
114	0x3e6da98b	0.23209207
115	0xbe83da3b	-0.25752434
116	0x3d7e51c9	0.062089715
117	0x3d02695b	0.031838756
118	0x3e26b4f0	0.1627996
119	0x3e6167fa	0.2201232
120	0x3d0f7941	0.035027746
121	0x3ea5e797	0.32403252
122	0xbe42c637	-0.19020925
123	0xbd083b1b	-0.033259492
124	0x3e503f73	0.20336704
125	0x3d34b287	0.04411557
126	0x3da70154	0.0815455
127	0x3de0c86c	0.109757274
128	0xbcf0da56	-0.029400986
129	0x3e107b74	0.14109594
130	0xbe2e2049	-0.17004503
131	0xbbfce22f	-0.007717393
132	0x3ebc235c	0.36745727
133	0x3d33fc3f	0.043941732
134	0xbd2aa040	-0.041656733
135	0xbe8223e4	-0.25418007
136	0xbd9b946e	-0.0759667
137	0x3eabd23b	0.3355883
138	0x3dac5435	0.08414499
139	0x3d879f30	0.066221595
140	0x3e90c9f5	0.2827908
141	0x3d4bb8f9	0.04973695
142	0xbda15ab4	-0.078786284
143	0xbdf01889	-0.1172343
144	0xbd48d216	-0.04902848
145	0x3e613a86	0.21994981
146	0x3de40a25	0.111347474
147	0xbd2fe0d7	-0.042939033
148	0xbe970ad1	-0.2950044
149	0x3e3d6dce	0.18498918
150	0xbd61fc72	-0.05517239
151	0x3d88ac09	0.06673438
152	0xbe5099b1	-0.20371129
153	0x3e501f91	0.20324542
154	0x3c5d8e7c	0.01352274
155	0x3d815b14	0.063162
156	0xbe475acb	-0.19468229
157	0xbe018a98	-0.12650526
158	0x3e8a3954	0.26996863
159	0xbe27aa71	-0.16373612
160	0xbe9c30aa	-0.30505878
161	0x3e4d9add	0.20078607
162	0x3e886014	0.26635802
163	0xbeb89b07	-0.36055776
164	0x3e6ba2a6	0.23011264
165	0xbd7e5c29	-0.06209961
166	0x3c3ee33a	0.011650855
167	0xbd183d30	-0.037167728
168	0x3d9d05ab	0.07667097
169	0xbd6ccf85	-0.057815094
170	0xbda40aa6	-0.080098435
171	0x3d824e29	0.06362564
172	0x3e964227	0.29347345
173	0x3d07672b	0.033057373
174	0x3d986a35	0.074421324
175	0xbe19b494	-0.15010291
176	0x3e9fadf3	0.311874
177	0x3e33a26e	0.17542431
178	0x3ea76815	0.32696596
179	0x3e72cdfd	0.23711391
180	0xbe8414d3	-0.25797138
181	0x3e021209	0.12702192
182	0xbdbb4308	-0.091436446
183	0x3e234c38	0.15947044
184	0xbe604fcc	-0.2190544
185	0x3e2c263f	0.16811465
186	0x3ddb12c6	0.1069694
187	0xbe861991	-0.2619138
188	0x3be7d2f7	0.0070747095
189	0xbc336fcc	-0.010951947
190	0xbe8fc89a	-0.28082734
191	0x3dcdf49b	0.100564204

conv1.bias f4 [16]
0	0x3e92c237	0.286638
1	0xbc4e28e1	-0.0125829885
2	0xbe258704	-0.16164786
3	0xbe1b343c	-0.15156645
4	0x3c5d8b51	0.013521985
5	0x3ea9ea2a	0.33186466
6	0x3eb00f97	0.34386894
7	0xbc56d0b6	-0.013111284
8	0xbe32108a	-0.17389122
9	0xbe33aa82	-0.17545512
10	0xbe0990be	-0.13434121
11	0x3e7e288a	0.24820152
12	0x3eb36a7b	0.35042176
13	0xbe3a15b1	-0.18172337
14	0x3e87c506	0.26517504
15	0xbe5163dc	-0.2044825

conv2.weight f4 [8, 16, 3]
0	0x3e33c0fb	0.17554085
1	0x3c76bc14	0.01505949
2	0xbcfc6512	-0.030809913
3	0xbd56b705	-0.052420635
4	0x3dce2c5c	0.10067055
5	0xbc3b55e8	-0.011434056
6	0x3e3794fe	0.1792793
7	0x3d946ab9	0.07246918
8	0x3e3960af	0.18103288
9	0x3d53913a	0.05165217
10	0x3da31ea8	0.079648316
11	0xbd6e0848	-0.058113366
12	0x3dbb66ad	0.09150443
13	0xbd5b99a7	-0.05361333
14	0x3d05b237	0.032640662
15	0xbdbb692a	-0.09150918
16	0x3d04658a	0.032323398
17	0x3dd16b2f	0.10225522
18	0xbd317283	-0.043322098
19	0xbdc94404	-0.09827426
20	0xbda9cf0c	-0.08291444
21	0x3d200347	0.039065626
22	0x3d3b3acc	0.04571037
23	0xbc304c3d	-0.010760364
24	0x3ca01fda	0.019546438
25	0x3df587ae	0.119887695
26	0xbda23f03	-0.07922175
27	0x3d19d3f4	0.03755565
28	0x3db0ae68	0.08627015
29	0x3d60ff78	0.054931134
30	0x3de32eac	0.11092886
31	0xbc485c7b	-0.01222908
32	0xbde51553	-0.11185708
33	0x3b5e8d8d	0.0033958883
34	0x3e328441	0.17433263
35	0x3e4b39f5	0.19846328
36	0xbd2d6035	-0.04232808
37	0x3d32c7da	0.043647625
38	0xbda95281	-0.082676895
39	0x3cb25426	0.02176864
40	0xbc8404de	-0.016115602
41	0xbc804a7b	-0.015660515
42	0x3e0cfa89	0.13767447
43	0x3c619f28	0.013770856
44	0x3e524f8c	0.20538157
45	0xbcabb378	-0.0209596
46	0xbc0860dd	-0.008323875
47	0x3d4072f6	0.046984635
48	0x3e30bdd2	0.1725991
49	0x3c3cf253	0.011532384
50	0x3e500199	0.2031311
51	0x3dae946a	0.085244015
52	0xbd326792	-0.043555804
53	0x3e07e105	0.13269432
54	0xbd7149fa	-0.05890844
55	0x3dff94bd	0.124795415
56	0x3e246f86	0.16058168
57	0x3e200967	0.15628587
58	0x3db235c6	0.08701663
59	0x3c9804f5	0.018557051
60	0x3bcd3652	0.006262579
61	0x3dd136ee	0.10215555
62	0xbd3f4a84	-0.046701923
63	0x3ab5daab	0.0013874372
64	0x3d4c8fb2	0.049941726
65	0xbc387363	-0.011257979
66	0x3e5103c3	0.20411591
67	0xbd245e59	-0.04012904
68	0xbd8607d7	-0.06544464
69	0xbc574127	-0.013138092
70	0x3d0946f6	0.03351494
71	0xbdbfb81c	-0.09361288
72	0x3def884f	0.11695921
73	0xbc0f70af	-0.008754893
74	0x3ca34e51	0.019934805
75	0x3e3fa059	0.18713512
76	0xbca6b658	-0.02035062
77	0xbd9a91ca	-0.07547338
78	0x3d67fa42	0.05663515
79	0x3da88a95	0.082295574
80	0x3c28db9e	0.010306267
81	0x3e387921	0.18014957
82	0x3db8831e	0.090093836
83	0x3e4096de	0.18807551
84	0x3ca7d8c9	0.020489113
85	0xbdba4e1c	-0.090969294
86	0xbd7eff20	-0.062255025
87	0xbcb8b6c4	-0.022548087
88	0x3e17a081	0.14807321
89	0x3e27f592	0.16402271
90	0x3e50c16f	0.20386289
91	0x3d070e77	0.03297278
92	0x3e241ec4	0.16027361
93	0xbdb86fd7	-0.09005707
94	0xbd15a7cc	-0.036536977
95	0x3d964d48	0.07338959
96	0xbc76d736	-0.015065959
97	0xbd2343fd	-0.03985976
98	0xbdf1978d	-0.11796484
99	0xbdcb60e2	-0.09930588
100	0xbbff0da2	-0.0077836076
101	0x3d9af238	0.07565731
102	0xbd3f7bb3	-0.04674883
103	0xbdda2d04	-0.10653117
104	0xbdbb1114	-0.09134117
105	0x3d2a8c27	0.041637566
106	0xbc8b3191	-0.016991409
107	0xbe01e813	-0.12686186
108	0x3d9b2ec1	0.07577277
109	0xbe0f8baf	-0.14018129
110	0xbdce9926	-0.100878045
111	0x3ddad2ba	0.10684724
112	0x3df87e7b	0.12133499
113	0xbde31b39	-0.11089177
114	0x3dcd506c	0.10025105
115	0x3d87f8e9	0.06639273
116	0x3dab4f06	0.08364682
117	0x3d93527e	0.071934685
118	0x3d966479	0.073433824
119	0x3ccde711	0.025134595
120	0xbd9ce9ce	-0.07661782
121	0x3dbf53ed	0.093421794
122	0x3d9fa77a	0.077956155
123	0xbd03b0d0	-0.032151043
124	0x3df8828c	0.12134275
125	0x3d574418	0.052555174
126	0x3d1f086d	0.038826395
127	0xbd9acf84	-0.07559112
128	0xbe15f47c	-0.14644045
129	0x3d889a05	0.06670002
130	0xbe03865c	-0.12844223
131	0x3c20352f	0.009778305
132	0xbdfbdc72	-0.12297906
133	0x3db6846a	0.08911975
134	0xbc5aa856	-0.0133457985
135	0xbe031656	-0.12801489
136	0x3d3f9262	0.04677046
137	0xbc2006e7	-0.009767271
138	0x3d13f1ad	0.03611915
139	0xbd49c04d	-0.049255658
140	0x3b54892a	0.003243039
141	0xbd667722	-0.056265958
142	0x3db877f5	0.09007255
143	0x3de9c5ef	0.11414706
144	0xbdba940b	-0.09110268
145	0x3db91abf	0.090383045
146	0x3da0aa57	0.0784499
147	0x3e324155	0.17407735
148	0x3d42cdf2	0.047559686
149	0x3db7cc87	0.08974557
150	0x3cf57044	0.029960759
151	0xbd0dc8b1	-0.034615222
152	0x3d6520d1	0.0559395
153	0x3ce1edba	0.027579177
154	0x3d9e5e28	0.07732803
155	0x3c702e6c	0.014659505
156	0xbd3ba378	-0.045810193
157	0x3d57248b	0.052525084
158	0xbd497c3d	-0.04919075
159	0xbdbf299c	-0.09334108
160	0x3e552fc1	0.20818998
161	0xbc2ed65a	-0.010671223
162	0x3e01f757	0.12692009
163	0xbdeb0a07	-0.11476522
164	0xbd0d8588	-0.034551173
165	0xbe000bb2	-0.12504461
166	0x3d7458ff	0.059655186
167	0x3cea65a6	0.028612923
168	0xbd3cf588	-0.046132594
169	0xbe0d80d5	-0.13818677
170	0xbc7dea57	-0.0154977655
171	0xbd3975bd	-0.0452783
172	0x3d68002e	0.056640796
173	0xbe390982	-0.18070033
174	0x3db5c570	0.08875549
175	0x3bddb73c	0.006766228
176	0x3d082160	0.033234954
177	0xbd979ad3	-0.07402577
178	0x3e416f0a	0.18890014
179	0xbc48059a	-0.012208367
180	0x3e6c6e1b	0.23088877
181	0xbe821c28	-0.25412107
182	0x3dcd0480	0.10010624
183	0x3c945efd	0.0181117
184	0x3d2b9ea2	0.04189933
185	0xbe63c474	-0.2224291
186	0x3e09fc54	0.13475162
187	0xbd92095f	-0.07130694
188	0x3e33776a	0.17526022
189	0x3e21aa3f	0.157876
190	0xbd61bf74	-0.055114225
191	0x3d29434b	0.04132394
192	0x3e1b5772	0.15170076
193	0x3d9f8b6c	0.077902645
194	0x3d5b2864	0.053505316
195	0x3e2dade3	0.16960864
196	0xbda372d7	-0.07980888
197	0xbd02834f	-0.031863507
198	0x3bd13d02	0.0063854465
199	0x3e2cb6eb	0.16866653
200	0x3d82b92e	0.063829765
201	0x3e357851	0.17721678
202	0xbe28f43d	-0.1649942
203	0x3e24e35a	0.16102353
204	0x3e410306	0.1884881
205	0x3d1c3319	0.038134668
206	0xbbfd6cd9	-0.007733923
207	0x3e0a0938	0.13480079
208	0x3e4b9e85	0.19884689
209	0xbe7f6404	-0.24940497
210	0x3e26f9bc	0.16306204
211	0xbc03bc4e	-0.008040501
212	0x3dc7ca3b	0.09755369
213	0xbdb6272f	-0.088941924
214	0x3e026bbe	0.12736413
215	0x3d549685	0.05190136
216	0xbd9ba5cc	-0.075999826
217	0x3d620bdb	0.055187088
218	0x3e0c07ef	0.13674901
219	0xbd536146	-0.05160644
220	0x3e2b5817	0.16732822
221	0xbe39b421	-0.1813512
222	0x3e2a5757	0.1663488
223	0xbd29de68	-0.04147187
224	0x3dbf3f32	0.093382254
225	0xbd4f379e	-0.05059015
226	0x3e2c0a2d	0.16800757
227	0x3cf8fbd9	0.030393528
228	0x3e1d2fb7	0.15350233
229	0x3b199570	0.002343502
230	0xbdebc2bb	-0.11511751
231	0xbdb13d0e	-0.086542234
232	0x3d30bc64	0.043148413
233	0x3d85863c	0.06519744
234	0x3e0efa61	0.139627
235	0x3c3de8e4	0.01159117
236	0x3d82a6e6	0.063794896
237	0x3c9ff158	0.019524261
238	0x3d020067	0.031738665
239	0x3dd0145a	0.10160132
240	0x3dd2d8e7	0.10295277
241	0x3de671e2	0.1125219
242	0xbdb53aec	-0.08849129
243	0x3d77686a	0.06040231
244	0x3e47a6ef	0.19497274
245	0x3e215a4a	0.15757099
246	0x3e324937	0.17410742
247	0x3dddafed	0.10824571
248	0x3de706e9	0.11280615
249	0xbd9e75c9	-0.077373095
250	0x3dd375f8	0.10325235
251	0xbdd2ef6a	-0.10299571
252	0x3df8ae1c	0.12142584
253	0x3e213ba6	0.1574541
254	0xbe0d0c93	-0.13774328
255	0xbd07e6c8	-0.033179075

conv2.bias f4 [8]
0	0x3d6e54fc	0.058186516
1	0x3e1f399c	0.1554932
2	0x3e0a0a9e	0.13480613
3	0xbb0b2e56	-0.0021237335
4	0xbc52651c	-0.012841489
5	0x3d47a112	0.048737593
6	0x3e6a3042	0.22869971
7	0x3d89ab17	0.06722086

conv3.weight f4 [16, 8, 3]
0	0x3da6ff60	0.08154178
1	0x3e3f2c4d	0.18669243
2	0x3de8a284	0.113591224
3	0xbe87b054	-0.26501715
4	0x3da016cc	0.07816848
5	0x3e23732f	0.15961908
6	0xbd0fa6a8	-0.035071045
7	0xbe3e6723	-0.18594031
8	0xbe1d2647	-0.15346633
9	0xbde64d5e	-0.11245225
10	0xbe1eba10	-0.15500665
11	0x3d17a3ad	0.037021328
12	0xbe80774d	-0.2509102
13	0xbebf41ea	-0.37354976
14	0x3e83f0fe	0.257698
15	0x3bf35aa4	0.0074265767
16	0x3e44fa45	0.19236095
17	0xbe3ddc59	-0.18541087
18	0x3c557dd9	0.013030493
19	0xbd1c2835	-0.038124282
20	0x3d30fa3f	0.043207403
21	0xbe418497	-0.18898235
22	0x3d5e162d	0.054220367
23	0x3b6bee32	0.003600013
24	0xbbfe7a2d	-0.0077660293
25	0x3da5b1fa	0.08090587
26	0x3dd33c5e	0.103142485
27	0xbd889417	-0.06668871
28	0xbd2b8288	-0.04187253
29	0xbd9e6285	-0.07733635
30	0x3dda0b22	0.10646655
31	0xbd8a35f8	-0.06748575
32	0xbe396fe4	-0.18109089
33	0xbe3a89a2	-0.18216565
34	0xbde91633	-0.11381187
35	0x3cc371d3	0.023857987
36	0xbd826e65	-0.06368712
37	0xbe3d205b	-0.18469374
38	0xbdd90989	-0.10597522
39	0xb9dc799d	-0.0004205228
40	0xbd955a61	-0.07292629
41	0xbde9b4f9	-0.11411471
42	0xbe219a40	-0.15781498
43	0x3dfc292c	0.123125404
44	0xbda07462	-0.07834698
45	0xbe16e94c	-0.14737433
46	0x3e1e5452	0.15461853
47	0xbe33f4e5	-0.17573889
48	0x3e048557	0.1294149
49	0xbc26b221	-0.010174305
50	0x3e21c2ad	0.15796919
51	0x3e6cebe2	0.23136857
52	0x3e36a34f	0.17835735
53	0x3d07c209	0.03314403
54	0x3db01de4	0.08599451
55	0xbe3b5565	-0.18294294
56	0xbdead4b2	-0.1146635
57	0x3e31f181	0.17377283
58	0xbd14d3d0	-0.036334813
59	0x3dc4ed5f	0.096155874
60	0x3c6ba6e5	0.0143830525
61	0xbd1c058c	-0.038091227
62	0x3e690a7c	0.22757906
63	0x3d2a1bed	0.04153054
64	0x3de842f9	0.11340899
65	0xbe6b7347	-0.22993194
66	0x3ec07587	0.37589666
67	0x3d8cddaf	0.0687822
68	0xbe55a17a	-0.2086238
69	0xbddc0314	-0.107427746
70	0xbd150480	-0.036381245
71	0x3e076ac8	0.13224328
72	0x3d67fc55	0.056637127
73	0x3e0e0dc6	0.13872442
74	0xbe5de61a	-0.21669808
75	0xbe4f5bfd	-0.20249934
76	0xbbd217b1	-0.0064115156
77	0x3e18f0b4	0.14935571
78	0x3d5d0690	0.053961337
79	0x3e152dfe	0.14568326
80	0xbd21e0b4	-0.039520934
81	0xbe4e9561	-0.20174171
82	0x3d0985c7	0.033574846
83	0xbd5d7648	-0.05406788
84	0xbe040cad	-0.1289546
85	0xbdc7bc04	-0.09752658
86	0xbd2fc13f	-0.042908903
87	0x3dbdfb5c	0.092764586
88	0xbd1d5db5	-0.038419444
89	0xbbcf4bab	-0.006326159
90	0x3e1e2fba	0.15447894
91	0xbda85ef0	-0.08221233
92	0x3d9000ce	0.070314035
93	0xbe523350	-0.20527387
94	0x3d2da4ff	0.04239368
95	0xbd97c88b	-0.074112974
96	0x3dcafb88	0.09911257
97	0xbc9f304d	-0.019432211
98	0xbd5779c3	-0.052606355
99	0x3d3e8fe7	0.046523955
100	0xbe3a8b51	-0.18217207
101	0xbd91250d	-0.07087145
102	0xbdfba98a	-0.122881964
103	0xbdbb2ef0	-0.09139812
104	0xbdb84f42	-0.08999492
105	0x3da4f4fd	0.0805454
106	0xbd26f52c	-0.040761158
107	0x3cb8d632	0.022563074
108	0xbcb7b5f1	-0.022425624
109	0xbc6f4bb6	-0.014605453
110	0xbdafcf99	-0.08584518
111	0x3e0f5a5c	0.13999313
112	0x3de8cb9e	0.11366962
113	0x3dcdbf52	0.10046257
114	0x3e64b1ac	0.22333401
115	0x3e8c22e1	0.2737036
116	0x3d55024d	0.052004147
117	0x3d3983b9	0.045291636
118	0x3c6a0583	0.014283541
119	0x3e4c4d29	0.1995131
120	0xbe579124	-0.2105146
121	0xbd9a619f	-0.07538151
122	0xbd237d66	-0.03991451
123	0x3d608eb3	0.05482359
124	0x3db2548e	0.08707534
125	0x3d016ac6	0.031595968
126	0xbd51365c	-0.05107723
127	0x3d48fc3f	0.049068686
128	0xbe23b8c4	-0.15988451
129	0xbdf53d83	-0.11974623
130	0xbe042e7f	-0.12908362
131	0xbc6aeeaa	-0.0143391285
132	0xbd18188e	-0.037132792
133	0xbd831985	-0.06401352
134	0x3cbdcfba	0.02317034
135	0x3d2c15ba	0.042012908
136	0xbe085822	-0.1331487
137	0xbe18483b	-0.14871304
138	0x3ca8cd1f	0.020605622
139	0x3e2f1497	0.17097698
140	0x3d5e0bcb	0.054210465
141	0xbe2bf770	-0.16793609
142	0xbe576eba	-0.21038333
143	0x3e1208fe	0.14261243
144	0xbe3ddafb	-0.18540566
145	0x3e3fee55	0.1874326
146	0xbd94dc3a	-0.072685674
147	0xbdfbc22e	-0.12292896
148	0x3de5b6c2	0.11216499
149	0x3e6bce38	0.23027885
150	0x3dcb890e	0.099382505
151	0x3bc983f7	0.0061497646
152	0xbc09bd23	-0.00840691
153	0xbe3d3996	-0.18478999
154	0x3e04569f	0.12923668
155	0x3c963a92	0.018338475
156	0xbda20cdd	-0.0791261
157	0x3df09351	0.117468484
158	0xbe0f9bc8	-0.1402427
159	0xbe819d72	-0.25315434
160	0x3e205245	0.15656383
161	0xbd8cfc06	-0.06884007
162	0xbe30852d	-0.17238303
163	0xbe837d46	-0.25681514
164	0x3d3fbe14	0.046812132
165	0x3da0ffc9	0.07861287
166	0x3e403a8e	0.18772337
167	0x3e622ed9	0.22088183
168	0xbe4ca07c	-0.19983095
169	0xbe49f8af	-0.19723772
170	0xbd8b5a4f	-0.06804334
171	0x3c50e350	0.012749508
172	0x3d6471ea	0.0557727
173	0xbe0aea1c	-0.13565868
174	0xbda799cd	-0.08183632
175	0xbe3030e8	-0.17206156
176	0xbe26f186	-0.16303071
177	0x3e016ac6	0.12638387
178	0x3d2608b4	0.040535644
179	0x3de6832f	0.1125549
180	0xbe0d316b	-0.13788383
181	0xbe55660e	-0.20839712
182	0x3d906d08	0.07052046
183	0xbe49be4b	-0.19701497
184	0x3dbb7e21	0.091549166
185	0x3dff59c4	0.12468293
186	0xbda611eb	-0.08108886
187	0xbe178c74	-0.14799672
188	0xbcdbe61f	-0.026843129
189	0x3e159ed2	0.14611366
190	0xbdea7fee	-0.11450182
191	0xbc39007c	-0.011291619
192	0x3e12b91e	0.14328429
193	0x3e48a492	0.19594029
194	0x3e560092	0.20898655
195	0x3df00cf5	0.11721221
196	0x3e4f9665	0.20272215
197	0x3e3c0c10	0.18363976
198	0xbd9f4d48	-0.07778412
199	0xbe44d8bc	-0.19223303
200	0xbe3fdbea	-0.18736234
201	0xbd1d7800	-0.03844452
202	0xbda5e983	-0.081011795
203	0x3e223061	0.15838768
204	0xbd9db6fa	-0.07700916
205	0x3d8c5188	0.06851488
206	0x3c80495a	0.015659977
207	0x3dea937d	0.114539124
208	0x3dfcd679	0.12345595
209	0xbe1d5fff	-0.15368651
210	0x3e8ca60c	0.27470434
211	0x3dfb7565	0.122782506
212	0xbdab0ac7	-0.08351665
213	0xbd89e908	-0.067339
214	0xbdd57bf8	-0.10424036
215	0x3e343e94	0.17601997
216	0xbe026b55	-0.12736256
217	0x3d86be3d	0.06579254
218	0xbe2f7461	-0.17134239
219	0xbc9a3d7e	-0.01882815
220	0xbcd3b9fc	-0.02584552
221	0x3d4f7fe0	0.05065906
222	0x3e3bda7b	0.18345062
223	0x3d7c900d	0.061660815
224	0x3e2b3cc8	0.16722405
225	0xbe56b15e	-0.20966098
226	0xbe5379e2	-0.20651963
227	0x3ba20155	0.0049440064
228	0x3e04cf34	0.12969667
229	0x3d9029d4	0.07039228
230	0xbdc17cef	-0.09447657
231	0xbde888a6	-0.113541886
232	0x3db0d766	0.08634834
233	0xbda40474	-0.08008662
234	0x3d4fd6eb	0.05074207
235	0x3e1f5dec	0.15563172
236	0x3ceda2aa	0.029008228
237	0xbdb59de2	-0.088680044
238	0xbcefe382	-0.029283289
239	0x3e176037	0.14782797
240	0x3e010128	0.12598097
241	0x3dbdea9a	0.09273262
242	0x3e3e57ae	0.18588135
243	0x3d4f9707	0.05068114
244	0x3d96181a	0.07328816
245	0x3e4f9ff9	0.20275868
246	0xbe1414ce	-0.14461061
247	0x3e040c1b	0.12895243
248	0xbe1b82e0	-0.15186644
249	0xbd94a01b	-0.072571
250	0x3df3da34	0.11906853
251	0x3d995d54	0.07488504
252	0xbdaa7fa5	-0.083251275
253	0x3e1f308b	0.15545861
254	0x3e585332	0.21125486
255	0x3d95c3ca	0.073127344

conv3.bias f4 [16]
0	0x3b318d5d	0.0027092316
1	0x3df89770	0.121382594
2	0xbd186c56	-0.037212692
3	0xbd801f39	-0.06255955
4	0x3d99194f	0.0747553
5	0xbe3ed8c2	-0.18637374
6	0xbe45201e	-0.19250533
7	0xbe5297a6	-0.20565662
8	0x3e1cd907	0.15317164
9	0xbb9d75d6	-0.004805307
10	0x3cd3dd68	0.02586241
11	0xbc0c7217	-0.008572123
12	0x3e8ec424	0.27884018
13	0x3e3cf58a	0.1845304
14	0xbd4f8251	-0.05066139
15	0xbe479cff	-0.19493483

conv4.weight f4 [1, 16, 3]
0	0xbccdc195	-0.025116721
1	0x3e46ecf9	0.19426335
2	0x3c1e9df2	0.009681212
3	0x3d9df7d6	0.077132866
4	0xbe08a30f	-0.13343452
5	0x3c7f279b	0.0155734075
6	0x3d354902	0.04425908
7	0x3e253dc2	0.1613684
8	0xbd9c684f	-0.07637083
9	0xbdcf8caa	-0.101342514
10	0xbda50675	-0.08057872
11	0xbd6a9c6a	-0.057278074
12	0x3e3c78e6	0.18405494
13	0x3ccb97e5	0.024852702
14	0xbe16d10b	-0.14728181
15	0x3b765b6c	0.0037591113
16	0xbb056071	-0.0020351673
17	0xbd0bc624	-0.03412451
18	0xbe09f4e1	-0.1347232
19	0x3d92a037	0.07159465
20	0x3deb3078	0.11483854
21	0x3e0a791e	0.13522765
22	0xbdfee778	-0.12446493
23	0x3c87ce20	0.01657778
24	0x3e3ff2e5	0.18745
25	0x3e01214c	0.12610358
26	0x3d9753fc	0.073890656
27	0xbdf97ff7	-0.121826105
28	0xbd98fa9e	-0.074696764
29	0x3e25d64e	0.16195032
30	0x3ddf4644	0.10902074
31	0x3e46ca37	0.19413076
32	0x3e3aaed4	0.18230754
33	0x3da9bb90	0.08287728
34	0x3d9fb23b	0.07797667
35	0xbdd4f8dd	-0.103990294
36	0x3db35657	0.087567024
37	0xba696dd0	-0.0008904608
38	0x3d51aaf2	0.051188417
39	0x3d9940f8	0.07483095
40	0x3d35ee67	0.04441681
41	0x3e3964da	0.18104878
42	0x3e168d20	0.14702272
43	0x3dca2985	0.098712005
44	0xbdace3b9	-0.08441872
45	0xbdd68d46	-0.104761645
46	0xbdb92c06	-0.090416
47	0xbdf4f8cb	-0.11961516
