Weight_Files/PredictionDecoder(Velocity)_trained_on_1D/vae_net_prediction_decoder_velocity.pth (torch_old, 42176 bytes, 9 tensors)

fc_lat.weight f4 [400, 4]
000000 10 2b e3 3e 94 24 8d 3e 74 d8 fb 3e 2d b8 86 be
       0.44368792 0.2756697 0.49188578 -0.2631239
000010 e0 7e 12 3e 32 39 f3 3e 50 a4 eb 3d 94 83 2f 3e
       0.14306211 0.47504574 0.115059495 0.17140037
000020 78 9a c5 3e cf 90 07 3e e3 9d 86 3d 60 97 1e 3e
       0.38594413 0.13238834 0.06573083 0.15487432
000030 94 e4 49 be 00 10 58 bb 92 1a cb be 64 62 ce 3e
       -0.19716102 -0.003296852 -0.3966871 0.4030944
000040 c3 b0 08 3d 59 05 ff 3c 21 39 13 bf c9 be 80 3d
       0.033371698 0.03113048 -0.57509047 0.062863894
000050 da 1f c9 be 93 5b bb 3d c1 dc 96 be cd 31 cb bd
       -0.39282113 0.09148326 -0.29465297 -0.09921608
000060 86 06 87 3e 2a 89 e2 3d 7e cf 4f 3e 77 f7 9f 3e
       0.26372164 0.11061318 0.20293996 0.31243488
000070 bd 1a 3d bc 07 ae c3 be bf 43 c4 3e 99 90 12 bf
       -0.011542019 -0.3821871 0.38332936 -0.5725189
000080 6e 9e d7 3e a0 1b 71 3e ae 81 dc be 64 18 a2 bc
       0.4211306 0.23545694 -0.43067688 -0.019787021
000090 35 8d 33 be ec 72 ff be e4 4a 88 bd 04 fc f3 be
       -0.17534335 -0.49892366 -0.06654909 -0.4765321
0000a0 64 67 9b 3d f7 ad 03 bf aa 4c 01 be 78 ad f8 be
       0.075880796 -0.51437324 -0.12626901 -0.48569846
0000b0 a2 40 c0 be d4 5c 11 be f2 2c f7 3e 94 3b f2 3e
       -0.3754931 -0.14195567 0.48276478 0.4731108
0000c0 3e a6 bc 3d 82 fd e3 3d 22 26 d1 bc d3 8f d2 bd
       0.09211396 0.11132337 -0.025530878 -0.102813385
0000d0 00 b5 f9 be bc fb f2 3e 7a 28 c7 3e 80 45 a9 3e
       -0.48770905 0.47457683 0.3889807 0.33060837
0000e0 bc 8a cf 3e d0 c4 dc 3e 30 5a f4 bd d8 8d 8d 3e
       0.40535533 0.43118906 -0.119312644 0.2764728
0000f0 97 b9 d4 be 46 28 ed 3e f3 f5 d4 3e 2d 41 a2 be
       -0.41547844 0.4631979 0.41593894 -0.3169035
000100 31 2d a9 3e 5f b5 db be 85 72 69 be c3 35 74 be
       0.3304229 -0.42911813 -0.22797592 -0.23848633
000110 38 8d 04 be d6 60 d6 3e 8c 40 3e 3e 48 35 11 3e
       -0.12944496 0.41870755 0.1857931 0.14180481
000120 4b ff f0 be a2 ba d8 3e 2f d9 1b 3d 05 df 6b be
       -0.47069773 0.4232989 0.03804892 -0.23034294
000130 f0 d9 17 3f 75 c7 96 3e c9 78 87 3e c5 26 67 be
       0.5931692 0.2944905 0.2645934 -0.22573383
000140 c9 d6 f1 bd 31 6f b6 be 90 b1 d0 3d 29 b4 2f be
       -0.11808545 -0.35631707 0.10190117 -0.1715857
000150 59 9f 34 3e b3 a4 b2 be 78 47 b8 3e 78 11 06 bc
       0.17638911 -0.3489128 0.35992026 -0.008182876
000160 f0 a5 1d 3e 50 97 6a bd 90 b3 d5 be f2 fa e3 3e
       0.15395331 -0.05727321 -0.41738558 0.44527394
000170 17 d5 59 be d5 b5 ec be 9e 2b 92 bd 01 e1 40 3e
       -0.21272694 -0.46232477 -0.071372256 0.18835832
000180 78 2b a8 be 0c 4a 27 3e e2 74 e8 3e 08 ae 8c bd
       -0.32845664 0.1633684 0.45401675 -0.06869131
000190 b4 f9 34 3e 78 c7 f2 3e c8 9c 48 be e6 b1 b7 3e
       0.17673379 0.47417808 -0.19591057 0.35877913
0001a0 3e b8 06 be 62 cc 09 be 1e 94 cb be 06 05 72 3e
       -0.1315622 -0.13456872 -0.39761442 0.23634729
0001b0 09 99 cd be 52 64 0b 3d 04 2d e2 3e e1 5f ac be
       -0.4015582 0.03403122 0.4417497 -0.336669
0001c0 10 9d 4b be 96 ee c4 3e 24 20 60 3e 76 a0 df 3e
       -0.19884133 0.38463277 0.2188726 0.4367711
0001d0 e8 3b f9 be 94 f1 2e bd 99 41 ab 3e 32 c7 9b be
       -0.48678517 -0.042710856 0.33448485 -0.3042541
0001e0 57 be e3 be e1 75 05 bf 20 26 a7 3e 9b 98 67 bd
       -0.44481155 -0.52132994 0.32646275 -0.05654202
0001f0 29 df 37 be ff 28 b0 be 33 83 81 be 9b b6 73 bc
       -0.17956223 -0.34406278 -0.2529541 -0.0148750795
000200 94 1c 6a be 36 3a fb 3e 40 97 d7 3d 00 80 f1 bd
       -0.22862464 0.4906785 0.105268955 -0.11791992
000210 76 7a e0 3e 50 ea 76 bd 00 f4 cd be 3e ab e0 3e
       0.4384343 -0.06028205 -0.4022522 0.43880647
000220 78 b3 04 be 16 04 c6 3e 3a ee ab be 80 86 e0 3d
       -0.12959087 0.38674992 -0.3358019 0.10963154
000230 ec bf f0 3d f0 2b 15 bf 9e c8 e8 bc 3c 64 37 3e
       0.11755356 -0.5827017 -0.028415974 0.1790933
000240 65 7d 9a 3e 25 38 8b be d5 0d 12 3f 14 7a c3 3e
       0.30173793 -0.27191272 0.57052356 0.38179076
000250 7e 72 33 be 60 6c b9 be b6 3b ae 3e 72 d4 0f bf
       -0.17524144 -0.36215496 0.3402993 -0.5618354
000260 28 ec 1f be 00 59 a7 3b 10 a6 71 bd 74 e2 de 3e
       -0.1561743 0.005107045 -0.05899626 0.43532145
000270 c7 98 f0 be e9 17 1c 3e f3 9d c8 be dc f9 05 bf
       -0.4699156 0.15243496 -0.39183006 -0.5233438
000280 09 1e 66 3e d9 cf b6 3d f5 c8 88 be d3 ae 14 bf
       0.22472395 0.089263625 -0.26715818 -0.5807926
000290 54 f2 19 be 64 ef 02 3e 20 d2 7f 3e f0 eb c8 bd
       -0.15033847 0.12786633 0.249825 -0.098106265
0002a0 03 49 99 3e 7d 0f 84 be a4 59 c5 3d d3 af cc be
       0.29938516 -0.25793067 0.09636238 -0.39977893
0002b0 c0 f5 69 bd ca c7 a2 3e 38 01 8b be 68 00 d0 3e
       -0.05711913 0.31793052 -0.27149367 0.4062531
0002c0 ba 0a e8 be 10 f9 cd 3d d0 8f a8 3e fc 95 f1 3e
       -0.45320684 0.100572705 0.3292222 0.47184741
0002d0 1a dd e5 3e 6c ca fa 3e 68 b9 1a 3e 30 43 1d 3d
       0.4489525 0.4898256 0.1510979 0.038394153
0002e0 a4 f5 35 3e 5a e7 a7 be 2e 69 89 3e c9 ca cf be
       0.17769486 -0.32793695 0.26838058 -0.405844
0002f0 6f f6 70 be ae 13 d9 be e4 c9 ee 3e 61 b0 17 3e
       -0.23531507 -0.42397827 0.46638405 0.14813377
000300 e8 12 48 be 56 d4 95 be 50 d2 03 3e 3c 07 c1 be
       -0.19538462 -0.29263562 0.12873197 -0.37700832
000310 35 28 1d be 20 1e 0f 3e d8 c4 d7 3e fb d4 bd be
       -0.15347369 0.13976336 0.42142367 -0.37076554
000320 d8 d7 51 be 88 cb b5 3e 1a d1 ff 3e 1c 3f 0d 3e
       -0.20492494 0.35506845 0.4996422 0.13793606
000330 37 9d 0c bf c0 fe c4 be 13 69 80 be 05 ab bb 3e
       -0.5492739 -0.3847561 -0.25080165 0.36653915
000340 e4 8d b3 be b8 f3 d6 be b3 f1 99 be ec ce 80 be
       -0.3506919 -0.41982818 -0.30067214 -0.2515787
000350 f0 53 8b 3d 8a 84 d2 3e 14 f2 8d be 6e e8 cd 3e
       0.06803119 0.41116744 -0.27723753 0.40216392
000360 d2 e8 6d be fa 21 0d bf 5a 8f cd be a5 74 b0 3e
       -0.23233345 -0.5512997 -0.4014843 0.34463993
000370 ee 52 04 bf bd 9b 43 bc 51 40 bb bd 7f bd 70 3d
       -0.5168904 -0.011938986 -0.09143127 0.058774468
000380 90 4b 74 3d c8 6b c1 3e fc b0 11 be 34 f0 97 3e
       0.059642375 0.37777543 -0.1422767 0.29675448
000390 e1 89 15 3e 02 ae 9e bd b4 6a 94 bd e4 9b a6 be
       0.14603378 -0.07748033 -0.072469145 -0.3254081
0003a0 86 78 cf be 24 af ae 3e de f7 81 3e de eb e2 3e
       -0.4052164 0.34117997 0.2538442 0.44320577
0003b0 5b a2 b5 3e 4b 2b 83 be fb 6e cf 3e b3 9d c2 3e
       0.3547543 -0.25618967 0.4051436 0.3801094
0003c0 7c 9f cc 3e 6e 8a 0a bd 1f 10 a7 3d 15 17 b5 be
       0.39965427 -0.033823423 0.08157372 -0.35369173
0003d0 30 8b b2 3e b9 40 80 be df 09 1f 3f d6 4f a9 3e
       0.34871817 -0.2504938 0.6212444 0.33068722
0003e0 8f 30 93 3d 61 72 51 be ce 0d 44 be 6d d6 fe 3b
       0.07186996 -0.20453788 -0.19145891 0.0077770264
0003f0 dc da ca 3e 0d 53 77 3d 39 e6 c9 3d 88 ba 9d be
       0.396201 0.060381938 0.098583646 -0.30806375

fc_lat.bias f4 [400]
000000 0d 09 cf bd e8 08 77 be 38 d7 ad 3e 80 b2 5e be
       -0.10109148 -0.24124491 0.3395326 -0.2174778
000010 f4 22 99 3b 4f c2 69 be ac 1a a3 3e b7 61 2f 3e
       0.004673356 -0.22828029 0.31856287 0.17127119
000020 06 22 d6 3e c0 6a b9 3d 70 19 22 be 80 9a 38 3c
       0.41822833 0.09053564 -0.15830016 0.011267304
000030 55 9c 92 bc de bf dd be 86 92 b5 be ba b0 c7 3e
       -0.01789681 -0.43310446 -0.3546335 0.3900202
000040 83 d9 d3 3d da 37 95 be 65 6c 20 3e 4c 21 bf 3e
       0.103442214 -0.29144174 0.15666349 0.3733009
000050 51 57 64 3d 1e b5 da 3e c4 07 a6 be 65 10 21 3e
       0.055747334 0.42716306 -0.324278 0.1572891
000060 50 90 3e bd b6 a3 a0 be cd b1 83 3e be 9b cc 3e
       -0.046524346 -0.31374902 0.2572159 0.39962572
000070 c8 ad cc 3d 89 be 50 be c0 8f 88 bd e5 eb 0b 3f
       0.09994084 -0.20385183 -0.06668043 0.5465682
000080 ca 85 87 be 32 d6 cd be 04 0c 00 be 8e bb 33 3e
       -0.2646926 -0.4020248 -0.12504584 0.17552015
000090 71 6d fa 3e 64 8e 0a be e2 ca 80 be cc 5f aa bd
       0.48911622 -0.1353088 -0.25154787 -0.08319053
0000a0 2a 0c e7 bc 80 95 84 be c2 e0 57 be 3a c4 9a be
       -0.028204042 -0.2589531 -0.21081832 -0.30227834
0000b0 50 f0 bc be e0 6a ad bc d1 2f b0 3e fa ae 25 3e
       -0.36902094 -0.021169126 0.3441148 0.1618003
0000c0 39 e4 8a be f0 cc 5f bd b8 d7 f2 bd 89 27 a0 be
       -0.27127245 -0.054638803 -0.11857551 -0.31280163
0000d0 be 7c 98 be c6 3f 97 3e 74 a3 03 3e 00 71 c1 3c
       -0.2978267 0.29540843 0.12855321 0.023613453
0000e0 82 af 9a be 7a 0b cd 3e da 8e d6 3e 8c 5f b0 3e
       -0.30212027 0.40047818 0.41905862 0.34447896
0000f0 23 ae 23 be 4a fd 9d 3e a7 0c ff 3e 0c 9e 18 3f
       -0.15984397 0.30857307 0.4981434 0.5961616
000100 d8 39 ed bd a7 39 76 3b 70 4d 02 3f b4 50 aa 3e
       -0.115832984 0.0037570985 0.5089941 0.33264697
000110 2c 77 18 be b2 a9 0f be bb 40 9e be 26 f3 5a 3d
       -0.1488921 -0.14029577 -0.3090876 0.05345454
000120 7d 20 be be 20 3a 99 3c 07 b4 7d 3e 22 69 fe 3e
       -0.37134162 0.018704474 0.24775706 0.49689585
000130 3d 36 01 3f f7 66 0e 3f e6 90 53 be 7e 80 f1 3e
       0.50473386 0.5562586 -0.20660743 0.47168344
000140 42 ad 86 3e e8 20 b2 3d 64 2c df bc 7b 5e d9 3e
       0.2630406 0.086976826 -0.027242847 0.42454895
000150 e0 fb 8a 3e 19 04 04 3f a8 84 19 3e f8 d7 85 3d
       0.2714529 0.5156875 0.1499201 0.065353334
000160 be 5f b4 be 03 0b dc 3d 9a 95 c4 be bd 46 08 3f
       -0.35229295 0.10744288 -0.38395387 0.5323294
000170 b9 59 d7 be c5 01 98 bd 2c 7c 0e 3d ca 96 03 3f
       -0.4206064 -0.074222125 0.03478639 0.5140196
000180 36 f5 f2 3e 7e 63 31 3d b0 62 a2 3e d3 f3 34 be
       0.47452706 0.043307774 0.31715918 -0.17671137
000190 38 48 33 be 4d 68 29 3e b2 f8 6d bd 3f bf f3 3e
       -0.17508018 0.16543694 -0.058098502 0.47606847
0001a0 fc 4c b9 3d fc 22 8f 3d 93 1a 08 3f 17 27 e4 3d
       0.09047887 0.069890946 0.5316555 0.11140268
0001b0 5b d2 70 3e 78 96 02 3f 10 e8 ba 3e fa 42 9b 3e
       0.23517744 0.5101085 0.36505175 0.30324537
0001c0 2e 9e 02 3f a1 b4 3a be 0b c3 01 3f 20 7b a8 3c
       0.51022613 -0.18232967 0.50688237 0.020566523
0001d0 52 05 fa bd ec 15 6a 3e e7 09 10 be 34 49 71 3e
       -0.12208046 0.22859925 -0.14066277 0.23563081
0001e0 5d b4 88 bd 77 e6 94 3e 4b e4 16 3e 66 44 8d be
       -0.066750266 0.2908208 0.14735524 -0.27591246
0001f0 de fb bc be 6f 36 11 be b4 dc 31 be 4c 02 8d be
       -0.3691091 -0.14180921 -0.17369348 -0.27540815
000200 2c 3b 57 be 17 df 13 be 7b 10 84 3e 00 56 32 3d
       -0.21018666 -0.14440571 0.25793824 0.043539047
000210 86 1c ad 3e 42 23 59 3c 7f 27 52 be a0 9a 10 be
       0.33810824 0.013253035 -0.20522879 -0.14121485
000220 6f f1 ad 3e 10 f4 4b be df 71 93 be 7a 5e 7a 3e
       0.33973262 -0.19917321 -0.28797814 0.24450102
000230 e1 cb 76 be a7 3f a8 3e a4 1b f0 3e ae 52 6e 3d
       -0.24101211 0.32861063 0.46896088 0.05818432
000240 40 38 93 bd 2e 0d 95 be 40 cf 9c bd 93 98 02 bd
       -0.07188463 -0.29111618 -0.07656717 -0.031883787
000250 98 bb d2 bd 37 0e 92 3e c4 6c be 3e 88 83 24 be
       -0.10289687 0.2852647 0.37192357 -0.160658
000260 69 e3 fc 3e 3b 00 c1 be da 09 57 3e 73 ef ea 3e
       0.4939225 -0.37695488 0.20999852 0.4588581
000270 14 33 8f 3e 20 07 b0 3d 86 06 87 be d8 b5 f6 3d
       0.27968657 0.08595109 -0.26372164 0.12046403
000280 68 9c 2e 3e 04 b8 44 3e e8 a9 e8 be 0f 3a ac bc
       0.17051852 0.19210821 -0.45442128 -0.021023778
000290 2a 5e 80 be be 8a 9e 3e fa f0 09 3f 89 2a f0 3d
       -0.2507184 0.30965227 0.53883326 0.11726863
0002a0 fe fc 58 bc 85 7b e8 3e f2 6d b5 3e 86 18 ab bd
       -0.013243912 0.45406738 0.35435444 -0.08354287
0002b0 28 7a 4c be 29 17 22 be 85 11 9b be 9f 61 99 3e
       -0.19968474 -0.15829147 -0.30286804 0.2995729
0002c0 db 70 af 3e 56 eb fa 3e e9 57 06 b9 e0 b6 d4 3e
       0.3426579 0.49007672 -0.00012811985 0.41545773
0002d0 13 60 12 3f 2e 03 b7 3e d9 a3 93 be 36 e6 ca 3e
       0.5717785 0.35744613 -0.28835943 0.39628762
0002e0 b8 48 2e 3e f0 01 df 3e 44 95 64 bd 8a 97 b6 be
       0.17019928 0.43556166 -0.055806413 -0.3566249
0002f0 8e b2 ca bc 15 7f fc bc e9 07 e6 be 58 82 eb 3d
       -0.024743345 -0.030822316 -0.4492791 0.114994705
000300 ec 73 7d be 0b 58 75 be 56 90 b2 be 70 9d 6f 3d
       -0.24751252 -0.23959367 -0.34875745 0.058499753
000310 65 23 a3 3d b0 9e 9b 3e 35 ef 03 3f 39 bd 16 3f
       0.07965735 0.30394506 0.51536876 0.5888248
000320 40 cc 29 3d a4 fc 0a 3f c2 ba b5 3e 41 23 d2 3e
       0.041454554 0.5429175 0.35494047 0.41042522
000330 5d 86 6d be 3a fa af be 90 ad 8b 3c d0 03 21 3e
       -0.23195787 -0.34370595 0.017050534 0.1572411
000340 1f 34 c5 3e 45 d1 df bd f4 de 6b be 30 1d 0a bd
       0.38516328 -0.10928587 -0.23034269 -0.03371924
000350 74 b1 5b be a8 74 95 bd b1 a9 5b 3e 48 af 5e 3e
       -0.21454412 -0.07297641 0.21451451 0.21746552
000360 e1 ac fa bd 86 d7 f2 3e eb 02 34 be 13 ba 5c be
       -0.12240005 0.47430056 -0.17579238 -0.21555357
000370 d7 56 8a 3e 87 f1 b1 be ff 9a 34 3c b0 3e a2 be
       0.2701938 -0.34754583 0.011023282 -0.31688452
000380 17 07 14 3e 60 9e 6f be 04 ac 82 be 64 6f b9 be
       0.1445583 -0.23400259 -0.25521863 -0.36217797
000390 6c 8e eb 3d ee d3 cc be 8d 77 23 3e 74 7e c9 3e
       0.11501774 -0.4000544 0.15963574 0.3935429
0003a0 6c 2b 57 be ec 83 3e be 90 d8 1a 3d af a8 4a 3e
       -0.21012658 -0.18605012 0.037804186 0.1979091
0003b0 d0 20 94 bd ae 19 ba be 2d 60 52 bd a4 24 6d be
       -0.07232821 -0.36347717 -0.05136125 -0.23158509
0003c0 2e 9a c7 be bd b5 10 3e 3e 75 e4 3e df a6 c0 3d
       -0.38984817 0.14131828 0.446207 0.09406828
0003d0 93 78 56 bd 1d 98 59 be 84 3e 34 3e ec 46 9d be
       -0.052361082 -0.21249433 0.17601973 -0.30718172
0003e0 2c 6b 10 be 7e 57 d3 be 8a ec b8 3e 4e d0 3c 3e
       -0.14103383 -0.4127769 0.36117965 0.18438837
0003f0 74 c1 aa be 4d 9b 90 bd 06 78 af 3d 82 79 ad be
       -0.33350718 -0.07060871 0.085678145 -0.33881766

fc1.weight f4 [20, 400]
000000 f7 fd a1 bc 51 da 2d 3d cd bc 17 bd ca 5d 36 bd
       -0.01977442 0.04244453 -0.03704529 -0.044523038
000010 d1 df 28 3d 5a ae 11 3c 03 85 14 bd a7 6b c0 bc
       0.041229073 0.008891666 -0.036259662 -0.023488833
000020 c1 45 26 3d 12 49 2a bd 15 6a 28 bd d0 e8 2e 3b
       0.040593866 -0.04157359 -0.041116793 0.002668906
000030 6e 95 17 3d 47 5b 14 3d c3 dd e3 bc 47 ad bd bc
       0.03700774 0.03621986 -0.027815705 -0.023153914
000040 19 22 7f bc 77 6f 44 bd 50 2a 45 bd c0 c0 8c bb
       -0.015572094 -0.047957864 -0.048136055 -0.0042954385
000050 15 95 a2 3c 83 a0 da 3c 4d e6 f3 bc be f7 e0 3c
       0.019846478 0.026687866 -0.029772902 0.027461883
000060 4a cc 0f bd d1 d9 46 3d 1a c8 a5 3c ae 28 f7 bc
       -0.035106935 0.04854757 0.020237017 -0.030170765
000070 96 c6 8a bc 82 02 02 bd 1b 48 18 bc a4 9e 02 3d
       -0.016940396 -0.031740673 -0.009294535 0.031889573
000080 40 ef cf 3b 00 57 bc b9 84 25 6f 3c cd 08 32 3d
       0.0063456595 -0.00035922974 0.014596347 0.043465424
000090 85 a9 fd bc 8a 5b 1a 3d ca b7 a6 bc 1a 37 7b bc
       -0.030964622 0.037684955 -0.02035131 -0.015332961
0000a0 b7 a4 1f 3d c9 09 1e 3d e4 25 85 3c d0 20 99 bc
       0.038975444 0.03858355 0.01625342 -0.018692404
0000b0 93 22 cc bc 74 f8 12 3c d4 a5 00 bd b4 a8 fb 3c
       -0.02491883 0.008970369 -0.031408146 0.030720092
0000c0 70 80 2b 3c 22 63 1b 3c 25 c9 2c 3d d5 ba 2b 3d
       0.010467634 0.009484084 0.042184014 0.041926224
0000d0 e4 5d 0b bd 7a 8b fd bc 83 92 f0 bc 31 c8 7a 3c
       -0.034025088 -0.030950297 -0.029366737 0.015306518
0000e0 7d 45 a3 bc 5e c2 80 3c e2 77 30 bd f5 8b 16 bd
       -0.019930596 0.015717681 -0.04308308 -0.036754567
0000f0 ab 61 d1 3c 4b 77 6e bc 2d d2 13 bc b9 5b 03 bd
       0.025559267 -0.014554809 -0.009022278 -0.032069895
000100 c2 82 a3 3c ac 6f d6 3c c9 29 44 bd b4 a8 0a bd
       0.019959811 0.026176296 -0.047891412 -0.033852294
000110 22 96 9c 3c 33 09 d8 3a b0 8f 25 3d d6 1b b4 3c
       0.019114558 0.0016482234 0.040420234 0.02198593
000120 20 87 b4 bb 02 07 13 bd 3c d3 03 bd 18 c7 10 bd
       -0.005509272 -0.035895355 -0.03218387 -0.03534612
000130 f6 c9 22 3d ed ba 34 3d fb 3e 45 bc 60 3e f4 bc
       0.039743386 0.04412358 -0.0120389415 -0.029814899
000140 7d 9d 1d 3d dd d4 4a bd 21 fb e6 bc 51 75 05 bc
       0.03848027 -0.04951941 -0.02819592 -0.008145646
000150 9a fa 86 bb 64 b5 70 3b 92 e5 8f 3c 92 49 bb 3c
       -0.0041192295 0.003672921 0.017565522 0.02286223
000160 8e 30 ff 3c 29 5f 47 bd be 68 dd 3b 9f 30 9b 3b
       0.031151082 -0.048674736 0.006756871 0.0047360207
000170 68 42 c9 3b f6 4d 77 3b b6 83 9e bc 00 1b fe 39
       0.0061419494 0.0037735677 -0.019349914 0.00048466772
000180 05 34 12 3d 9b 37 2d 3d 20 02 67 bb c0 85 27 bd
       0.03569414 0.042289358 -0.003524907 -0.04089904
000190 a0 a1 84 3a 25 88 eb 3c 30 1d c5 3c 90 c2 55 3c
       0.0010118969 0.028751442 0.02406177 0.013046876
0001a0 da 34 a9 bc db 80 af bc fd 5c f9 bc e1 14 f8 bb
       -0.020655084 -0.021423748 -0.030439848 -0.0075708483
0001b0 62 56 0a 3d ea e4 bc bc ce 7d 35 3d ce be 29 bd
       0.033773787 -0.023058373 0.04430943 -0.04144173
0001c0 77 da 5b 3c d0 62 0c bd ba 11 bf 3c 4f bc 14 3d
       0.013418785 -0.034273922 0.023323882 0.036312398
0001d0 9d fe 87 3c 16 b0 f5 3c 95 5d 7c 3c 22 0b 0e 3d
       0.016600901 0.02999119 0.015403171 0.034678586
0001e0 05 31 24 bd eb b0 2b bc 82 b9 33 bc be cb 9f 3c
       -0.04008581 -0.010479192 -0.0109695215 0.019506332
0001f0 55 6e 29 3d 3a dc 02 bd cc 90 95 3c 8f 75 3e 3d
       0.041364986 -0.031948306 0.018257521 0.04649883
000200 81 10 aa 3c 6f 8e e3 bc 84 3d 60 3c 67 ff a4 3c
       0.020759823 -0.027777879 0.0136865415 0.020141317
000210 5f 6c 38 bd 5b 0f 2e 3b 3d 0b 36 bd 4b 15 35 bb
       -0.045025226 0.0026559446 -0.04444431 -0.00276311
000220 c2 f4 2b 3b 47 b6 39 bd ef 0a 41 3d 1b 8d 11 bb
       0.0026238416 -0.04533985 0.047129568 -0.002220935
000230 32 ac c3 bc 09 eb 9a bb 46 14 f6 bc 04 cb 1e bd
       -0.02388582 -0.0047277254 -0.030038964 -0.03876783
000240 50 df bb 3b c0 e3 87 3b c6 07 d6 ba ff 0c 72 3c
       0.005733408 0.004147023 -0.0016329221 0.014773606
000250 b8 1b 14 bc b0 9d 48 bd 18 fb 28 bc f3 89 38 bd
       -0.009039812 -0.048978508 -0.010313772 -0.045053434
000260 b8 f5 1c 3d 84 77 2f bc 5e 94 a2 bc df 78 be bc
       0.038320273 -0.010709647 -0.019846138 -0.023250995
000270 72 2c be 3c 00 b9 54 bb d4 48 13 bc cf ea 37 bd
       0.023214553 -0.0032458901 -0.008989532 -0.044901665
000280 57 84 29 bd 9e 18 e4 3c 2d 6b 34 bd df e1 51 bd
       -0.041385975 0.02784377 -0.044047523 -0.051240798
000290 cf 0c b2 3c 40 9d 82 3b f5 8b 0f bc 63 c4 f1 bc
       0.021734623 0.003986031 -0.008761396 -0.02951259
0002a0 71 17 45 bd b2 e4 d5 ba 16 71 99 3c 2f dc b3 bc
       -0.04811806 -0.0016318767 0.018730681 -0.021955578
0002b0 f6 69 84 3c 7f 8c 21 3d 30 82 06 3d 15 75 be 3c
       0.016163807 0.03944063 0.032839 0.023249188
0002c0 f7 d3 a6 bc 53 93 3d bd a1 9c 2a 3d fe b5 18 bd
       -0.020364745 -0.046283077 0.04165328 -0.037282936
0002d0 2a f3 f2 bc b7 34 26 bd dc 48 f2 3c 61 9a 17 3d
       -0.029656965 -0.040577617 0.029575758 0.03701246
0002e0 c3 66 b5 bc 71 74 09 3d c7 f5 a1 bc 86 f0 f4 3c
       -0.022143727 0.033558313 -0.019770516 0.029899847
0002f0 4c 66 02 3b 25 ae 05 3d a2 a2 07 3c 80 bc e4 bc
       0.00198974 0.03263678 0.008278521 -0.027921915
000300 5d 10 f5 bc 5d 93 b2 3b 8b 03 12 bd 46 00 33 bd
       -0.02991503 0.005449696 -0.03564791 -0.043701433
000310 70 0d d8 bb 98 fa 44 bd da ba d8 3c 99 02 01 3d
       -0.0065933987 -0.048090547 0.026456285 0.031496618
000320 26 54 fd 3c 24 09 80 ba cf c2 8d bc fb 66 01 bd
       0.030923914 -0.0009768349 -0.017304806 -0.03159235
000330 6c a5 f6 3c e5 1a 3d 3d 15 42 87 bc 23 4e c0 bc
       0.030108176 0.046168227 -0.016511003 -0.023474758
000340 09 e3 b3 bb 7d 8f 61 bc a5 cd 49 bd 2c a8 24 bc
       -0.005489711 -0.01376712 -0.049268384 -0.010049861
000350 4e 6d 53 bd c0 a4 79 bc 89 ca b7 bc 80 2d 18 bc
       -0.051617913 -0.015237033 -0.022435443 -0.009288192
000360 07 6c 1b 3d b8 eb 0c 3d 78 a5 fb 3c 4a 9a ca 3c
       0.03794482 0.034404486 0.03071855 0.024731774
000370 a6 32 04 3c 49 d2 bc 3c f4 cb d6 bc 79 d7 c1 bc
       0.008068716 0.02304949 -0.0262203 -0.023662316
000380 ca b3 e9 3c 06 c0 eb bc 00 00 21 ba fa b0 43 3d
       0.028528113 -0.028778087 -0.00061416626 0.0477762
000390 01 3e 02 3d 72 4b f4 3c 4a b2 08 3d 89 75 9d bc
       0.031797413 0.029821131 0.033373155 -0.019221084
0003a0 73 16 02 3d 20 23 57 3b f0 9d e4 bb 18 96 9b 3c
       0.03175969 0.0032827333 -0.0069768354 0.018992469
0003b0 f3 9c 1c bd 12 34 27 bd 9c 08 ec bc 70 ab 18 bd
       -0.038235616 -0.040821142 -0.028812699 -0.03727287
0003c0 6d 20 42 bd c5 f6 31 3d ad 5b 1b 3d 06 09 e2 bc
       -0.047394205 0.04344823 0.037929226 -0.027592193
0003d0 62 28 9e 3b 43 b0 01 3c 91 fb 12 3d 22 c2 c8 bb
       0.0048265914 0.007915559 0.035884444 -0.006126658
0003e0 a2 01 16 bd 8a 44 9b 3c 7f 72 f5 3b 6b d2 31 bd
       -0.03662265 0.01895358 0.0074904556 -0.04341356
0003f0 2a 12 d8 3c 6b df 37 3d 85 59 3c bd 08 14 4c bc
       0.026375849 0.044890802 -0.04598381 -0.012455948

fc1.bias f4 [20]
000000 78 e1 92 3c b9 db 12 3e eb 1d 12 3d 68 8b e8 3b
       0.017929778 0.1434163 0.035673063 0.0070966966
000010 1a 72 e2 3c ab 8d e2 3d df 35 f2 bc 95 e2 0c bd
       0.027642298 0.11062177 -0.029566703 -0.034395773
000020 02 d6 a4 3c c5 5f 47 3d a4 75 78 3c dd 8b 0d 3e
       0.020121578 0.048675317 0.015164766 0.13822885
000030 8b 9a 36 bd f0 b8 d9 bb f2 94 c7 3d 5a 92 e7 bb
       -0.044580977 -0.0066443607 0.09745206 -0.007067007
000040 ec 26 c4 3d 65 ff 76 ba c8 ed 03 3e 94 c9 3f bc
       0.09577736 -0.0009422212 0.12883675 -0.011705775

conv1.weight f4 [4, 4, 3]
000000 f9 dd 93 3e f1 e7 c4 bd 69 c7 15 3e ff ed 8c be
       0.2888029 -0.09614552 0.1462685 -0.27525327
000010 40 a3 a7 3e cb 7b 59 be dc 5f 81 3e ca 33 bc be
       0.32741737 -0.2123863 0.25268447 -0.36758262
000020 a0 e9 09 3d 88 7e ab 3e 60 4f 43 3e b6 ce bd 3e
       0.033670068 0.33494973 0.19073248 0.3707177
000030 4c 9d 69 3e 33 51 52 be a0 e0 32 3c a2 95 ec bd
       0.2281391 -0.20538788 0.010917813 -0.11551978
000040 49 45 03 be af ab f2 3b 3b b8 86 be 6f bc 41 3e
       -0.12819399 0.00740572 -0.26312432 0.18919538
000050 14 12 74 bd e8 8b 46 be fa f7 9f bd c2 99 7a bd
       -0.059587553 -0.19389307 -0.0781097 -0.06118179
000060 b4 f6 1d be 7e fc 88 3e 20 61 70 3d 5c db 96 bd
       -0.15426141 0.26755136 0.058686376 -0.07366058
000070 a8 1b 37 3d 90 3d bd bc b0 d7 80 bc 8c da 4a be
       0.04470411 -0.023100644 -0.015727848 -0.19809932
000080 01 13 93 be fa 87 c0 bd 3a 54 92 be a4 d4 e5 3d
       -0.28725436 -0.094009355 -0.28579885 0.112221986
000090 25 87 a4 3d 12 32 79 3e 86 36 5a bd 0c 19 77 3e
       0.08033589 0.24335507 -0.053274654 0.24130648
0000a0 64 b5 24 bd 74 4b 8a 3e d4 63 13 be a6 80 65 3e
       -0.04021205 0.2701069 -0.1439355 0.22412357
0000b0 74 e3 fd 3d 25 e3 3d be 53 3d a8 3e 9b 88 91 bd
       0.12396899 -0.1854368 0.32859287 -0.071061336

conv1.bias f4 [4]
000000 cf 16 bd 3e 2e cd 29 3d bb ea 83 be 65 d6 b6 3e
       0.36931464 0.04145544 -0.25765023 0.35710445

conv2.weight f4 [4, 4, 3]
000000 b6 3f 78 3e 7d 46 bd bd 4a 04 a6 3e 17 c0 80 be
       0.24243054 -0.0924196 0.32425147 -0.25146553
000010 6c ff 5c be 56 95 06 bd e2 69 a9 bd 80 26 d3 3b
       -0.2158181 -0.03285726 -0.08272149 0.0064437985
000020 47 eb 20 be b1 e8 3a bc 5e a1 b8 3e 5f 65 6e be
       -0.15714751 -0.011408017 0.36060613 -0.23280858
000030 65 6f 9d be 84 af 78 3e 1d 51 c7 3a 59 cb 04 3e
       -0.3074905 0.24285704 0.0015206669 0.12968196
000040 43 96 b5 3d 12 74 55 3e b3 08 11 be 0a 47 f0 bd
       0.08866551 0.20845059 -0.14163475 -0.117322996
000050 47 94 6b be 96 32 10 be 39 12 d6 bd 1b c1 47 be
       -0.23005782 -0.14081797 -0.104526944 -0.19507258
000060 83 44 c5 3e f9 84 6f 3b ce a2 4f 3b 80 37 b4 3d
       0.38528833 0.0036547764 0.0031682733 0.08799648
000070 c8 62 88 3d c0 0a fe bd a4 81 ed bd 1c 5d 60 bd
       0.06659466 -0.12404394 -0.115969926 -0.054776296
000080 54 2b 1a 3e bc a2 95 bd 4b c1 aa 3e 76 39 8b be
       0.15055591 -0.0730643 0.33350596 -0.27192277
000090 50 ec 90 3e 13 b6 9a bd 32 ef 08 be b8 ee 62 3d
       0.28305292 -0.07554259 -0.13372496 0.05540344
0000a0 e5 f2 a9 3e 3e 40 53 3e b8 e8 1e 3d 84 74 76 3e
       0.33193126 0.20629975 0.038796157 0.24067885
0000b0 38 c7 b6 3d 17 36 57 3e 1f 91 c7 bd fc 5a 9b be
       0.08924717 0.21016727 -0.097444765 -0.30342853

conv2.bias f4 [4]
000000 51 f2 0a 3e e7 d9 85 3e 70 80 a0 3e f2 d9 ea 3d
       0.13568999 0.2614281 0.3134799 0.11467351

conv3.weight f4 [1, 4, 3]
000000 6a 50 2d bd 34 08 2b 3e 7d 21 88 3e 15 1a 54 3e
       -0.042313017 0.16702348 0.2658805 0.20713075
000010 e1 b4 14 bd ad 58 24 be 15 b3 8e 3e 11 90 0e 3e
       -0.036305312 -0.16049452 0.27871004 0.13922144
000020 8b 3d 9a bc dd 16 0e 3e 32 f5 44 3e 02 4d 93 bc
       -0.018828174 0.13875909 0.1923416 -0.017981056
