Weight_Files/VAE_trained_on_1D&3D/vae_net_thrust.pth (torch_old, 84660 bytes, 23 tensors)

encoder.conv1.weight f4 [16, 1, 3]
00000000: c733 973e fb81 86be dc55 02be 96df 4d3e
00000010: 3295 1ebf 34a2 8c3e c651 f5bd a3dd 943e
00000020: 1cbb 943d de6c bfbd 5ad6 113e be5f a63c
00000030: aa3e 5b3e 6e94 5dbe 565c c2bd f36b 30bd
00000040: fc4f 1a3d 0202 3abd ca90 fc3e f632 2d3e
00000050: 0852 6ebe 7288 b2be e430 c6bd f202 7fbe
00000060: fb1a 3bbe 97d7 d83c 219c af3e b690 953e
00000070: 0334 1abf e24d 9f3e 59b9 dc3d fc87 ff3e
00000080: 758a aa3e ecaa 06bf f487 0cbf 3894 8ebe
00000090: 563b 033f e514 c3bd 0ecb 7e3e be28 91be
000000a0: 54a4 0b3f 2847 88be a77b d83e df43 bc3a
000000b0: 95b8 9ebe 8b77 973e 0735 99be fdce 283e
0.2953169 -0.26271042 -0.12728065 0.20104823 -0.61946404 0.274675 -0.11978488 0.29075345
0.07262251 -0.09346937 0.14241925 0.020309325 0.21410623 -0.21638653 -0.09490268 -0.0430717
0.037673935 -0.04541207 0.49329215 0.16913971 -0.2327348 -0.34869725 -0.09677294 -0.24903467
-0.18272011 0.026469989 0.34298804 0.29211968 -0.60235614 0.31114107 0.1077754 0.49908435
0.3330876 -0.52604556 -0.5489495 -0.27847457 0.51262414 -0.0952547 0.24882147 -0.28351396
0.5454762 -0.26616788 0.4228184 0.0014363489 -0.310002 0.29583392 -0.2992327 0.1648521

encoder.conv1.bias f4 [16]
00000000: 9eab b1be 6306 54bd b75c 34bf c822 f0be
00000010: 4c91 f73e 1863 0cbe 6134 c73e c4f3 ec3e
00000020: dc11 45be 34da b4be a26e 023f 347c 373e
00000030: a59f 06bf 4497 093f 4b59 413e bb0f b23e
-0.34701246 -0.051763903 -0.7045397 -0.46901536 0.4835304 -0.13709676 0.3890715 0.46279728
-0.19245094 -0.35322726 0.5095006 0.17918473 -0.5258735 0.5374644 0.18881719 0.34777626

encoder.conv2.weight f4 [8, 16, 3]
00000000: 0bb4 a5bd eb0c cfbc 5de0 893d 4950 903d
00000010: ffd8 b9bc 797e 76bd 6ba6 ce3d 36e7 45bc
00000020: 1fd8 c43d cf04 c63c 84e5 7f3d f3e5 4a3d
00000030: bdcc 583d fd57 ed3d 628e 06be b79f cd3d
00000040: 742c 8ebd 9bb1 adbd 41c3 313c f43a 99bc
00000050: a658 ba3d c631 abbd 9c64 03be 8221 d73d
00000060: 6734 09bc 7034 be3d fc53 693d d9fa 07be
00000070: 8ac8 b33d c2c5 9e3d b208 a6bd 2bf4 5bbd
00000080: be1e 833d 00cc d33c ae7b 7bbd b8f7 32bd
00000090: 247d 163e 4bae 26bc 1979 c53d 1f54 843d
000000a0: 6511 b0bd 64a1 d9bd b9fc cc3d d4d5 17bc
000000b0: c5ec c33d 951c 503c f811 053d 6471 b03d
000000c0: d025 0c3e 258f c7bd 2622 4f3d c4db 143e
000000d0: 38cb 173e 37b5 b43d 2ad6 ddbd 7715 efbd
000000e0: 6ce1 b6bd 64ad 103c 40f8 fb3d 7baf cbbd
000000f0: ab14 9f3d 6487 12bd 1eb0 30be 5dd8 7abb
00000100: e944 3f3d 5fea 143e 1327 87bd a5b4 3a3c
00000110: 7a4f c13d f2e1 c33d 103a b83d bc10 d23d
00000120: 42a0 ab3d 042d 6f3c 83f9 ddbd c111 2bbd
00000130: 8ce1 85bd 9005 a2bd bdc2 c1bd 659c 1a3d
00000140: 57b4 063d bcde 05bd 8c39 633d a811 3f3d
00000150: 6ec9 d73d 65ef b23d 7e90 79bd 5ec0 e23d
00000160: 45cc 29bd da56 c0bb 0e02 14be 1ba6 1dbe
00000170: 1fee 0abe 1f6f 5fbd 214d 893d 19a4 aabd
00000180: b101 c1bd 02f6 4d3d 6aa3 e23c dd77 ce3d
00000190: 008c b8bd 7fad e13c d2ed 84bd 845b 60bd
000001a0: c40f f2bd 40d2 a2bd e63e 8cbd 29d9 713d
000001b0: a5f0 963d dfc2 52bc fddf 3e3e 8931 1e3e
000001c0: e167 d83d b0e6 0cbd 665d 03be 9965 c43d
000001d0: a274 f1bc 702f 3fbc 76a9 febd 788f e9bc
000001e0: f20b e3bd 32ce 063e 8050 08be 756c 04be
000001f0: da90 933c b7a9 b8bd bd67 0b3d 83fe 99bd
00000200: 925d 8ebd 30f0 053c 94fc d53d 35ef cfbd
00000210: 86fe 303d ac5d a23d a70e 0d3e 3d7d edbd
00000220: 3dab a9bc bd60 c4bd f2bc c73d 7b8a 95bd
00000230: 3cab c73d c9d1 e8bc c8f7 05bc 6762 88bb
00000240: 8319 1e3d f81f 123e d3cd aab8 692e 3d3d
00000250: 1036 1cbe ac5b d73d 2ab9 153e c350 0b3e
00000260: bbf6 ab3d eaf8 c0bd f9f9 3dbd 0963 d63d
00000270: 5150 5dbd b13a 253e c665 08be 8a61 c4bd
00000280: 37e1 983d 1beb 01be e545 ccbc c7e2 eb3d
00000290: 5664 bb3d c6c8 0b3e acee efbc c9c2 e5bd
000002a0: 35bf 103e 785a 5bbd 423e 73bd 43a4 2f3d
000002b0: d8db fcbd 524b c23d 28a1 d43d 51c0 dabd
000002c0: f2bf 10be 8026 4fbc 6452 783d 20fb 88bb
000002d0: 6965 72bd d019 a23c a96a 22be 8c70 a4bd
000002e0: 11d3 b8bd 900c c53d ac35 013e ed6e 15bd
000002f0: a3d5 85bc 208a 4c3d 8063 a3be eeb9 bcbd
00000300: 75d5 923d 602c ae3d 5899 a8bb 3a05 e8bc
00000310: de89 383e e4ac 6e3d 358c 80bd 1b14 c53d
00000320: 735d 95b9 3e40 9abd 4c56 053d 2339 11be
00000330: ae8c 063e 0447 cabd de5c 5d3d 2993 8b3d
00000340: 3323 3cbc 1f8d 123e 3fdc 2dbd c89a 28bd
00000350: fc21 1abe 801a c2bb 8b08 8cbd 8083 bd3b
00000360: 727d 51bc 8e56 db3a 7652 a33d 0150 2e3d
00000370: 3324 febc d2e1 fdbd f817 d9bd 24a1 c13d
00000380: d415 81bd 18ad ee3c 80f4 ae3b d760 bcbd
00000390: bc11 cc3d c56d a13d 5bcb f3bc 01dd 7fbd
000003a0: 4807 1dbe 744f 58bc 9167 75bd de13 85bd
000003b0: 4fd3 ddbc 01c1 fdbc 4aa5 443d bcc6 97bd
000003c0: 90be 9cbc 16a7 61bd f311 07be dee6 003e
000003d0: 6095 e13c fa2a 043e 1c8f bebc ec93 14bd
000003e0: 02f3 0abe a86d 60bd 30d9 c13d 81c3 10be
000003f0: 9ec8 4ebd 5c19 b43d 9e5e aa3d e04c 5a3d
-0.08090981 -0.025274714 0.06732247 0.07046563 -0.02268648 -0.060179207 0.100903355 -0.012079051
0.09611534 0.024172215 0.062474743 0.049535703 0.05292963 0.11589048 -0.13140252 0.10040229
-0.069420725 -0.08481141 0.010849775 -0.018704869 0.090989396 -0.08359103 -0.12831348 0.10504438
-0.00837431 0.092873454 0.05696486 -0.13279285 0.08778484 0.07752563 -0.08107127 -0.053699654
0.06402348 0.02585411 -0.061397247 -0.043693274 0.14696175 -0.010173391 0.09642238 0.06461357
-0.08597068 -0.10626486 0.100091405 -0.009267289 0.095666446 0.012702127 0.03248784 0.086153775
0.136863 -0.097440995 0.050569676 0.14536959 0.14823616 0.088236265 -0.10831864 -0.11674016
-0.089297146 0.008830402 0.12303209 -0.099455796 0.07767614 -0.03577365 -0.17254683 -0.0038275935
0.046696577 0.1454253 -0.0659925 0.011395608 0.09438987 0.0956458 0.089954495 0.10257098
0.08380176 0.014598135 -0.10838606 -0.04176498 -0.0653716 -0.07911217 -0.094609715 0.037746806
0.03288683 -0.03268312 0.055474803 0.046647698 0.105364665 0.08737067 -0.060928814 0.110718474
-0.041454572 -0.0058697285 -0.14453909 -0.15395395 -0.13567398 -0.054549333 0.06704164 -0.083320804
-0.09424151 0.05028344 0.027665813 0.10081456 -0.09011078 0.02754855 -0.06490673 -0.054774776
-0.11819413 -0.07950258 -0.068479344 0.05904499 0.07370118 -0.012863844 0.18640132 0.15448584
0.10566688 -0.03439969 -0.12828597 0.09589691 -0.02947456 -0.011669025 -0.12434666 -0.028510794
-0.11086263 0.13164595 -0.13311958 -0.12931998 0.018013407 -0.090167455 0.03403448 -0.075192474
-0.06951441 0.008174941 0.10448566 -0.10153047 0.043211482 0.07928023 0.1377512 -0.11596153
-0.020711536 -0.09588764 0.09752835 -0.07301804 0.09749457 -0.028420346 -0.008176751 -0.004162121
0.03859855 0.14270008 -8.1445694e-05 0.04618684 -0.15254998 0.10515532 0.14621416 0.13605027
0.083966695 -0.094224766 -0.04638097 0.10468108 -0.054031674 0.1613567 -0.13320073 -0.095889166
0.07464831 -0.12687342 -0.024935672 0.11517864 0.09149997 0.13650808 -0.029288612 -0.11218793
0.1413544 -0.053553075 -0.059385546 0.04288126 -0.12346619 0.094870225 0.103823006 -0.10681213
-0.14135721 -0.012643456 0.06062545 -0.004180327 -0.059178744 0.019787699 -0.15861 -0.08029279
-0.09024633 0.09621537 0.1261813 -0.03648274 -0.016337221 0.049936414 -0.3191185 -0.09215151
0.0716962 0.085045576 -0.005145233 -0.028322805 0.18021342 0.05827035 -0.06276742 0.096229754
-0.0002848912 -0.075317845 0.032553002 -0.14181952 0.13139603 -0.098768264 0.054043643 0.06815178
-0.0114830015 0.14311646 -0.04244637 -0.041163236 -0.15052027 -0.005923569 -0.06837567 0.0057834983
-0.012786256 0.0016734169 0.079747126 0.042556766 -0.03102312 -0.123965874 -0.10600275 0.09454563
-0.063029915 0.029135272 0.0053392053 -0.09198158 0.0996432 0.07882265 -0.029760053 -0.062466625
-0.15334809 -0.013202537 -0.05991322 -0.0649793 -0.027078299 -0.03097582 0.048009194 -0.074109524
-0.019133836 -0.055090986 -0.13190441 0.12588069 0.027537048 0.1290702 -0.0232616 -0.03627388
-0.13569263 -0.054792076 0.09465253 -0.14137079 -0.050484292 0.087938994 0.08318828 0.05329597

encoder.conv2.bias f4 [8]
00000000: b596 6cbe 1e63 95be 23a9 3bbc 6afc 9ebd
00000010: cf71 003e 8027 77bc fc2d 713e cfc8 ae3d
-0.23104365 -0.29177183 -0.0114539 -0.07762988 0.12543415 -0.015085101 0.23552698 0.08534395

encoder.conv3.weight f4 [16, 8, 3]
00000000: 625f b0bd 1968 16be c8ee 013e eff9 a6bc
00000010: a9b7 ca3d 1f98 afbd f5c0 193e 42a2 a53d
00000020: 97c9 3fbd 197b ac3d 10e4 f0bd 90c6 36bd
00000030: 4601 a63c 6310 05be e0a3 55bd d448 b4bd
00000040: e434 473e 9692 313e e297 323e 54ad a03e
00000050: d32e 48be 64d6 8b3d 4c16 9a3d 6350 19be
00000060: bd14 b23d aee2 b4bd 17bc 143d 13b8 453d
00000070: f8f3 223e ba66 07be 76b1 27be 59fb 343e
00000080: c7c8 a53d d99b e83d f0f8 293d d2b2 c6bd
00000090: 66db 0c3e 9dbe 2cbe 3503 433d 38f9 bc3d
000000a0: 5ed0 0e3e 96c2 d0bd 67a5 10be ef9a cc3d
000000b0: 348d 17be 7f64 1bbe f246 3bbe a2b9 cabd
000000c0: 787d 4fbd 7190 f7bd cac2 b0bd 1c6a 46be
000000d0: 8879 003e 1468 3fbd d8e1 03be 50ae 593d
000000e0: cc49 1cbe 6c50 123e ff8d d73d d268 4dbe
000000f0: 6712 24be 30d3 09be 2d4d e2bd c8ca d03c
00000100: a6b1 4ebe 7cf6 1abe 5cea be3d 56ea 88bd
00000110: 9859 a6bd c1eb 2cbe 6070 a93d a02a 6c3c
00000120: 908d 83bd cd0a 01be 7516 963d 5d34 1c3d
00000130: 0416 c73d 696f 8e3d 5e01 4d3b 434e f1bd
00000140: 9aa5 283e 8058 e5ba 4200 3abe 212d 263e
00000150: 2a85 303e 1469 d9bd 39de 8bbd 5243 8ebd
00000160: c454 f1bd dc38 c33d 161a 17be 2c9c 493e
00000170: 5730 41be c13c cf3d f80e 823c 5b00 b5bd
00000180: b2a8 c23d 34ae 12be 7b48 63bd fc14 74bd
00000190: 8eba 413e 0b78 bfbd ee36 49be d107 3bbe
000001a0: cff0 86bd 6068 90bd 0a78 fdbd 9d86 3dbe
000001b0: ae84 803d 3d5d 20bc a4b1 06be 3ebb eebd
000001c0: 580b 313d 001a 3fbb 86ef 133e 4d72 58bd
000001d0: f754 69be 9b98 1abe 006a 75bd e02c 39bd
000001e0: 3ad8 a63c 5454 1abd 4825 9d3d de5b 9cbd
000001f0: d4df 023e fb3b ff3c fcdb b9bd abca 1f3e
00000200: ef96 473d be5f 00be 192d fcbd 621f a63d
00000210: 231b c83d e6c5 343e 9546 863c f031 123e
00000220: f4d7 cf3d a848 813d a626 3dbd 792e 423e
00000230: f093 a63d 4f93 40bd f68c 633c 1564 483e
00000240: 782c 163d 7b21 84bd 35f6 283e 9a32 57bd
00000250: 92e1 12be f67e 7abe 8ce9 ee3d 1c66 263e
00000260: 2f56 46be a0be 903d bd0a 183b 5137 c3bd
00000270: 123b acbd 60bb 693d 031c 823d 122d 0d3e
00000280: 3409 993d 283c be3d a346 333e cc0d 913d
00000290: 507b c5bc c657 a1bd 6e18 213e 58f3 f63c
000002a0: 6131 cd3d a5e7 2a3e c476 bebd c60d 533d
000002b0: 88aa c7bd befe fb3d 64fb af3d 6467 ccbd
000002c0: d485 59bc bb02 c4bd abe0 f8bd 73e9 a5bd
000002d0: 48ae c0ba dc33 71bd ea86 44be 89d8 fcbd
000002e0: 18e5 8ebc fa73 85bd 33b7 163e 5148 e83d
000002f0: a3cb ca3d f092 c63d 379f 19be 537d 473e
00000300: 7c31 38be 806f 89bd 1c1d 13be 5854 963d
00000310: 70ee 2dbe 3018 cebd 1ec6 04be ca7b 00be
00000320: da26 c3bd 3c79 4d3e b894 88bc 60dd 7e3d
00000330: 727e 4fbe 7ad8 393e 7c10 36bd 66d4 3fbe
00000340: de0c 103e 0413 62bd 12d2 3d3e a8f9 0dbe
00000350: 5b10 42be 8707 1dbe ac16 b53d c087 bbbc
00000360: 104b 40be df1a 3e3c a7f7 1bbd 33c1 993d
00000370: c7e5 98bd 3858 2dbe bdcc 0f3e f672 c6bd
00000380: fc64 143e 287a 293e 3f2d 12be 366f c0bd
00000390: c059 d33c 8ac1 43be 9c62 803d 1a2f aebd
000003a0: 375a b9bd be96 21be 2334 c63d 0a33 05be
000003b0: 66c4 25be 34df 5bbd 26ba e8bd 3c36 4bbe
000003c0: a78b 9e3d 8044 b2bd 79ef 0a3e c31d d13d
000003d0: 1b0d 21be 0562 25be 3b8f 8bbd 0b2e ef3d
000003e0: 1d03 60bc 9d3e 71bd a3df d83d dc5d 393e
000003f0: 1d9b 1f3e b7a9 0bbe 0a15 1dbd 6c5f 20bd
-0.08611943 -0.14688148 0.12688744 -0.02038285 0.09898312 -0.08573937 0.15015014 0.08087589
-0.04682311 0.084219165 -0.117622495 -0.044622958 0.02026428 -0.12994532 -0.052158237 -0.08802953
0.1945377 0.17341074 0.17440751 0.3138224 -0.19549112 0.06828001 0.07523784 -0.14972071
0.08695362 -0.08832298 0.03631219 0.04827125 0.15913379 -0.13222781 -0.1637629 0.17674007
0.08094936 0.113578506 0.04149717 -0.09702076 0.13755569 -0.16869588 0.04761048 0.09227222
0.13946673 -0.10193364 -0.14125596 0.09990489 -0.14799958 -0.15175055 -0.18288782 -0.09898688
-0.050656766 -0.12088097 -0.08630903 -0.19376415 0.1254636 -0.046730116 -0.12879121 0.053144753
-0.15262526 0.14288491 0.105251305 -0.20059517 -0.16022645 -0.13459468 -0.11049876 0.025487319
-0.20184955 -0.15133089 0.09322044 -0.06685321 -0.081225574 -0.16886808 0.08273387 0.0144144595
-0.06423485 -0.12601776 0.07328502 0.038135875 0.09720996 0.069548436 0.0031281332 -0.11782505
0.16469422 -0.0017497689 -0.18164161 0.16228153 0.17238298 -0.10615745 -0.06829495 -0.06946434
-0.11783746 0.095323294 -0.14756045 0.19688481 -0.18866096 0.1011901 0.015876278 -0.088379584
0.09504832 -0.14324266 -0.055489045 -0.059590325 0.18918821 -0.09349068 -0.1964986 -0.182647
-0.06588899 -0.07051158 -0.12376411 -0.18508382 0.06275307 -0.009787855 -0.13153702 -0.11656807
0.04322371 -0.0029159784 0.1444684 -0.05284338 -0.22786318 -0.15097277 -0.059915543 -0.04520881
0.020366777 -0.037678078 0.076731265 -0.0763471 0.12780696 0.03115653 -0.09075162 0.15604655
0.048727926 -0.12536523 -0.12313289 0.081114545 0.09770801 0.17653617 0.016391078 0.14276862
0.10148612 0.06312686 -0.046179436 0.1896304 0.081336856 -0.047015484 0.013888588 0.19569428
0.036663502 -0.064516984 0.1650017 -0.05253849 -0.14343861 -0.24462494 0.11665639 0.16249889
-0.19368814 0.07067609 0.002319976 -0.09532035 -0.08409704 0.05706346 0.06352999 0.13786724
0.074724585 0.09288818 0.17507415 0.0708271 -0.024106652 -0.078780696 0.15731975 0.030145332
0.10019184 0.16689928 -0.092999965 0.051526807 -0.09749323 0.123044476 0.08592871 -0.09980658
-0.013276536 -0.09570833 -0.12152227 -0.081011675 -0.0014700377 -0.058887348 -0.1919209 -0.12345988
-0.017443225 -0.065162614 0.14718322 0.11341918 0.09902122 0.09695995 -0.15002142 0.19481401
-0.17987627 -0.0671072 -0.14366573 0.07340306 -0.16985488 -0.10063207 -0.129662 -0.12547222
-0.09528895 0.20065778 -0.016672477 0.06222284 -0.20263079 0.18148986 -0.044449314 -0.18733367
0.14067408 -0.055193916 0.18537167 -0.13864768 -0.18951552 -0.15334903 0.08842215 -0.02289188
-0.18778634 0.011603086 -0.038077977 0.07507553 -0.074657016 -0.16928184 0.14042945 -0.09689896
0.14491647 0.16550505 -0.14275073 -0.09396212 0.025799632 -0.19116798 0.06268808 -0.08505078
-0.0905041 -0.1578016 0.09677913 -0.13007751 -0.16188201 -0.05367966 -0.1136363 -0.19844908
0.0774148 -0.087044716 0.13567914 0.10210755 -0.15727656 -0.16150673 -0.068144284 0.11678704
-0.013672617 -0.058897603 0.1058953 0.18102211 0.15586515 -0.1363896 -0.038350143 -0.0391535

encoder.conv3.bias f4 [16]
00000000: 59b4 7f3e 1720 82be d705 40be aab4 d1bc
00000010: 565f 8fbc 7962 9abe c7d3 91be fae6 3dbe
00000020: e878 2bbd b42b e73d e2b8 aabe ae5c 2ebe
00000030: 5ab0 87bd 5f85 e5bd 9bbb 8cbe caaa a9bd
0.24971141 -0.25415108 -0.18752228 -0.025598843 -0.017501514 -0.30153254 -0.28481886 -0.18545142
-0.041863352 0.112876326 -0.3334418 -0.17027542 -0.06625433 -0.11207079 -0.27486882 -0.082845286

encoder.conv4.weight f4 [4, 16, 3]
00000000: fd55 f2bd 1de9 2bbe f834 50be e78e 11be
00000010: c8ef c83d 13d6 9bbb b43b a4bd a21b f93d
00000020: b752 41bc d35c 113c eeeb aabd 9567 1ebe
00000030: d262 debb b6c0 013d 297b 07be a971 003d
00000040: e023 443d 225a 993c 5599 d43c 5ce3 da3c
00000050: fc0e e4bc dcfc 963c 42ae cabd 4d07 a8bd
00000060: 02cf 3dbd 6c5b cabd 7c34 353d 068f d23d
00000070: e4bb e53d af38 b7bd 10aa fc3d fb18 0f3e
00000080: 00e0 b53c b080 633d 8a07 b23d 5e25 033e
00000090: 64ad bf3d 3b05 813d 0960 29bd ead4 bebd
000000a0: 1950 bebd 2999 1d3e 62d1 f1bc 113f 1a3c
000000b0: d2fe 8cbd 13f7 4abc 8104 3bbd eddd e0bd
000000c0: 82d7 2b3e bf52 af3d 30c8 463e 4686 aabc
000000d0: c7a2 f9bd 6dcc 6d3d 621d 3cbd 98cc 843d
000000e0: bcd2 a53d 3436 1c3d b674 0d3d 73cf 083e
000000f0: 6b23 0e3e c93e ac3d 85c7 bc3c 5b65 f2bc
00000100: 206d bf3c 074b 8b3d c9b0 2ebe c9d6 2e3e
00000110: 0035 433d 33f5 0bbe a251 ba3c 0ee8 a93d
00000120: 9ce8 5c3d 084b f13d 808e 433b ae72 00be
00000130: b470 693c 6aad d73d df58 fdbd 5f69 8d3d
00000140: cad3 55bd 7704 8bbc 04df 58bb fb1a 6d3c
00000150: 76eb a1bd 08bb 9d3d 8020 dd3d 03d6 fc3d
00000160: dcd0 d53d 2167 a23c 0cf8 ccbd 08a9 4abb
00000170: 15a3 00bd fdd3 5c3d 7bfa e83d 325d a4bd
00000180: f0c1 34be 9a10 ac3d a5b7 3cbe c9e7 2abd
00000190: 076c 1f3e 6a4d fb3d 9097 2b3d f4fc 7ebd
000001a0: 4d4a e1bb 6d28 57bd ae35 92bd eb56 1dbe
000001b0: fee3 523e 8b87 6b3e 5c91 163e 9b3c bcbc
000001c0: af8c 203e ba69 6a3b 253d 813d e6fb a63d
000001d0: 7549 46bb 653f 363d ccae 923a f7a4 ccbd
000001e0: 54cb 303d 0421 34bd a0cf 873d f464 cd3d
000001f0: d90f 2bbc 965c 8f3d 72c2 623c e07e 2d3e
00000200: 7c31 94bc 53a2 28bc 256c dbbc 75a5 0d3e
00000210: 4fdf bcbd 995a 26bd 0717 3a3d d45b 373e
00000220: 012b 0b3e 83c1 e9bd 31e2 a4bd 89ea 2a3e
00000230: 22cd 3a3d f62d 00be e31e 08bd a570 983d
00000240: ed19 c5bd d8c1 b0be 9e0d a6be b073 81bc
00000250: d376 553d 8c86 773d 76ed 8d3d 34ce 4abd
00000260: d352 48bb aea3 f0bc 76d6 3d3e 7b1a 1c3e
00000270: 2168 3c3e 61ea 4c3d 243a 09bd 950f 473d
00000280: 7979 9b3d 465a e5bd 8317 cb3d 68f3 adbc
00000290: c424 c3bd e0bc f33d 7612 0d3d 647c cfbc
000002a0: 8003 c43c c0aa c03b d86f b43c b682 a0bd
000002b0: 9f96 d3bd 8005 4f3b 1c6f b33d fb44 3b3d
000002c0: 4fb5 1d3e 869c 823d fe0d 923d 0798 23bd
000002d0: d7de 50bd 8029 673d d76d a3bd 2542 973d
000002e0: 4936 afbd 50c9 ca3d 72f3 42bd fdc2 0c3e
000002f0: fb9b dd3d c176 113e cbc2 a03d 375d db3c
-0.11832807 -0.16788144 -0.20332706 -0.14214669 0.0981136 -0.0047557442 -0.080192 0.12163474
-0.011799506 0.008872229 -0.08345781 -0.15469201 -0.0067866826 0.031677924 -0.13230576 0.031358395
0.047885776 0.018719736 0.02595202 0.026719742 -0.027839176 0.01843112 -0.09896518 -0.082045175
-0.046339996 -0.098807186 0.044239506 0.10281186 0.11217478 -0.089463584 0.12337124 0.13974373
0.022201538 0.055542648 0.08692844 0.12807223 0.093592435 0.06299826 -0.041351352 -0.09317954
-0.09292621 0.15390457 -0.029518787 0.00941445 -0.068845406 -0.012388009 -0.045658592 -0.10979829
0.16781428 0.085607044 0.19412303 -0.02081598 -0.121892504 0.058056284 -0.04592646 0.06484336
0.08096835 0.03813763 0.034535132 0.13360386 0.13880698 0.08410413 0.023044357 -0.029589346
0.023367465 0.0680142 -0.17059626 0.17074122 0.047657967 -0.13667755 0.022744004 0.08296214
0.05393277 0.11781889 0.0029839575 -0.12543747 0.014248062 0.10531123 -0.123704664 0.069048636
-0.05220393 -0.016969902 -0.0033091912 0.014471765 -0.07906239 0.07701689 0.107972145 0.12345507
0.104402274 0.019824566 -0.10008249 -0.0030923504 -0.031405527 0.053913105 0.113759 -0.08025588
-0.17652106 0.08401604 -0.1842943 -0.041724954 0.15568553 0.12270625 0.04189259 -0.062252954
-0.0068753124 -0.052528787 -0.07139145 -0.15365188 0.20594785 0.23000924 0.14703888 -0.022978118
0.15678667 0.0035768584 0.063104905 0.081535146 -0.0030256186 0.04449405 0.001119101 -0.09992402
0.04316266 -0.0439768 0.06631398 0.10029021 -0.01044079 0.07000081 0.013840305 0.1694293
-0.018090002 -0.010292607 -0.026784966 0.13832648 -0.0922228 -0.040613744 0.045432117 0.17906123
0.13590623 -0.114138626 -0.08050955 0.1669103 0.045605786 -0.12517533 -0.03323258 0.0744336
-0.096240856 -0.3452289 -0.32432264 -0.015802234 0.052115273 0.06043105 0.06930058 -0.049513057
-0.0030566945 -0.029374924 0.18538842 0.15244476 0.18399097 0.05002821 -0.033502713 0.048598845
0.075915284 -0.11198859 0.09916594 -0.02123423 -0.09528497 0.119012594 0.034441434 -0.025327869
0.02392745 0.00587973 0.022025988 -0.07837431 -0.10331463 0.0031588972 0.08761427 0.04572008
0.15401195 0.06377511 0.07131575 -0.039939906 -0.050993767 0.05643606 -0.07979935 0.07385663
-0.08555276 0.099016786 -0.04759545 0.13746257 0.108207665 0.14205457 0.07849654 0.026777847

encoder.conv4.bias f4 [4]
00000000: cbb6 eabd 07d0 1a3d 11b6 40be ecf0 93be
-0.11460646 0.037796047 -0.18819453 -0.28894746

encoder.fc1.weight f4 [400, 20]
00000000: 0eb4 503e 90d1 3d3c 9061 d73d b076 063c
00000010: e099 833d d813 0dbe fcfe 31be f29f 2e3e
00000020: 28a9 ad3d fc1d e23d d144 63be d0af 773c
00000030: 6493 55be c89f d1bc 20ac 41bc 5c16 21be
00000040: 35bc 62be 00e6 c03a 62ea 4d3e 405b 4e3e
00000050: eaa4 0dbe 3864 06bd 0750 38be 6c2c 5bbe
00000060: 5541 efbd 7fe1 353e 6e58 9ebd b996 aebc
00000070: 7169 3d3e 5c1d 3a3d a2cc 023e 11d6 d83d
00000080: 529d 753e 76e4 de3c ad2a 39be 703c 8abe
00000090: 821e 35be c1c3 f23d 0aa1 653d a42f 473b
000000a0: b05e 2ebe d4a3 28be 0248 583e a842 26bc
000000b0: de55 62be 39ac c33c 6dc4 6a3c ffe2 673d
000000c0: 7a9e 123e 2970 e93d cd58 22be 553f 4ebe
000000d0: 4d11 063e 46af 1d3e 70c4 e23d da02 f93d
000000e0: 65a5 7b3e 8cdd 163e 931b 43be b01c 093d
000000f0: b47f 1bbe 0d81 d53c 0a92 fe3b 8ae4 3d3e
00000100: 6e6d 57be 10fb 76be 0821 88bd f5a8 753c
00000110: f619 103e 5456 503e 1a1b 023e 981e 203d
00000120: 6e0a 0cbd 6968 70bd 4a70 fabd c01e 87bc
00000130: 1395 30be 2be3 9c3d baf1 183e 6b7f fe3d
00000140: 7108 63be a420 403e f73e 0dbe 6af5 70bc
00000150: 3666 553e a399 fc3d 76ea 88bd 44f4 0a3e
00000160: b8c0 53be 7a88 2d3e 37e5 6c3e e464 01bc
00000170: a8bc 163d fce9 56bd c6f3 10be caf9 ccbd
00000180: 0c29 86bc 38b9 2abe 4eed 1fbe 1908 503d
00000190: b6fc 14be f14d 01be e9c1 84bb a9d8 04be
000001a0: 1465 3e3e 9cfb aebd 0c7f 04be 4d3c 7cbd
000001b0: e0e4 38be 72f6 0e3e d095 393e 3007 f4bd
000001c0: 2c3d aabd 86b1 553e 53a3 25be 84ab 173d
000001d0: c13c 46be 69fd 4ebe 6320 0fbb 0638 0abe
000001e0: 7404 f83d 98cf 93bd 9cd1 8c3b 11d1 d2bd
000001f0: df8f 053e 2567 573e cc4a 36bd e9f8 08be
00000200: 4484 46be 161b 413e b49d 063e b541 033e
00000210: 2a4a f43d b093 fb3d 1c9f a23d b8b0 213e
00000220: bffd 243e f675 b43d b1c2 833e 6b82 7c3e
00000230: 0122 0fbc 6ef7 c1bd f8bb 963c f5cb 413e
00000240: b0d9 403e a444 c7bd 8a8f 86bd eec8 403d
00000250: 5f01 5fbc 86a1 863d 28db 123e bfa2 b33d
00000260: 8d7d 233e 9bd0 4cbe 34b7 a8bd 490b b93d
00000270: edc3 14be ce7c 3dbe b726 243e 3d4f 303e
00000280: c4ad 33be 101f c03c c564 103e 1df1 0a3e
00000290: ebfd 5f3e 9b2f e6bd 7421 8b3d a300 6fbe
000002a0: 96a1 eebd c3cf 87be 0dd6 02bd d63b 0a3e
000002b0: 0ed1 8b3e cbcd e3bd d81c 63bd 9f8e 50bc
000002c0: d6c4 a8bd ce8d 04be 9f16 233e caa1 293e
000002d0: 3c27 3f3e bf76 fbbd 8eac 273e 1cdd 8abd
000002e0: 742e 57bd f896 76bd 3024 32bc c088 c8bd
000002f0: e082 fa3c 0c95 13be 1859 bc3d b405 40be
00000300: 3004 a6bd 80ed 1fbe 5875 1a3e d650 1d3e
00000310: 851d 36be 72e3 f9bd 72ed 4c3e 0871 853d
00000320: db0e 1c3e 2832 2bbe e2b0 263e c46c 1f3e
00000330: 49c9 1abd 858f 9dbc ee0c 233e 8347 3d3d
00000340: 893e 943d f7d7 05bd 026d a0bd 901e f1bd
00000350: f444 593f 90c0 1d3b 9e32 4b3e f8f7 193e
00000360: e5f8 0bbe fdeb 893c fe55 4dbd 2c32 1f3d
00000370: 48e8 163e 542b fc3d f10d 02be 72af 03be
00000380: 640a 35be 47ce 54be 687e 003e c0e8 1fbe
00000390: 45b3 1dbc 04d7 b0bb 4039 a63c b60b febc
000003a0: 3e40 d73d 1bcd 093d a231 243e a564 f93c
000003b0: 4ffb a9bc e4a7 603c a539 063e 2d92 813c
000003c0: 596b 1e3e 7bf5 b7bc e528 dfbc 2bc4 353e
000003d0: 6e23 67be 5432 1d3c 1057 453e 5c3d fbbd
000003e0: 14d8 2bbd 340a 1bbc 7d58 6a3d 3e06 8f3d
000003f0: aabc 9dbc fca5 b43d 247c c4bd d911 9d3d
0.20381185 0.011585608 0.105166554 0.008207008 0.06425834 -0.13777101 -0.17382425 0.17053202
0.084795296 0.11040875 -0.2219422 0.015117601 -0.20857006 -0.025588885 -0.011820823 -0.15731186
-0.22142108 0.0014716983 0.20108941 0.20151997 -0.13832441 -0.03281042 -0.17999278 -0.21403664
-0.11682383 0.17761801 -0.077317104 -0.021312105 0.18497254 0.045438156 0.12773374 0.10587705
0.23985794 0.027208548 -0.18082686 -0.26999235 -0.17687419 0.11853743 0.056061782 0.0030393386
-0.17028308 -0.16468745 0.21121219 -0.010147728 -0.22103068 0.023885833 0.014329058 0.056612965
0.14318267 0.11398346 -0.15854187 -0.20141347 0.13092537 0.15398893 0.11072624 0.12158747
0.24574812 0.14732951 -0.19053487 0.033474624 -0.15185434 0.026062513 0.007768874 0.18544212
-0.21037838 -0.2411921 -0.06646925 0.014993896 0.14072403 0.20345432 0.12705651 0.039091676
-0.034189634 -0.058693323 -0.12228449 -0.016494155 -0.17244367 0.07660516 0.14935961 0.12426647
-0.22171189 0.18762451 -0.1379355 -0.014706949 0.20839772 0.123339914 -0.06685345 0.13569742
-0.20678985 0.16946593 0.23134314 -0.007897589 0.03680101 -0.05246924 -0.14155492 -0.10008581
-0.016376995 -0.16672218 -0.15617868 0.050788973 -0.14549527 -0.12627389 -0.004051436 -0.12973274
0.18593246 -0.085440844 -0.1293909 -0.061580945 -0.18056059 0.13961199 0.18123555 -0.119154334
-0.08312449 0.20868501 -0.16175584 0.037028804 -0.19359113 -0.20213856 -0.0021839372 -0.13497934
0.12110224 -0.0721733 0.0042974483 -0.102937825 0.13043164 0.2103544 -0.044504926 -0.13376202
-0.19386393 0.18857989 0.13146096 0.12818034 0.11928208 0.122840285 0.07940504 0.15790069
0.16112421 0.08811562 0.25734475 0.24659126 -0.0087361345 -0.094710216 0.018400177 0.1892546
0.18833041 -0.09729889 -0.06570347 0.04706662 -0.013611167 0.06573777 0.14341414 0.08771276
0.15965863 -0.20001452 -0.08238068 0.090353556 -0.14527865 -0.1850464 0.16030394 0.17217727
-0.17546755 0.023452312 0.1410094 0.1356854 0.21874206 -0.11239549 0.0679349 -0.23340087
-0.11651914 -0.26525697 -0.031942416 0.13499388 0.27307934 -0.11123236 -0.05544743 -0.012729316
-0.082406685 -0.12944719 0.15926598 0.16565624 0.1866731 -0.122785084 0.16374418 -0.067804545
-0.052534536 -0.06020257 -0.010872886 -0.09791708 0.030579984 -0.14412326 0.09196681 -0.18752176
-0.081062675 -0.15617943 0.15083826 0.15362868 -0.17784698 -0.12201585 0.20012453 0.065156996
0.15240042 -0.16718352 0.16278413 0.15568835 -0.037789617 -0.019233475 0.15922901 0.046210777
0.0723849 -0.032676663 -0.078332916 -0.117734075 0.8487084 0.0024071075 0.19843528 0.15035999
-0.13669164 0.01683616 -0.050130837 0.038866207 0.14737046 0.12312952 -0.1270063 -0.12859896
-0.17679745 -0.20781814 0.1254822 -0.15616131 -0.009625261 -0.0053967256 0.02029097 -0.031011444
0.105103 0.03364287 0.16034558 0.030443499 -0.020749716 0.013711903 0.13107927 0.015816772
0.15470637 -0.022455921 -0.02724118 0.17750613 -0.22572109 0.009594519 0.19271493 -0.12267563
-0.041954115 -0.009462882 0.057213295 0.069836125 -0.019255001 0.088207215 -0.095939904 0.0766942

encoder.fc1.bias f4 [400]
00000000: bb6b 5fbe 18fd 5b3e 0fcf 933e 871b 403e
00000010: 2e10 85bb c11b 5a3e 4249 23be a24c c7bd
00000020: 8664 07be 4479 eebd 8b52 a03d 9118 b7bd
00000030: 5c13 7dbd 83a8 c03d 8948 45be 3db1 5e3e
00000040: 91d6 663e 6b0f 7e3e a3ea 1cbe c205 06be
00000050: 7173 213e b462 c93d 880c da3e 653a 8abe
00000060: c2a8 7dbe 9cbf 96be 3bae d7bd b617 a13d
00000070: 30f4 a6be c900 42bd 9ef6 4dbd dba9 823d
00000080: 85ea 933e 833c 7f3d f608 b3bd aeaa 543e
00000090: 055e 1abd 6939 ffbd 6c51 b6be 4e43 1abc
000000a0: 3f6c 99bd f3e1 efbd cc2b 393d 8891 b63e
000000b0: bc87 5dbe 6ac7 493e 3e76 31be c958 bcbd
000000c0: 700a 743e acc6 25be bec8 4dbe 1b19 85bd
000000d0: 1930 18be beb1 29be c83c abbe 41d2 af3d
000000e0: a1b1 46be c0c8 1abe f51e 433d a0d4 a8bc
000000f0: b23c 81bd ac9c 13be b674 41bd 4c32 83be
00000100: e0b3 4cbe f7fb afbc 12e2 143e 285b 803e
00000110: bc34 19be 78e8 11be a748 cc3d d446 56be
00000120: b561 1e3d cb7c 0e3e 6f48 21bd 065f 723e
00000130: cbc0 98be d35e 83be d170 5cbc a8e0 e13e
00000140: d996 b73c 6c2e 3e3e f4fb 9bbe aa5e 57bd
00000150: 1b00 90be 6193 b6be 2920 63be bb4d 0abe
00000160: d2da a63e 6388 47be 857e 9e3e 87bb 60bd
00000170: ea70 33be 04f8 d83d 7cb3 19be 2f98 4f3d
00000180: 883c 773d 4afa 5cbe 3364 233e ae82 02be
00000190: 59a1 1dbe 334b 233e 3465 1fbe 30f5 2cbd
000001a0: c7a6 0bbe 224b 8d3c 8dc7 7fbd b96b a7be
000001b0: 2d9f 8d3e 1475 c83c 555c 873e 3b5d a9bd
000001c0: 1a02 bbbd 01fe a5bd 976d 8f3d 4d5d 6bbd
000001d0: 678a 5e3e 4de9 73bd e101 08be ba21 5c3e
000001e0: f565 a83e 4809 fcbc 3868 81bd b829 2dbe
000001f0: 9b47 99be 2710 63be 6581 01be 22a3 c53e
00000200: 1ca6 953e 06ad 193e 3842 8fbd d7c5 e8bd
00000210: 1be0 77bd 4bea 5d3e b1e7 583e 6307 21be
00000220: 9c06 1cbd 481f 5bbe b6f1 173e 21ca ad3c
00000230: 3d53 26be 2921 5abd 9ace c93d 0ba2 41be
00000240: 86f1 df3e 2f7c 16be 343a d13d b4f7 94bd
00000250: 0c17 0fbe 8ca5 2ebe e8b8 f63a e87d 34bd
00000260: 1748 fa3d 2226 a7be df86 47be 18b0 4cbd
00000270: bd0c 2fbe 5e42 6abe 09b1 47be 6ac0 9e3e
00000280: d31a 71be 9cb9 223e 56db 993e 8281 15be
00000290: 4f2f 443e cd7b 033e d6ec 9d3e 62a2 903d
000002a0: 3220 af3e 32b5 10be 06ac 1c3c 8717 12be
000002b0: 0130 8d3e ef09 7d3e 0f4d 8dbe 9575 b73e
000002c0: bc28 9fbe 4136 923d 5103 89be 6973 673e
000002d0: a7b8 fe3c 2b1d 38be 2fd9 5abe 2ff7 9f3e
000002e0: aa60 b8be e1a8 8a3e df44 383e b153 85be
000002f0: 5123 7cbe e075 8cbe c847 71bd d9ed 5fbe
00000300: 7eed 813e a7ae 23be dde3 61be 18d4 033d
00000310: a27a 89bd de59 9b3e 9ac7 973e 2f90 d2bd
00000320: 056c 33bd cb9a b63e 94e2 6fbd bb61 cf3d
00000330: c892 8d3e ecff 5cbe ce5e 423e 4ad8 363e
00000340: 3b27 17be 9a16 80bd 06b7 2f3e d881 47be
00000350: 1497 9cbe d085 eabd e182 4e3e e638 d23d
00000360: 4ab2 4bbe cbc1 16be 33eb 163e cfaf 77bc
00000370: bb37 d23d ef68 563e 7589 183d af3b c5bd
00000380: 116d 1ebe bd1c edbd 6450 b23e 3c19 3d3c
00000390: 2465 90bd 1513 7fbe 84e3 cbbd 478d 953e
000003a0: 62f7 65be b8cf 44bc 2940 693c e1a1 9ebe
000003b0: 9eab b23d b94e 93be 2026 973e ef9e 943e
000003c0: fc99 833c 53ed 9abe 4d88 1abe 6902 62be
000003d0: 1e36 213e b53f 803e f80d 493e 9707 a23e
000003e0: 2403 84be fcce 7a3e 4877 223e 3d84 5abe
000003f0: 744e 943d 0ccd 18be aef7 31be 963d 983b
-0.2181844 0.21483266 0.2886891 0.18760501 -0.0040607667 0.2129965 -0.15945914 -0.097314134
-0.1322194 -0.11644223 0.07828244 -0.089402325 -0.06178604 0.09407141 -0.19265951 0.21747299
0.22542788 0.24810569 -0.15323882 -0.13088134 0.15766694 0.09833279 0.42587686 -0.26997676
-0.24771407 -0.2944306 -0.10531279 0.078658506 -0.32608175 -0.04736403 -0.05028402 0.063800536
0.28889862 0.062313568 -0.087419435 0.20768234 -0.03768732 -0.12462122 -0.35608995 -0.009415461
-0.074913494 -0.11713018 0.045207784 0.35657907 -0.2163381 0.19704977 -0.17330262 -0.09196622
0.23832107 -0.16189069 -0.20096108 -0.06498929 -0.14862098 -0.1657171 -0.3344481 0.085850246
-0.19403698 -0.15115643 0.047636945 -0.0206092 -0.06310405 -0.14415234 -0.047230445 -0.2562431
-0.19990492 -0.02148245 0.14539364 0.25069547 -0.14961523 -0.14248836 0.09974795 -0.20925456
0.0386674 0.13914792 -0.03937572 0.23669061 -0.2983459 -0.25658283 -0.013454632 0.44116712
0.022410797 0.18572396 -0.30465662 -0.052580513 -0.2812508 -0.35659316 -0.22180237 -0.13506214
0.32588822 -0.19485621 0.30955902 -0.05486634 -0.17523542 0.1059418 -0.15009874 0.050682243
0.06036046 -0.21579853 0.15956192 -0.12745163 -0.1539358 0.15946655 -0.1556595 -0.042226017
-0.1363784 0.01724774 -0.062446166 -0.32699373 0.27660504 0.02446989 0.2643763 -0.082697354
-0.0913126 -0.08105088 0.070033245 -0.057462025 0.21732484 -0.059548665 -0.13281967 0.2149724
0.32890287 -0.030766144 -0.06318706 -0.16910446 -0.29937443 -0.2217413 -0.12647016 0.38601023
0.29228294 0.1500741 -0.06995052 -0.1136586 -0.060516458 0.21671407 0.21182133 -0.15725474
-0.03809224 -0.21398652 0.14838299 0.021214547 -0.1624269 -0.05325428 0.09853859 -0.1890947
0.43738955 -0.1469581 0.102161795 -0.07273808 -0.13973635 -0.17055339 0.0018823417 -0.044065386
0.12220781 -0.3264628 -0.19485043 -0.049972624 -0.17094703 -0.2287688 -0.19501127 0.31006175
-0.23545389 0.15891117 0.30050153 -0.14600185 0.19158672 0.12840195 0.30844754 0.07062222
0.3420425 -0.1413162 0.009562498 -0.14266787 0.27575687 0.2471082 -0.27597854 0.35831895
-0.31085765 0.07139254 -0.26760343 0.22602619 0.031093908 -0.17979877 -0.21371911 0.31243274
-0.3601125 0.2708197 0.17995022 -0.26040414 -0.24622847 -0.2743368 -0.058906347 -0.21868075
0.25376505 -0.15984593 -0.22059579 0.03218469 -0.067128435 0.30342 0.2964447 -0.10281407
-0.043804187 0.35664973 -0.05856569 0.101260625 0.27651048 -0.21582001 0.18981478 0.17855945
-0.14761059 -0.06254311 0.17159662 -0.19483125 -0.30584013 -0.11451304 0.20167114 0.10264759
-0.1989223 -0.14722364 0.14738159 -0.0151176 0.10264536 0.20938466 0.037240464 -0.09630524
-0.15471293 -0.11577747 0.34826958 0.011541661 -0.07050541 -0.24909623 -0.099555045 0.2920935
-0.2245765 -0.012012415 0.014236488 -0.3098288 0.0872414 -0.28770998 0.29521275 0.29027507
0.016064636 -0.3025919 -0.15091057 -0.22071232 0.157433 0.25048605 0.19634235 0.31646416
-0.25783646 0.24493021 0.15865815 -0.21339507 0.07241526 -0.14921969 -0.17379639 0.0046460135

encoder.z_mu.weight f4 [1, 400]
00000000: 8d51 2cbd 9bd2 df3c 4e1a c33c b48a 0d3d
00000010: 3816 61bd 162a a73c 8558 e0bd 4815 39be
00000020: 66ad c7bd 681a 3ebc 0382 133c 713f b93c
00000030: f302 0abb b6e4 953d ec24 90bc 2d9f a13c
00000040: 63dd 993d b5a8 393e c7c4 7cbd 96cf b13c
00000050: 1d53 f53c 1630 20bb add5 9b3e 9205 40be
00000060: 3ec6 1dbe 84f9 22be 529d 53b9 153f 77bc
00000070: c229 98be c552 0cbd 94f5 95ba fb27 f4bb
00000080: e1b1 4a3e a4d8 323e 0469 753c d52a 663d
00000090: 84ac a738 655d 33bd e68b 10be 0eea cfba
000000a0: 1984 8dbb 5662 6cbd fea2 8a3b 9074 7b3d
000000b0: a681 a73c 977d cebb 47ec 81bd e9de 0abe
000000c0: f0bf a93e 661a 5ebe 18ee fcbd d2d9 c93c
000000d0: bf4b 36be 6387 45bd 494e a0be 52b7 a13d
000000e0: c2dd 463c 1c17 61bd 123f fa3a ad1b 0e3d
000000f0: e158 163d 1c88 bfbe cdaa 993c eb30 cebd
00000100: c8fa 213c 6199 113d 7a26 653d b5a9 773e
00000110: 1c19 aebd 1860 abbb 3090 123d d89c 27bc
00000120: bce6 853a 02ae 333e 93f0 b83c 8faf b83e
00000130: 4f48 0dbf aebd b2be 94fd 02bd a995 303e
00000140: ce0e eabc 9d8c 843e f528 6dbd 7713 2e3d
00000150: 4ff1 39be 6ae1 88be 2b04 50be fecd 46bd
00000160: 02a5 d53e 48bf 4fbc 56e7 d93c 6fe0 2b3b
00000170: 588b 273c 1e95 9c3d a705 b33c 2577 d63c
00000180: 4072 b33b f3fd cdbd c1d3 ed3c d1f4 393d
00000190: cb90 92bd f772 753e b118 373d dbc5 20bd
000001a0: 56cc 6dbd 939c 24bb ea16 9bbd c4b0 39be
000001b0: e0f4 643e 1f37 273c 096f ca3d 56f9 c5bd
000001c0: 9030 e33b d2ed f83c f86e a13c b8c1 9e3c
000001d0: fcbb 9e3e 50b1 23bd 7f37 b03c 798b ce3e
000001e0: 9f13 813e b81b 413c 68aa 73bd 81fb b7bb
000001f0: bfe4 82be 31b3 373d 639b 933c 529b 1e3d
00000200: 4c79 043e e320 0cbd a33a 83bd 4dfb d9bc
00000210: 5332 20bd a7c8 7f3e 349e e03d 6c71 8abe
00000220: 9234 923c 3a7e 37bc 42c4 ce3e be07 113d
00000230: a678 aabc 53e7 8bbd 58b5 c73c a5e5 913c
00000240: cac9 943d e05c 8fbc 9b77 b2bc 2844 b9bb
00000250: 4a75 e9bc 55f7 22be 6606 3ebc 90c4 edbb
00000260: 814d f63c 1bf0 a3be d6b2 37be 0263 ef3c
00000270: 1fb0 a9bb 8cc0 c6bd 09d7 273d 5548 b33c
00000280: 4102 a6bd a3c3 b03e 117c 873e 4089 7dba
00000290: 3a68 833d a324 503e 67e3 7a3c 0212 9bbd
000002a0: 2644 a63d ff40 a4bd 2538 b43b 91ac 89be
000002b0: 1e45 183e 8e65 453e a1fb d2bd 1632 163e
000002c0: fb68 86be c28e 37bd df76 5ebe 4568 bd3e
000002d0: 3752 2cbc 9980 243d 5b44 08be 4e43 a73e
000002e0: 4ffb 88be 10b4 5cbb f6d3 cf3d 76ec d9bd
000002f0: 3372 c7be dd10 99bd c912 28bd 7bd2 16be
00000300: e1e0 813d 63c9 97bd 605d ff3a db47 37bd
00000310: 555d 0e3d 3e04 383d e591 963d 03f7 54bd
00000320: 7d9c 3ebd 8a5f 5e3d 3253 23bd 10f0 c13d
00000330: 93df 603e e092 5bbb 32ce df3c 05d2 443c
00000340: eb6f d1bd c600 66bd f16d bd3d 7a4d d6be
00000350: d469 ecbe 0cd6 c3bd 3991 6c3d 226e 82bb
00000360: bdd5 c1bd fe77 b5be 5cfc 403e 22c0 fb3a
00000370: c12b 9b3e 1377 c03e 1b57 693e 9d61 373c
00000380: ba19 db3c 5a5b 18bd a28c 863d 1e11 c73a
00000390: 0105 19bc de44 6abe 7a4c 2a3d 773b 233c
000003a0: 6dec 00be 02c0 d0bc 1c57 29bd a182 c6be
000003b0: 2d18 5ebd bc1d edbd b1b8 c53e ec25 8a3e
000003c0: 184f 1abc 276a a1be 655d 6fbd 22c9 f2bd
000003d0: 5cc5 6e3d 2572 9a3e fe2d 823c 2cef 203e
000003e0: 8ec1 b7be 3982 2d3d c2db 303e fefb e6bd
000003f0: a924 213d 6e19 1dbd db11 26be fe6f 70bd
-0.04206996 0.027322104 0.023816254 0.034556106 -0.05495283 0.02040581 -0.10954384 -0.18074524
-0.0974987 -0.011602975 0.009003165 0.022613259 -0.0021058887 0.07319014 -0.01759573 0.019729221
0.07512929 0.18130763 -0.0617111 0.02170543 0.029946858 -0.0024442724 0.3043646 -0.18752125
-0.15407655 -0.15915495 -0.00020181134 -0.0150907235 -0.2971936 -0.034258623 -0.0011440986 -0.007451055
0.19794418 0.17465454 0.014978651 0.05619319 7.995314e-05 -0.04379024 -0.14115867 -0.00158626
-0.004318726 -0.057710968 0.004230856 0.06139046 0.020447563 -0.0063015926 -0.063438945 -0.13561596
0.3315425 -0.21689758 -0.123501 0.024639998 -0.17802332 -0.048224818 -0.31309727 0.07896294
0.012137832 -0.05495368 0.0019092283 0.034694362 0.036705855 -0.3740853 0.018758202 -0.10067924
0.009886451 0.035546664 0.055944897 0.24185832 -0.08500883 -0.005229961 0.03578204 -0.010230266
0.0010215859 0.17546847 0.022575652 0.3607144 -0.5518846 -0.3491034 -0.031980112 0.17244591
-0.028571513 0.2588853 -0.057900388 0.042499032 -0.18158458 -0.26734477 -0.2031409 -0.048536293
0.41727453 -0.012679882 0.026599567 0.0026226302 0.010226093 0.07645629 0.021853281 0.02617986
0.005476266 -0.100582026 0.029031636 0.04539949 -0.07156523 0.23969637 0.044701282 -0.03925119
-0.058056198 -0.002511774 -0.0757273 -0.18133837 0.22359037 0.010206013 0.098844595 -0.09666698
0.0069332793 0.030386839 0.019706234 0.019379482 0.31002796 -0.03996402 0.021510838 0.40340784
0.25210282 0.011786394 -0.059488684 -0.0056146984 -0.25565144 0.044848625 0.01801843 0.038722344
0.12936896 -0.03421105 -0.064076684 -0.026609087 -0.039110493 0.24978887 0.10967675 -0.2703966
0.017847333 -0.011199528 0.40384108 0.035407774 -0.020809483 -0.06831231 0.024378464 0.017809698
0.07265051 -0.017500341 -0.021785548 -0.005653877 -0.02849831 -0.15914662 -0.011598205 -0.007256098
0.030066254 -0.32019123 -0.17939314 0.029222015 -0.005178466 -0.09704694 0.040976558 0.021885077
-0.08105899 0.3452426 0.26461843 -0.0009671636 0.06416364 0.20326476 0.015313006 -0.07571794
0.08118467 -0.080202095 0.005499857 -0.2688947 0.14870116 0.19277021 -0.10301901 0.14667544
-0.2625197 -0.04481388 -0.21725033 0.36993614 -0.010517648 0.040161703 -0.13307326 0.32668537
-0.26754233 -0.0033676662 0.1014785 -0.106408045 -0.38954315 -0.074739195 -0.04103354 -0.1472873
0.0634172 -0.07411458 0.0019482784 -0.04474626 0.034756977 0.04492592 0.07352046 -0.05199338
-0.046535958 0.054290332 -0.039874263 0.094696164 0.21960287 -0.0033504292 0.027320001 0.012012963
-0.10226425 -0.05615308 0.09249485 -0.41855985 -0.4617449 -0.095623106 0.057755683 -0.003980414
-0.094645955 -0.3544311 0.18846267 0.001920704 0.3030682 0.37590846 0.22787134 0.011192706
0.026745666 -0.037196495 0.06569792 0.0015187596 -0.009339572 -0.22877833 0.04157684 0.009962908
-0.1259019 -0.025482181 -0.04134284 -0.38771537 -0.054222275 -0.11577937 0.3861747 0.26982057
-0.0094182715 -0.315263 -0.058438677 -0.11854769 0.058293685 0.3016521 0.015891071 0.15716237
-0.35889858 0.042360518 0.17271331 -0.112785324 0.039341602 -0.03835433 -0.16217749 -0.058700554

encoder.z_sigma.weight f4 [1, 400]
00000000: 2494 503c 1b34 c0bd c81a 7ebe 046c c1bd
00000010: 2f81 123c 9178 533e 5d11 9fbd 0bc0 f3be
00000020: c79e 05bf 72e7 8f3c 8e25 96be 8f79 1d3c
00000030: 3da7 143d b524 1e3e 478c b5bc 499f f1bd
00000040: 3772 dabd f2b2 39bd 8168 f0bd 828b ad3c
00000050: 4c55 063e 77ac 4c3e d864 c1be cf21 bebd
00000060: fd47 a13d f157 203e 73a1 adbc dc1c ebbd
00000070: 2752 3f3e 5a1c 0e3d 1d5c 273d e0a4 b8bd
00000080: ac1d 8cbe e910 5e3e e507 3f3d daeb 8bbd
00000090: 4c11 febc cb09 883e 3b89 96bd f77e df3b
000000a0: 0b88 0b3d 55e9 3c3d 6f21 da3d 73e8 7abe
000000b0: 1ac3 8a3c 2ed2 3ebe bc7b 373d 5e3e 223e
000000c0: 9df9 203e e616 623e 1063 cdbd e249 293b
000000d0: d10b 3abf 1299 a03c fbe2 9a3e e1fe 513e
000000e0: c272 213d a65f d5bd 8abd 06be 32e9 ea3c
000000f0: 2d2a e6bc 07da afbe ac81 613d a04f 5b3d
00000100: 4cbf 723c aa4e 33bd 5972 24be 2428 87be
00000110: 0cc9 3f3d 7d6b fabc deb7 7c3d a872 0ebc
00000120: d8a6 523b 90c7 373e 7490 293c 9c32 77be
00000130: a129 ddbe 4901 093d 3d6d d63c 4819 babe
00000140: 3aa9 1bbc 8d13 bcbe e031 df3b 917a 03bd
00000150: 06a9 653f 6dc0 25bd b950 673e 2002 3fbe
00000160: 4f77 bebe f0d4 f03b 8d32 3fbe a1d1 acbd
00000170: be58 823c 9a63 b4be 534a 333d dc87 c33d
00000180: 7c4c 0abd 2c0a 093e 90a2 1e3e 68d0 943c
00000190: 338d 5c3d f386 a3be 1815 9a3b 98cc 2dbc
000001a0: ba7b 44bd d158 0c3d e69d b63c 1252 333e
000001b0: de88 98be 2698 253d 7bfa 88be 7776 bd3d
000001c0: 8cb6 09bc 31ad f03c 76a7 96be f843 0cbd
000001d0: 9794 96be cb99 dfbd e63c d2bc c204 b6be
000001e0: 11ed babe accd 713c 330d 26bd 268e 13bb
000001f0: 8cda 853e 7de2 cebc c09a ce3b 14fc 94be
00000200: 505c f2bd b86a 53be dc36 da3d 97fc b5bc
00000210: de65 d0be 2cc2 00bf 5d19 8ebe 684e 7fbe
00000220: 4a6f fb3c e461 88bd 8749 363e 0ba0 2e3c
00000230: 119e 25bd 1bd6 2bbe 946d b8bc 2e17 6e3d
00000240: 5d7e 7ebe 2008 a6bc 495e a0be 7a24 d63c
00000250: 96e3 c33c 11fe 143e cacd d13c 77c8 ccbc
00000260: d9a8 9a3e 225d a83d eb8a 593e d4dd 46bc
00000270: 9a6d a63c b53d 46bc 7222 f43c b369 45be
00000280: ab31 05be 1ac0 4d3e 7dbd 75be bf57 223d
00000290: 8608 333e fef6 8ebe 5b77 e6bd 4b10 dbbe
000002a0: b69d 87be 856d b53d 408c 873d 5b08 2ebf
000002b0: 889b 86be bcdd 80be 3407 04be 9ff2 39be
000002c0: 5089 983e 0744 22bd 1c0a a1be deee c7be
000002d0: 2e92 9dbd 7d08 c6bc e197 233e 9d20 97be
000002e0: bff9 113e d213 25be a4cb eebd 8288 82bc
000002f0: 785e 0f3d 142a 0f3d fbfb 1abd 0c24 8a3e
00000300: 9a7a bbbd 7b5c 183b f992 423d f318 47bd
00000310: 44cc 4d3c a6da c6bd 1f85 0cbe c73f 563e
00000320: 4ad3 c83c 7a0b eabd 047a 29be 7285 413e
00000330: 9627 85be d46a 0cbd 82c7 54bd 65ab dbbd
00000340: ff8b 10be 08cf 11be b3ea 9f3e 64ec dbbe
00000350: 613d 92be ba6f 853d 01f5 5d3e 288d 113e
00000360: ee9d 2c3d 99ea 6bbe 4236 fabd faff 8c3d
00000370: 4997 683e d156 ccbe a4fc 133e c4d1 b83b
00000380: f042 1dbd 444d b9be 4a22 23be 06b0 063c
00000390: 26e2 3cbc b7f0 763e f0fa 83bd 766f 4bbe
000003a0: 4547 8c3d bf5f 53be abbe 5fbd def8 933e
000003b0: 191a 1a3c 4523 0a3e db2b bcbe c5e7 9cbe
000003c0: 64dc dc3c 468e 803c 457e 22be dede c2bd
000003d0: 1ae4 97bd bae7 483e cb62 2b3e e1dc 93be
000003e0: c3f3 c3be f54b 8abd c0ab 3a3e c6b3 223e
000003f0: 0ca2 983d 36ab d63c b90e 54be 277d 06bd
0.012730632 -0.09384938 -0.24814904 -0.094444305 0.008941933 0.20651461 -0.07766984 -0.47607455
-0.521954 0.017566416 -0.29325527 0.009611501 0.036292303 0.1544369 -0.022161616 -0.11797959
-0.10666316 -0.04533667 -0.117386825 0.021184687 0.13118476 0.19987665 -0.3777225 -0.09283792
0.07875059 0.15658547 -0.021195149 -0.11480114 0.18683682 0.034695007 0.04085933 -0.090158224
-0.27366388 0.21686138 0.04663839 -0.068320945 -0.031014107 0.2656997 -0.073503934 0.0068205553
0.034065288 0.04612096 0.10650908 -0.24502735 0.016938735 -0.18634865 0.044795737 0.15844104
0.1572022 0.22079048 -0.1002866 0.002583139 -0.7267428 0.01960424 0.30251297 0.20507385
0.039416082 -0.10418634 -0.13158241 0.02867565 -0.028096283 -0.3434603 0.055055305 0.053542733
0.014816117 -0.04377619 -0.16059245 -0.26397812 0.046822593 -0.030568833 0.061698787 -0.008694328
0.0032142904 0.17947221 0.010349382 -0.241404 -0.43195823 0.03344849 0.026175136 -0.36347413
-0.009500796 -0.36733666 0.0068113655 -0.03209931 0.89711034 -0.040466715 0.22589387 -0.18653154
-0.372004 0.007349603 -0.18671627 -0.08438421 0.015911456 -0.3523224 0.043772053 0.095473975
-0.033764347 0.13382787 0.154917 0.018165782 0.053845596 -0.31938896 0.0047022216 -0.010607861
-0.047969557 0.03426439 0.022292089 0.17511776 -0.2979192 0.040428303 -0.267536 0.09251111
-0.008405339 0.02937946 -0.29424638 -0.034244508 -0.2941024 -0.109180056 -0.025663804 -0.35550505
-0.36508992 0.014758509 -0.04053993 -0.0022515147 0.261433 -0.025254482 0.0063050687 -0.2909857
-0.118340135 -0.20646179 0.10654995 -0.02221517 -0.40702718 -0.5029628 -0.27753726 -0.24932253
0.030692715 -0.06659296 0.17801486 0.010658274 -0.040433947 -0.16780894 -0.022513188 0.058127575
-0.24852891 -0.020267546 -0.31321934 0.02614044 0.023912232 0.14550044 0.025610823 -0.024997933
0.30206946 0.08220889 0.21244399 -0.012137849 0.020315934 -0.012099673 0.029801581 -0.19278602
-0.13007228 0.20092812 -0.23998065 0.039634462 0.1748372 -0.27922815 -0.11253234 -0.42785868
-0.2648751 0.0885878 0.066185474 -0.679815 -0.26290536 -0.2516917 -0.12893373 -0.18158959
0.2979226 -0.039615657 -0.31453025 -0.3904943 -0.07693897 -0.02417397 0.15975906 -0.2951707
0.14255427 -0.16120842 -0.11659935 -0.015934233 0.0350022 0.03495224 -0.037837964 0.26980627
-0.09154244 0.0023248482 0.047503445 -0.048607778 0.012560908 -0.09709673 -0.13722657 0.20922767
0.024514813 -0.1142797 -0.16550452 0.18898562 -0.26006764 -0.034281567 -0.051948078 -0.1072605
-0.14115904 -0.14239132 0.3123375 -0.4295379 -0.28562453 0.06515451 0.21675493 0.14214003
0.0421428 -0.2303871 -0.1221738 0.06884761 0.2271396 -0.39909986 0.14451844 0.0056402404
-0.038393915 -0.36191761 -0.15931049 0.008220678 -0.011528527 0.24115263 -0.06444347 -0.19866738
0.06849531 -0.20641993 -0.054625195 0.28900808 0.009405636 0.13490017 -0.3675221 -0.30645576
0.02696056 0.015692841 -0.1586848 -0.09515165 -0.07416554 0.19619647 0.16736905 -0.28879455
-0.38271913 -0.06752769 0.1822958 0.1588889 0.07452783 0.026204687 -0.20708741 -0.0328342
