Weight_Files/VAE_trained_on_1D&3D/vae_net_torque.pth (torch_old, 84660 bytes, 23 tensors)

encoder.conv1.weight f4 [16, 1, 3]
0	0x3e9fb941	0.31196025
1	0xbe795076	-0.243471
2	0xbdf264e1	-0.118356474
3	0x3e8d4566	0.2759201
4	0xbf08da18	-0.53457785
5	0x3eb712a4	0.3575641
6	0xbe30ddb5	-0.17272075
7	0x3e77cf6a	0.24200216
8	0xbd3ce488	-0.046116382
9	0xbdbebded	-0.09313569
10	0x3e045fc2	0.12927154
11	0x3c58c813	0.013231295
12	0x3e52c131	0.20581509
13	0xbe63eaf7	-0.222576
14	0xbdf7182e	-0.12065159
15	0xbd367b1f	-0.04455101
16	0x3db95430	0.090492606
17	0x3b82c509	0.0039907736
18	0x3efcf1b8	0.49403167
19	0x3e4c13c8	0.19929421
20	0xbe567233	-0.20942001
21	0xbeb28872	-0.34869725
22	0xbdc630e4	-0.09677294
23	0xbe7f02f2	-0.24903467
24	0xbe433710	-0.19063973
25	0x3cbc8327	0.023011757
26	0x3eaea78b	0.341122
27	0x3e9161ae	0.28394836
28	0xbf192ea0	-0.5983677
29	0x3ea298e8	0.31757283
30	0xbd4814ee	-0.048848085
31	0x3ed1eec4	0.41002476
32	0x3e5f6ba8	0.21818411
33	0xbf06aaec	-0.52604556
34	0xbf0c87f4	-0.5489495
35	0xbe8e9438	-0.27847457
36	0x3f02d8f9	0.51112324
37	0xbdb40fa5	-0.087920465
38	0x3e83ccc9	0.25742176
39	0xbea66f0d	-0.325066
40	0x3f0d2f06	0.5514988
41	0xbe7562eb	-0.23963515
42	0x3ebff8c2	0.37494475
43	0xbd36b490	-0.04460579
44	0xbe9f9c5f	-0.3117399
45	0x3e715569	0.23567738
46	0xbeba468b	-0.36381945
47	0x3de87ca5	0.11351899

encoder.conv1.bias f4 [16]
0	0xbea545b7	-0.3227975
1	0xbe5ced62	-0.2157493
2	0xbf3d3045	-0.7390178
3	0xbeef2363	-0.46706685
4	0x3f0cba78	0.5497203
5	0xbe983117	-0.29724953
6	0x3edddc55	0.43332162
7	0x3eecf3c4	0.46279728
8	0xbe4cefee	-0.20013401
9	0xbef443d5	-0.47708002
10	0x3e7d6190	0.24744248
11	0x3e377c34	0.17918473
12	0xbf07be7f	-0.5302505
13	0x3f0d1e9d	0.5512484
14	0x3ecab695	0.39592424
15	0x3ea365d2	0.3191362

encoder.conv2.weight f4 [8, 16, 3]
0	0x3d37cb68	0.044871718
1	0xbd36098f	-0.04444271
2	0x3cc5cbce	0.024145033
3	0x3c8a7d5e	0.016905483
4	0xbe08cfda	-0.13360539
5	0xbdf05612	-0.117351666
6	0x3db3495d	0.08754227
7	0x3bfad242	0.007654459
8	0x3e112c80	0.14177132
9	0xbc175226	-0.009235894
10	0x3d88fc70	0.06688774
11	0x3d4c4f08	0.049880058
12	0x3c20556a	0.009785989
13	0x3b1a9831	0.0023589248
14	0xbe9effa1	-0.31054404
15	0x3cc62793	0.024188792
16	0xbdc6ebfa	-0.09712978
17	0xbde6038e	-0.11231147
18	0x3c2e40d1	0.010635571
19	0xbd369558	-0.04457602
20	0x3daa1e44	0.08306554
21	0xbdab31c6	-0.08359103
22	0xbe03649c	-0.12831348
23	0x3dd72182	0.10504438
24	0xbd15fd1c	-0.036618337
25	0x3dbf6994	0.09346309
26	0x3d65e4a8	0.056126267
27	0x3cbeb510	0.023279697
28	0x3dc85fe1	0.097839125
29	0x3db4e927	0.08833533
30	0xbdd46f6a	-0.10372813
31	0xbd811e83	-0.06304648
32	0x3d6e065f	0.058111545
33	0x3cd3cc00	0.02585411
34	0xbd7b7bae	-0.061397247
35	0xbd32f7b8	-0.043693274
36	0x3e16f69c	0.14742512
37	0xbcc6b239	-0.024254905
38	0x3dc5f2f7	0.096654825
39	0xbbe7fc9d	-0.0070796744
40	0xbdc0146b	-0.093788944
41	0xbdff7590	-0.12473595
42	0x3de591b1	0.11209429
43	0xbc840805	-0.016117105
44	0x3dc1870e	0.09449588
45	0x3c298a2d	0.010347885
46	0x3cb43a5b	0.022000482
47	0x3d8dc017	0.06921404
48	0x3e8542af	0.26027438
49	0xbce88c7b	-0.028387299
50	0x3d4b9657	0.049703922
51	0x3dcebeb1	0.10094965
52	0x3dd00e02	0.10158922
53	0x3dc869f9	0.09785838
54	0xbd7738ff	-0.06035709
55	0xbd3836ee	-0.04497426
56	0xbb7e6136	-0.0038815266
57	0x3d3f7dec	0.046750948
58	0x3e2e02ee	0.16993305
59	0xbd7e7c3f	-0.06213021
60	0x3d09d74a	0.03365258
61	0xbe473feb	-0.19457977
62	0xbe893d3c	-0.2680453
63	0xbc878b90	-0.01654604
64	0x3db549b4	0.088519484
65	0x3e1005c5	0.14064701
66	0xbdbbeb60	-0.091757536
67	0x3d2d3343	0.042285215
68	0x3e0888f7	0.13333498
69	0x3dc3e1f2	0.0956458
70	0x3db83a10	0.089954495
71	0x3dd210bc	0.10257098
72	0x3de9a228	0.11407882
73	0x3d5f9795	0.05458792
74	0xbd97fa09	-0.07420737
75	0xbd50a3e8	-0.050937563
76	0x3d12a70b	0.035803836
77	0x3d946945	0.07246641
78	0xbd91e6ae	-0.07124077
79	0x3d90b198	0.07065123
80	0x3d82c02e	0.063843116
81	0xbd05debc	-0.03268312
82	0x3d63398c	0.055474803
83	0x3d3f11a8	0.046647698
84	0x3de1a863	0.11018445
85	0x3df62180	0.12018108
86	0xbcc0a9ae	-0.02351841
87	0x3e1ca565	0.15297468
88	0xba5c67a7	-0.00084077794
89	0xbc69dce5	-0.014273857
90	0xbe0b69e7	-0.13614617
91	0xbd9ab282	-0.07553579
92	0xbdadb699	-0.08482093
93	0xbd911579	-0.07084174
94	0x3dad2734	0.08454743
95	0xbd371338	-0.044696063
96	0xbd947266	-0.07248382
97	0x3e02d12a	0.12775102
98	0xbd6f8707	-0.05847838
99	0x3dae01be	0.08496426
100	0xbdad07b3	-0.08448734
101	0x3d138197	0.03601226
102	0xbc81c804	-0.015842445
103	0x3d1185ff	0.03552818
104	0xbd327a62	-0.043573745
105	0xbd39db83	-0.04537536
106	0xbcb64efc	-0.02225446
107	0x3db23039	0.08700604
108	0xbd5a6f21	-0.053328637
109	0xbd407493	-0.046986174
110	0xbe7f1ecd	-0.24914093
111	0x3e13e0d5	0.14441235
112	0x3dcf9e70	0.101376414
113	0x3b687824	0.0035472
114	0xbdce6a39	-0.10078854
115	0x3df7d540	0.12101221
116	0xbd2dc301	-0.0424223
117	0xbc3f2f70	-0.011669025
118	0xbdfea976	-0.12434666
119	0xbce98f78	-0.028510794
120	0xbd9e8644	-0.07740453
121	0x3e14fc8b	0.14549462
122	0xbdc5b3df	-0.09653448
123	0xbd094c01	-0.03351975
124	0x3db9c185	0.09070114
125	0xbba8254e	-0.0051314
126	0x3d83177d	0.064009644
127	0xbd308bf5	-0.043102223
128	0xbd5c77ac	-0.053825065
129	0x3c05f030	0.008174941
130	0x3dd5fc94	0.10448566
131	0xbdcfef35	-0.10153047
132	0x3db02540	0.08600855
133	0x3de07ce8	0.10961324
134	0x3e23c7f6	0.15994248
135	0xbdcbba34	-0.09947625
136	0x3d65eee7	0.05613604
137	0xbe2a55ec	-0.16634339
138	0x3dd99b50	0.10625327
139	0xbd0ae081	-0.03390551
140	0x3c1bc0b9	0.009506398
141	0xbd09e99c	-0.033670053
142	0xbcdf7969	-0.027279573
143	0xbc138652	-0.009004192
144	0xbd782694	-0.060583666
145	0x3e0369d4	0.12833339
146	0x3cdbb571	0.026819916
147	0x3d2f6886	0.04282429
148	0xbe2e8d77	-0.17046152
149	0x3dc4e6f0	0.0961436
150	0x3e41f9e6	0.18942985
151	0x3e4be977	0.19913279
152	0x3dc623bc	0.096747845
153	0xbd92e524	-0.07172611
154	0xbc11a738	-0.008889966
155	0x3de0f0cd	0.10983429
156	0xbe786fe4	-0.24261433
157	0x3badb896	0.0053015454
158	0xbeb46153	-0.35230502
159	0xbdb6b079	-0.08920378
160	0x3dc79f8a	0.097472265
161	0xbe009b38	-0.12559211
162	0xbc790f96	-0.01520147
163	0x3e011406	0.12605295
164	0x3da394fe	0.079874024
165	0x3e0bc8c6	0.13650808
166	0xbcefeeac	-0.029288612
167	0xbde5c2c9	-0.11218793
168	0x3e22cb9b	0.15897982
169	0xbd87e097	-0.06634634
170	0xbd7f08f6	-0.062264405
171	0x3d99b154	0.07504526
172	0xbddd3015	-0.108001865
173	0x3d99b74f	0.075056665
174	0x3de93944	0.11387876
175	0xbdc744f4	-0.09729949
176	0xbe1cac36	-0.15300068
177	0xbc4f2680	-0.012643456
178	0x3d785264	0.06062545
179	0xbb88fb20	-0.004180327
180	0xbd2da70e	-0.042395644
181	0x3d0c8268	0.034304053
182	0xbe234683	-0.15944867
183	0xbd95565a	-0.07291861
184	0xbda33be1	-0.07970405
185	0x3d8d15cd	0.06888924
186	0x3e08d6f7	0.13363253
187	0xbc912720	-0.017718852
188	0xbcd1c3c5	-0.025606045
189	0x3d134957	0.035958614
190	0xbda72b01	-0.08162499
191	0xbe4707fb	-0.19436638
192	0x3e48076f	0.19534086
193	0x3ddf7230	0.109104514
194	0xbd6a76ad	-0.057242084
195	0xbd42b153	-0.04753239
196	0x3dead381	0.114661224
197	0x3e0d3546	0.13789853
198	0xbd0b663d	-0.03403305
199	0x3e4badf2	0.19890574
200	0x3e312a21	0.17301227
201	0xbd8b7a3d	-0.068104245
202	0x3dfd1fc9	0.12359578
203	0xbd82023a	-0.06348081
204	0x3c22929b	0.009922649
205	0xbdfc4c07	-0.123191886
206	0x3c207a1b	0.009794737
207	0x3cc866c9	0.024463074
208	0x3d895c4d	0.06707058
209	0x3e0f4c4f	0.13993953
210	0xbd8d8962	-0.06910969
211	0xbdc4bd9b	-0.09606477
212	0xbde85222	-0.113437906
213	0xbbc21a80	-0.005923569
214	0xbd8c088b	-0.06837567
215	0x3bbd8380	0.0057834983
216	0xbcf55e1d	-0.029952103
217	0x3da8f4ad	0.08249793
218	0x3e2473ee	0.16059849
219	0x3da34139	0.079714246
220	0x3d31e645	0.043432493
221	0x3d73db22	0.059535153
222	0xbe0da0e4	-0.13830906
223	0x3e15b6f4	0.14620572
224	0x3b86bbae	0.0041117286
225	0x3ceead18	0.029135272
226	0x3baef480	0.0053392053
227	0xbdbc60d7	-0.09198158
228	0x3dacf3a0	0.08444905
229	0x3dcab201	0.09897233
230	0x3d37aee1	0.044844512
231	0xbdb867ab	-0.09004148
232	0xbd2637f0	-0.04058069
233	0xbaf51141	-0.0018697159
234	0xbe0b46b4	-0.1360119
235	0xbd121a7c	-0.03566979
236	0xbd803338	-0.06259769
237	0xbdbacb06	-0.09120755
238	0x3d2d5e03	0.042325985
239	0xbd5d0309	-0.053957973
240	0xbc9cbe90	-0.019133836
241	0xbd61a716	-0.055090986
242	0xbe0711f3	-0.13190441
243	0x3e00e6de	0.12588069
244	0x3ce19560	0.027537048
245	0x3e042afa	0.1290702
246	0xbcbe8f1c	-0.0232616
247	0xbd1493ec	-0.03627388
248	0xbe0af302	-0.13569263
249	0xbd606da8	-0.054792076
250	0x3dc1d930	0.09465253
251	0xbe10c381	-0.14137079
252	0xbd4ec89e	-0.050484292
253	0x3db4195c	0.087938994
254	0x3daa5e9e	0.08318828
255	0x3d5a4ce0	0.05329597

encoder.conv2.bias f4 [8]
0	0xbe701cda	-0.23448506
1	0xbe8a1663	-0.26970205
2	0xbdbaaa5d	-0.091145255
3	0xbdb4abc1	-0.08821822
4	0xbd21adee	-0.039472513
5	0xbc772780	-0.015085101
6	0x3e845a11	0.25849965
7	0x3daf270c	0.085523695

encoder.conv3.weight f4 [16, 8, 3]
0	0xbdbfe76b	-0.09370311
1	0xbe148437	-0.14503561
2	0xbe202016	-0.1563724
3	0xbdf357d6	-0.11881988
4	0x3dc4d8d0	0.09611666
5	0xbe53311c	-0.20624202
6	0x3e143d0b	0.14476411
7	0x3d5f3051	0.054489437
8	0xbd048ed9	-0.032362793
9	0x3e146dad	0.14494963
10	0xbdf40d7e	-0.11916636
11	0xbc8d8ef1	-0.017280074
12	0x3bd0f140	0.0063764155
13	0xbe482428	-0.19545043
14	0xbebcb0c9	-0.36853626
15	0xbdb448d4	-0.08802953
16	0x3e4734e4	0.1945377
17	0x3e319296	0.17341074
18	0x3dfeb0c6	0.124360606
19	0x3dcc9afe	0.099905
20	0xbe374d96	-0.1790069
21	0x3d8bd664	0.06828001
22	0x3d9a164c	0.07523784
23	0xbe195063	-0.14972071
24	0x3d9e57a1	0.07731558
25	0xbe8f8c78	-0.28036857
26	0x3d99c279	0.07507796
27	0x3d3d9f7f	0.046294685
28	0x3e355d8c	0.17711467
29	0xbd5e51ee	-0.054277353
30	0xbe33321f	-0.17499588
31	0x3e3c7fae	0.18408081
32	0x3cf08f5d	0.029365236
33	0x3d8ddac6	0.06926493
34	0x3d9372a3	0.071995996
35	0xbe2b94f3	-0.16756038
36	0x3e2b4168	0.16724169
37	0xbdff03e6	-0.124519154
38	0x3cd0dfaa	0.025497276
39	0x3dbcf938	0.09227222
40	0x3e0ed05e	0.13946673
41	0xbdd0c296	-0.10193364
42	0xbe2b8ff2	-0.1675413
43	0x3da2f677	0.07957166
44	0xbe505b75	-0.20347388
45	0xbe26a5d9	-0.16274203
46	0xbe3bfa74	-0.18357259
47	0xbdcab9a2	-0.09898688
48	0xbd1f976c	-0.038962767
49	0xbdf79071	-0.12088097
50	0xbdb0c2ca	-0.08630903
51	0xbe391656	-0.18074927
52	0x3e007988	0.1254636
53	0xbd3f6814	-0.046730116
54	0xbe03e1d8	-0.12879121
55	0x3d59ae50	0.053144753
56	0xbe1c49cc	-0.15262526
57	0x3e12506c	0.14288491
58	0x3df06214	0.11737457
59	0xbe4d68d2	-0.20059517
60	0xbe241267	-0.16022645
61	0xbe09d330	-0.13459468
62	0xbde24d2d	-0.11049876
63	0x3cd0cac8	0.025487319
64	0xbe4eb1a6	-0.20184955
65	0xbe1af67c	-0.15133089
66	0x3dbeea5c	0.09322044
67	0xbd88ea56	-0.06685321
68	0xbda65998	-0.081225574
69	0xbe2cebc1	-0.16886808
70	0x3da97060	0.08273387
71	0x3c6c2aa0	0.0144144595
72	0xbd892f7c	-0.0669851
73	0xbe0a22f3	-0.13489895
74	0x3d314f29	0.043288384
75	0x3d8e51ec	0.06949219
76	0x3ddd82a0	0.1081593
77	0x3d9a282e	0.07527195
78	0xbd00e1aa	-0.03146521
79	0xbe1b165b	-0.15145247
80	0x3e10b954	0.14133197
81	0xbd07eac3	-0.03318287
82	0xbe2bf064	-0.1679092
83	0x3e340802	0.1758118
84	0x3e0c458f	0.1369841
85	0xbe2cdee9	-0.16881908
86	0xbde9e697	-0.11420935
87	0xbd8e4352	-0.06946434
88	0xbdf154c4	-0.11783746
89	0x3dc338dc	0.095323294
90	0xbe25649b	-0.16151659
91	0x3e49ed37	0.19719397
92	0xbdc46d88	-0.09591204
93	0x3e0336e9	0.12813915
94	0x3c08d10c	0.008350622
95	0xbdb7da5f	-0.08977198
96	0x3dfe0d66	0.12404899
97	0xbe24cdb9	-0.16094102
98	0xbde6d6c1	-0.1127143
99	0x3c7ebcd3	0.015547949
100	0x3e19ecc4	0.15031725
101	0xbdb7d733	-0.08976593
102	0xbe0d364b	-0.13790242
103	0xbe137fb3	-0.14404182
104	0xbdbb41fb	-0.09143444
105	0xbd94da2d	-0.07268176
106	0xbd4d2476	-0.0500836
107	0xbde0dab9	-0.10979218
108	0x3d5aaaf1	0.05338568
109	0x3c10c166	0.008835172
110	0xbe03ce8d	-0.12871762
111	0xbdeebb3e	-0.11656807
112	0x3d310b58	0.04322371
113	0xbb3f1a00	-0.0029159784
114	0x3e03c0cb	0.12866513
115	0xbd2e1a0f	-0.04250532
116	0xbe2ce653	-0.16884737
117	0xbe1a989b	-0.15097277
118	0xbd756a00	-0.059915543
119	0xbd392ce0	-0.04520881
120	0x3d02740b	0.03184895
121	0xbd868d48	-0.06569916
122	0x3d8345f1	0.06409825
123	0xbd536759	-0.051612232
124	0x3e1bcf51	0.15215804
125	0x3d4feb0a	0.05076126
126	0xbd3d0c8d	-0.046154547
127	0x3e4910f0	0.19635367
128	0x3d50e089	0.050995383
129	0xbd92ecdf	-0.07174086
130	0xbda3e6db	-0.080030166
131	0x3dde54c3	0.10856011
132	0x3dc6e520	0.09711671
133	0x3e22950d	0.15877171
134	0xbcac2aad	-0.021016443
135	0x3e1231f0	0.14276862
136	0x3dcfd7f4	0.10148612
137	0x3d8148a8	0.06312686
138	0xbd46c81d	-0.048530687
139	0x3e442f3d	0.19158645
140	0x3cbee59d	0.023302848
141	0xbd3a53de	-0.04549014
142	0x3b925947	0.004466209
143	0x3e4d7ad8	0.20066392
144	0x3de3b161	0.11117817
145	0xbc2b2cbd	-0.010447678
146	0x3e705aff	0.23472212
147	0x3db722e8	0.08942205
148	0xbdaef490	-0.0854274
149	0xbdee8abf	-0.116475575
150	0x3dc78181	0.09741498
151	0x3e42c904	0.19021994
152	0xbdbe147c	-0.09281251
153	0x3e02f07e	0.12787053
154	0xbdc5d053	-0.09658875
155	0xbdbc08fb	-0.091814004
156	0xbd2566df	-0.04038131
157	0x3df6e2d9	0.120549865
158	0x3de8604e	0.11346494
159	0x3e0d2d12	0.13786724
160	0x3d990934	0.074724585
161	0x3dbe3c28	0.09288818
162	0x3e2c208e	0.16809294
163	0x3d555252	0.05208046
164	0x3dbdbbef	0.09264361
165	0xbd98b3ce	-0.0745617
166	0x3e1fc3c9	0.1560203
167	0x3cf6f358	0.030145332
168	0x3df12e01	0.11776353
169	0x3e411448	0.18855393
170	0xbcab6e26	-0.020926546
171	0x3e13beb2	0.14428213
172	0xbd0eb166	-0.03483715
173	0x3e4ca879	0.19986142
174	0x3e139749	0.1441318
175	0xbda1dc3a	-0.07903333
176	0x3ccc5263	0.024941629
177	0xbd75166b	-0.059835833
178	0xbe18873b	-0.14895336
179	0xbd374b6b	-0.04474966
180	0x38ab5d20	8.171261e-05
181	0xbd5891fa	-0.05287359
182	0xbe3418ae	-0.1758754
183	0xbdfcd889	-0.12345988
184	0xbc8ee518	-0.017443225
185	0xbd8573fa	-0.065162614
186	0x3e0c18e5	0.13681372
187	0x3e24bbc6	0.16087255
188	0x3de08ed8	0.10964745
189	0x3d9fa7d7	0.07795685
190	0xbe2d2f59	-0.16912593
191	0x3e457a48	0.19284928
192	0xbe38317c	-0.17987627
193	0xbd896f80	-0.0671072
194	0xbe131d1c	-0.14366573
195	0x3d965458	0.07340306
196	0xbe2dee70	-0.16985488
197	0xbdce1830	-0.10063207
198	0xbe04c61e	-0.129662
199	0xbe007bca	-0.12547222
200	0xbdc326da	-0.09528895
201	0x3e4d793c	0.20065778
202	0xbc8894b8	-0.016672477
203	0x3d7edd60	0.06222284
204	0xbe4f7e72	-0.20263079
205	0x3e39d87a	0.18148986
206	0xbd36107c	-0.044449314
207	0xbe3fd466	-0.18733367
208	0x3e100cde	0.14067408
209	0xbd621304	-0.055193916
210	0x3e3dd212	0.18537167
211	0xbe0df9a8	-0.13864768
212	0xbe42105b	-0.18951552
213	0xbe1d0787	-0.15334903
214	0x3db516ac	0.08842215
215	0xbcbb87c0	-0.02289188
216	0xbe34f7a6	-0.17672595
217	0xbc0cb7a6	-0.008588707
218	0xbd0a759a	-0.03380356
219	0x3d86f91a	0.06590481
220	0xbe2f41c5	-0.17114933
221	0xbe1601ac	-0.14649075
222	0x3df31dc8	0.11870915
223	0xbde51e86	-0.111874625
224	0x3d9aab3a	0.0755219
225	0x3e1117a3	0.14169173
226	0xbe069f33	-0.13146667
227	0xbe632f69	-0.22186054
228	0xbdd352df	-0.10318541
229	0xbe5d437e	-0.21607777
230	0x3d89f816	0.06736772
231	0xbdae2f1a	-0.08505078
232	0xbdb95a37	-0.0905041
233	0xbe2196be	-0.1578016
234	0x3dbe9cc7	0.09307247
235	0xbe28fda2	-0.16503003
236	0xbe3932e4	-0.1808582
237	0xbd5bdf34	-0.05367966
238	0xbde8ba26	-0.1136363
239	0xbe4b363c	-0.19844908
240	0x3d98dc9d	0.07463954
241	0xbdb8d607	-0.090251975
242	0x3e3bf1dd	0.18353982
243	0x3e1b5144	0.15167719
244	0xbe08eb9a	-0.13371125
245	0xbe009e4d	-0.12560387
246	0xbd8d5cfa	-0.069024995
247	0x3e0172d2	0.12641457
248	0xbc1369cd	-0.008997393
249	0xbdc41dac	-0.09575972
250	0x3dfc235e	0.12311433
251	0x3e3e28f9	0.18570317
252	0x3e08dc16	0.13365206
253	0xbe2e5b00	-0.17026901
254	0xbcebcec6	-0.02878512
255	0xbd205f6c	-0.0391535

encoder.conv3.bias f4 [16]
0	0x3e95b2e1	0.29238036
1	0xbe74b229	-0.23896088
2	0xbe34fea0	-0.17675257
3	0xbe025bb9	-0.12730302
4	0x3d8ab9c4	0.06773713
5	0xbe98724b	-0.297747
6	0xbe922d0a	-0.28549987
7	0xbe0192f4	-0.12653714
8	0xbd2b78e8	-0.041863352
9	0x3d138336	0.036013804
10	0xbeb01321	-0.34389594
11	0xbe324ebd	-0.17412849
12	0xbe90de2a	-0.28294498
13	0xbe142f49	-0.14471163
14	0xbc0703f8	-0.008240692
15	0xbd6cab96	-0.057780825

encoder.conv4.weight f4 [4, 16, 3]
0	0xbd3e4ce6	-0.046460055
1	0xbe16dc11	-0.14732386
2	0xbea57379	-0.3231466
3	0xbdd242ea	-0.10266669
4	0x3de0346c	0.10947499
5	0xbdb784fc	-0.08960912
6	0xbda43bb4	-0.080192
7	0x3dcf2340	0.10114145
8	0xbd06218c	-0.032746837
9	0x3da2a32f	0.07941281
10	0xbe05c1c0	-0.13062191
11	0xbe0229e9	-0.127113
12	0x3d1dc2f7	0.03851601
13	0x3db5afaa	0.08871396
14	0xbe1382ee	-0.14405414
15	0x3cefba72	0.029263709
16	0x3dcf2da4	0.10116127
17	0x3e5e5e61	0.2171569
18	0x3bb86fe0	0.005628571
19	0xbbdc9e64	-0.006732749
20	0xbe393597	-0.18086849
21	0x3ccba6c0	0.024859786
22	0xbdb2df57	-0.08734005
23	0xbe4410d5	-0.19147046
24	0xbd3dcf02	-0.046339996
25	0xbdca5b6c	-0.098807186
26	0x3d35347c	0.044239506
27	0x3b804156	0.0039140387
28	0x3d8df127	0.06930762
29	0xbe4d09bc	-0.20023245
30	0x3daf717a	0.08566566
31	0x3e1c1cb4	0.15245324
32	0xbd86f8a8	-0.06590396
33	0x3d2d86fa	0.04236505
34	0x3dcba2cb	0.0994316
35	0x3e5d6714	0.21621352
36	0x3dc460d9	0.09588785
37	0x3db98978	0.09059423
38	0xbe02dc0c	-0.12779254
39	0xbddce217	-0.10785311
40	0x3db18837	0.08668559
41	0x3e2020ff	0.15637587
42	0xbad38d42	-0.001614012
43	0xbd859a12	-0.06523527
44	0xbe12c4e0	-0.14332914
45	0xbc46060e	-0.0120864045
46	0xbd814867	-0.06312638
47	0xbd920e3a	-0.0713162
48	0x3df50998	0.119647205
49	0xbe6518a7	-0.22372685
50	0x3b5537d2	0.0032534492
51	0x3c37133d	0.01117402
52	0xbddebbcd	-0.10875664
53	0x3dfe1d1c	0.12407896
54	0xbd3c1d62	-0.04592646
55	0x3d84cc98	0.06484336
56	0x3da4fb58	0.080557525
57	0x3e0b11cb	0.13581006
58	0x3d19cb1a	0.03754721
59	0x3e062fcc	0.1310417
60	0x3e0a598d	0.13510723
61	0x3cd44d87	0.025915874
62	0xbd085157	-0.033280697
63	0xbcde0e69	-0.02710648
64	0x3d2b3034	0.041794017
65	0x3d9e305f	0.0772407
66	0xbe23d7f3	-0.16000347
67	0x3dc75d03	0.097345375
68	0x3b627d3b	0.0034559506
69	0xbe09b5b6	-0.13448223
70	0x3d670b55	0.05640729
71	0x3dd0431d	0.10169051
72	0x3d5ce89c	0.05393277
73	0x3df14b08	0.11781889
74	0x3b438e80	0.0029839575
75	0xbdbfb504	-0.09360698
76	0x3d1fe48e	0.039036326
77	0x3c08aeab	0.008342425
78	0x3b815301	0.0039466624
79	0x3dea3f99	0.114379115
80	0x3cf544d5	0.029940048
81	0xbcf01906	-0.029308807
82	0xbc20d76d	-0.0098169865
83	0x3d66ee07	0.056379344
84	0xbdb72742	-0.08943035
85	0x3ddbe186	0.107363746
86	0x3df0ef0f	0.11764347
87	0x3db569e7	0.0885809
88	0x3e2e31ad	0.17011137
89	0xbc84cb50	-0.016210228
90	0xbd3bab05	-0.045817394
91	0x3d8ea198	0.06964415
92	0x39d8f149	0.00041378502
93	0x3d496b24	0.049174443
94	0x3e0b04c6	0.1357604
95	0xbd8a8b37	-0.067648344
96	0x3bc60e80	0.006044209
97	0x3e0fc1dc	0.14038795
98	0xbdebfab4	-0.11522427
99	0xbccc0a80	-0.02490735
100	0x3e0f862e	0.14016029
101	0x3dce8c90	0.10085404
102	0x3d2b9790	0.04189259
103	0xbd7efcf4	-0.062252954
104	0xbc5c7240	-0.013454974
105	0xbe048992	-0.12943104
106	0xbe0b268e	-0.13588926
107	0xbe0a7b03	-0.13523488
108	0x3e0df59a	0.13863221
109	0x3de9cd34	0.114160925
110	0x3d6a83c0	0.057254553
111	0xbd147eec	-0.036253855
112	0x3dfe8318	0.12427348
113	0xbd1c29ce	-0.038125806
114	0x3dcd3766	0.10020332
115	0xbb99ef20	-0.0046976954
116	0xbd8b0e02	-0.06789781
117	0xbd2500fc	-0.040284142
118	0xbcfc7a78	-0.030820116
119	0xbe0749ca	-0.13211742
120	0x3d30cb54	0.04316266
121	0xbd342104	-0.0439768
122	0x3d87cfa0	0.06631398
123	0x3dbc78e0	0.092027426
124	0xbcbbfdd4	-0.022948183
125	0x3d8f5c96	0.07000081
126	0x3cec3db8	0.028838024
127	0x3dc684a0	0.09693265
128	0xbdbea31c	-0.093084544
129	0xbc4f9f00	-0.012672186
130	0xbd4501fc	-0.048097596
131	0x3e018232	0.12647322
132	0xbe04aa68	-0.1295563
133	0xbda62696	-0.081128284
134	0x3c857b90	0.01629427
135	0x3e033576	0.12813362
136	0x3dc8021a	0.09766026
137	0xbe0a4e7e	-0.13506505
138	0xbdcfd40e	-0.10147868
139	0x3e0f4f54	0.13995105
140	0x3cac51e0	0.021035135
141	0xbdfd2fab	-0.123626076
142	0xbd3a4288	-0.045473605
143	0x3d813bc6	0.06310229
144	0xbcf7405c	-0.030182056
145	0xbdce66fa	-0.10078235
146	0xbdb496cd	-0.088178255
147	0xbd9a7000	-0.075408936
148	0xbb02c0af	-0.0019951274
149	0x3d5ad77a	0.05342815
150	0x3d8ded76	0.06930058
151	0xbd8f9a03	-0.07011797
152	0xbcc66488	-0.024217859
153	0xbde5edc6	-0.11226992
154	0x3dee295e	0.11628984
155	0x3e1431b6	0.14472088
156	0x3e0fa8c8	0.14029229
157	0x3d8a0926	0.06740026
158	0xbcefdf07	-0.029281152
159	0x3b604311	0.0034219662
160	0x3d64db47	0.05587318
161	0xbdfd009d	-0.123536326
162	0x3c0e9e2d	0.008704704
163	0xbdf5b072	-0.11996545
164	0xbe11b0a5	-0.14227541
165	0x3adaef70	0.0016703438
166	0xbd2fc470	-0.042911947
167	0xbdb349fe	-0.08754347
168	0x3cc40380	0.02392745
169	0x3bc0aac0	0.00587973
170	0x3cb46fd8	0.022025988
171	0xbda4770e	-0.080305204
172	0xbe118f27	-0.14214765
173	0x3c348219	0.011017346
174	0xbd743257	-0.05961832
175	0xbd3a7894	-0.04552515
176	0x3dddbb14	0.10826698
177	0x3cf322b6	0.029679637
178	0x3d8a70f2	0.06759824
179	0xbd1fede6	-0.039045237
180	0xbddf484c	-0.109024614
181	0x3d01e3e6	0.03171148
182	0xbdbbe307	-0.091741614
183	0x3cdf0cd2	0.027227793
184	0xbddc263c	-0.1074948
185	0x3df01e97	0.117245845
186	0xbddc88eb	-0.107683025
187	0x3dc655d0	0.09684336
188	0x3dab704c	0.08371028
189	0x3ded2147	0.11578613
190	0x3db50a8e	0.08839904
191	0x3d16d32e	0.03682249

encoder.conv4.bias f4 [4]
0	0xbdef31d3	-0.11679425
1	0xbdf28c13	-0.11843123
2	0xbd6b22b8	-0.057406157
3	0xbe08a677	-0.13344751

encoder.fc1.weight f4 [400, 20]
0	0x3e50b40e	0.20381185
1	0x3c3dd190	0.011585608
2	0x3dd76190	0.105166554
3	0x3c0676b0	0.008207008
4	0x3d8399e0	0.06425834
5	0xbe0d13d8	-0.13777101
6	0xbe31fefc	-0.17382425
7	0x3e2e9ff2	0.17053202
8	0x3dada928	0.084795296
9	0x3de21dfc	0.11040875
10	0xbe6344d1	-0.2219422
11	0x3c77afd0	0.015117601
12	0xbe559364	-0.20857006
13	0xbcd19fc8	-0.025588885
14	0xbc41ac20	-0.011820823
15	0xbe21165c	-0.15731186
16	0xbe62bc35	-0.22142108
17	0x3ac0e600	0.0014716983
18	0x3e4dea62	0.20108941
19	0x3e4e5b40	0.20151997
20	0xbe0b6764	-0.13613659
21	0xbd22b358	-0.039721817
22	0xbe3c4bf2	-0.18388346
23	0xbe850f87	-0.2598841
24	0xbde20dcc	-0.11037788
25	0x3e246476	0.16053948
26	0xbe0827b2	-0.13296393
27	0xbd59aac8	-0.053141385
28	0x3da7f90a	0.08201797
29	0x3d40c6ff	0.047064777
30	0x3e38b660	0.1803832
31	0x3e18269a	0.14858475
32	0x3e56b5f8	0.20967853
33	0x3d1d1110	0.03834635
34	0xbe392aad	-0.18082686
35	0xbe43a531	-0.19105984
36	0xbdcfdb32	-0.1014923
37	0x3e3cfd38	0.1845597
38	0x3e02f5f5	0.12789138
39	0x3d8607b8	0.06544441
40	0xbe2e5eb0	-0.17028308
41	0xbe28a3d4	-0.16468745
42	0x3e3aceca	0.18242946
43	0xbcbe2578	-0.023211226
44	0xbe65c776	-0.2243937
45	0xbd3d0672	-0.046148725
46	0xbd8fdf4a	-0.07025011
47	0xbc88bb6b	-0.01669093
48	0x3da32da7	0.07967692
49	0x3da84b31	0.082174666
50	0xbe2f349e	-0.17109916
51	0xbb209dc0	-0.0024508089
52	0xbde2f222	-0.110813394
53	0x3e1ae252	0.15125397
54	0x3de2c470	0.11072624
55	0x3df5e485	0.12006477
56	0x3e444de3	0.19170336
57	0x3de0f1d0	0.10983622
58	0xbe64e952	-0.2235463
59	0x3d671b78	0.05642268
60	0xbe1d1e42	-0.15343574
61	0x3cf49e50	0.029860646
62	0x3b1ca300	0.0023900867
63	0x3e6319c2	0.22177795
64	0xbdf23578	-0.118266046
65	0xbe53b7a4	-0.20675522
66	0xbd2cb79d	-0.042167295
67	0x3d7afd6c	0.06127684
68	0x3e10a31f	0.14124726
69	0x3e36cc3f	0.17851351
70	0x3e3057cc	0.17220992
71	0x3d908fbc	0.07058665
72	0xbd82df4a	-0.06390245
73	0xbd41a8c0	-0.047280073
74	0xbdfa704a	-0.12228449
75	0x3d2cde05	0.04220392
76	0xbe255561	-0.1614585
77	0x3d9d71e8	0.076877415
78	0x3e134146	0.14380369
79	0x3e424c9e	0.1897454
80	0xbe61b0bc	-0.22040075
81	0x3e3bdda0	0.18346262
82	0xbe0956ed	-0.13412066
83	0xbcbdde25	-0.023177216
84	0x3e78f3ca	0.24311748
85	0x3e18f99a	0.14938965
86	0xbd849c9d	-0.06475184
87	0x3e149829	0.1451117
88	0xbe61d817	-0.22055088
89	0x3e3d8f8c	0.1851179
90	0x3e5e44c4	0.2170592
91	0xbc265e80	-0.0101543665
92	0x3d16bca8	0.03680101
93	0xbd56e9fc	-0.05246924
94	0xbe10f3c6	-0.14155492
95	0xbdd020fd	-0.10162542
96	0xbb09a9d6	-0.002100577
97	0xbe3b538f	-0.18293594
98	0xbe3917dc	-0.18075508
99	0x3cc90890	0.024540216
100	0xbe14fcb6	-0.14549527
101	0xbdf9192a	-0.12163003
102	0xbafd7580	-0.0019337386
103	0xbdf156da	-0.11784144
104	0x3dd5287b	0.10408112
105	0xbe2a7be8	-0.16648829
106	0xbe51d8ab	-0.20492809
107	0xbdec4ce0	-0.115381
108	0xbe5b7173	-0.21429996
109	0x3dedf47f	0.116188996
110	0x3e44bb9e	0.19212195
111	0xbe040d32	-0.12895659
112	0xbdaa3d2c	-0.08312449
113	0x3e55b186	0.20868501
114	0xbe25a353	-0.16175584
115	0x3d711d66	0.058865927
116	0xbe3dcf6d	-0.18536158
117	0xbe4bcbf5	-0.19902022
118	0x3a4839d1	0.000763801
119	0xbe02af08	-0.12762082
120	0x3df80474	0.12110224
121	0xbd8da540	-0.069162846
122	0x3c0c1047	0.008548803
123	0xbe1d67a9	-0.15371574
124	0x3e207f32	0.15673521
125	0x3e668331	0.22510983
126	0xbd12606c	-0.035736486
127	0xbe05d2bb	-0.13068669
128	0xbe5e790c	-0.21725863
129	0x3e5e8f73	0.21734409
130	0x3dc1038c	0.09424505
131	0x3dbd202c	0.09234652
132	0x3d1bef50	0.038070023
133	0x3de5ca70	0.112202525
134	0x3da29f1c	0.07940504
135	0x3de0dbf5	0.109794535
136	0x3e1694c9	0.14705195
137	0x3d01dfb0	0.031707466
138	0x3e45b397	0.1930679
139	0x3e0e6158	0.13904321
140	0xbbe04c40	-0.006845027
141	0xbdcc8a65	-0.09987334
142	0x3cad6d42	0.021170262
143	0x3e6ddd3c	0.23228925
144	0x3e47e27b	0.19519989
145	0xbd53a865	-0.051674265
146	0xbd019802	-0.031639107
147	0x3ddcf74d	0.107893564
148	0x3d998e9b	0.07497903
149	0x3e63b650	0.22237515
150	0x3dde5f7c	0.10858056
151	0x3d91e538	0.07123798
152	0x3d53ae18	0.0516797
153	0xbe573058	-0.21014535
154	0xbda8b734	-0.08238068
155	0x3d0502f1	0.03247351
156	0xbe1033d2	-0.14082268
157	0xbe489e7a	-0.19591704
158	0x3e1aeb26	0.15128765
159	0x3d9bc018	0.07604998
160	0xbe38c610	-0.18044305
161	0x3c5970d0	0.0132715255
162	0x3e06d8fe	0.13168713
163	0x3e03e7e2	0.12881425
164	0x3e5119b6	0.20419964
165	0xbdb512d2	-0.0884148
166	0x3dcbe924	0.099565774
167	0xbe39bd38	-0.18138587
168	0xbce1f338	-0.027581796
169	0xbe11a044	-0.14221293
170	0xbd2e6688	-0.04257825
171	0x3e0259cc	0.12729567
172	0x3de44c40	0.11147356
173	0xbdf0e2ff	-0.11762046
174	0xbd631cd8	-0.05544743
175	0xbd373ab4	-0.044733718
176	0xbdae3716	-0.085066006
177	0xbdfadc55	-0.12249056
178	0x3e282280	0.1641941
179	0x3e1e45ea	0.15456358
180	0x3e3f273c	0.1866731
181	0xbdfb76bf	-0.122785084
182	0x3e27ac8e	0.16374418
183	0xbd8add1c	-0.067804545
184	0xbd572e74	-0.052534536
185	0xbd7696f8	-0.06020257
186	0xbc322430	-0.010872886
187	0xbdc888c0	-0.09791708
188	0x3cfa82e0	0.030579984
189	0xbe13950c	-0.14412326
190	0x3dbc5918	0.09196681
191	0xbe4005b4	-0.18752176
192	0xbda60430	-0.081062675
193	0xbe1fed80	-0.15617943
194	0x3e1a7558	0.15083826
195	0x3e1d50d6	0.15362868
196	0xbe361d85	-0.17784698
197	0xbdf9e372	-0.12201585
198	0x3e4ced72	0.20012453
199	0x3d857108	0.065156996
200	0x3e1daa5a	0.15397015
201	0xbe2f8b44	-0.1714297
202	0x3ddba9f5	0.10725776
203	0x3e0f8ca1	0.1401849
204	0xbccbe5dd	-0.02488988
205	0x3b06684e	0.0020508948
206	0x3e1f88e2	0.1557956
207	0x3d77ce3d	0.06049942
208	0x3d5db60d	0.054128695
209	0x3c2d49af	0.01057665
210	0xbdbf2fd0	-0.093352914
211	0xbe0c265e	-0.13686511
212	0x3e647f76	0.22314247
213	0xbc90b558	-0.017664596
214	0x3e4b329e	0.19843528
215	0x3e3b7b6f	0.18308805
216	0xbdd48d67	-0.10378533
217	0x3c7904c0	0.015198886
218	0xbd69f122	-0.057114728
219	0xbb850aa0	-0.0040601045
220	0x3e16e848	0.14737046
221	0x3dfc2b54	0.12312952
222	0xbe020df1	-0.1270063
223	0xbde298d1	-0.11064304
224	0xbe22a9d4	-0.15885097
225	0xbe42683c	-0.18985075
226	0x3e12e29e	0.1434426
227	0xbe0d7ca2	-0.13817075
228	0x3b3f82c0	0.002922222
229	0xb99f4400	-0.00030377507
230	0x3d1caf40	0.03825307
231	0xbc565900	-0.013082743
232	0x3deda544	0.116037875
233	0x3cfb90e0	0.03070873
234	0x3e2431a2	0.16034558
235	0x3d45b438	0.048267573
236	0xbb36c700	-0.002788961
237	0x3d01c8a8	0.0316855
238	0x3e189c9e	0.14903495
239	0x3d0a3d50	0.03374988
240	0x3e214e80	0.15752602
241	0xbcadb3a0	-0.021203816
242	0x3afe2000	0.0019388199
243	0x3e405ee6	0.18786201
244	0xbe5d1a0d	-0.21591969
245	0xbb84dbd8	-0.0040545277
246	0x3e3615ed	0.17781802
247	0xbe0bebe5	-0.13664205
248	0xbd707c9b	-0.058712583
249	0xbc9fdb3d	-0.01951372
250	0x3d96de84	0.0736666
251	0x3dad1688	0.08451563
252	0x3d4f7c70	0.050655782
253	0x3db4a5fc	0.088207215
254	0xbdc47c24	-0.095939904
255	0x3dc0a988	0.094073355

encoder.fc1.bias f4 [400]
0	0xbe5f6bbb	-0.2181844
1	0xbd085fe0	-0.03329456
2	0x3b320a84	0.0027166912
3	0x3e062bfa	0.13102713
4	0xbe0dd9e5	-0.13852651
5	0x3e87b985	0.26508728
6	0xbd894f0c	-0.0670453
7	0xbe051e3b	-0.12999813
8	0xbd976c68	-0.07393724
9	0xbdee7944	-0.11644223
10	0x3b24fcef	0.0025175174
11	0xbd91d886	-0.07121377
12	0xbd95aa76	-0.073079035
13	0x3e430f0a	0.19048706
14	0xbe454889	-0.19265951
15	0x3e3e7111	0.18597819
16	0xbda3dcf0	-0.08001125
17	0x3e9befa7	0.30456278
18	0xbdea0030	-0.11425817
19	0xbe0588cc	-0.13040465
20	0x3e579950	0.21054578
21	0x3e2eec33	0.1708229
22	0x3eb1c5e2	0.34721285
23	0xbe439c7d	-0.19102664
24	0xbe7a85dc	-0.24465126
25	0xbe9ec7fc	-0.3101195
26	0xbe5c66ad	-0.21523543
27	0x3e1e1972	0.15439394
28	0xbe5cfe34	-0.21581346
29	0xbd33022c	-0.043703243
30	0xbd15f560	-0.03661096
31	0x3dad02e3	0.08447816
32	0x3e80de57	0.25169632
33	0xbdb1d303	-0.086828254
34	0xbdb308f6	-0.087419435
35	0x3e18b618	0.14913213
36	0xbd610177	-0.054933038
37	0xbe3e17e6	-0.18563804
38	0xbea50b8f	-0.3223538
39	0x3d8d7f0d	0.06908999
40	0xbe3aca7e	-0.18241307
41	0xbe71fa53	-0.23630647
42	0x3e113d4e	0.14183542
43	0x3ee179d7	0.4403827
44	0xbe5d87bc	-0.2163381
45	0xbcef67d1	-0.029224308
46	0x3e4773ef	0.19477819
47	0xbca4feec	-0.020141087
48	0x3eb08b7e	0.34481424
49	0xbdc6aa34	-0.097004324
50	0xbe3fe738	-0.18740547
51	0xbe0ef0ad	-0.13958998
52	0xbd5a5e90	-0.053312838
53	0xbe29b1be	-0.1657171
54	0xbe22126c	-0.1582734
55	0xbd410bdc	-0.04713045
56	0xbe994ed5	-0.29942957
57	0xbe3e4333	-0.18580322
58	0x3c9c9817	0.01911549
59	0xbca8d4a0	-0.0206092
60	0xbd813cb2	-0.06310405
61	0xbe096bcb	-0.13420026
62	0xbd5d478c	-0.05402331
63	0xbe874713	-0.26421413
64	0xbe4cb3e0	-0.19990492
65	0xbcf30281	-0.02966428
66	0xbdbf6055	-0.09344546
67	0x3e898a63	0.26863393
68	0xbe389ce9	-0.18028606
69	0xbe11e878	-0.14248836
70	0x3e0feda4	0.14055496
71	0xbe5646d4	-0.20925456
72	0x3e059ef6	0.1304892
73	0x3db5224f	0.088444345
74	0xbd0dd52c	-0.034627125
75	0x3e4fd7ea	0.20297208
76	0xbead1803	-0.33807382
77	0xbdb9bd20	-0.09069276
78	0x3e264364	0.16236645
79	0x3ec51800	0.38494873
80	0x3d016c99	0.031597707
81	0x3d8ed520	0.06974244
82	0xbea0da90	-0.3141675
83	0xbd5bc892	-0.053658076
84	0xbe314dac	-0.17314786
85	0xbe29ab98	-0.16569364
86	0xbda37e50	-0.079830766
87	0xbda497ab	-0.08036741
88	0x3e73155a	0.23738614
89	0xbe478863	-0.19485621
90	0x3e421789	0.1895429
91	0xbd7cbf97	-0.06170615
92	0xbe1f25f4	-0.15541822
93	0xbd1ace2f	-0.03779429
94	0xbe81ac0e	-0.2532658
95	0x3e1c8ea3	0.15288787
96	0x3da3e63e	0.080028996
97	0xbe50d055	-0.20391972
98	0x3e89907d	0.26868048
99	0xbdfe83fd	-0.124275185
100	0xbe13eb8f	-0.14445327
101	0xbdbba650	-0.09162581
102	0xbe1f6534	-0.1556595
103	0xbd2cf530	-0.042226017
104	0xbe10d8cc	-0.14145201
105	0x3e543d77	0.20726572
106	0xbdeed717	-0.11662119
107	0xbeae5fe1	-0.34057525
108	0x3ee3f3ab	0.4452184
109	0xbde2c0d4	-0.11071935
110	0x3cc9b86a	0.024624068
111	0x3c39f459	0.011349761
112	0xbdbb021a	-0.0913126
113	0xbd9593b0	-0.0730356
114	0x3dcd8f20	0.100370646
115	0x3dda35d3	0.106547974
116	0xbe1db0f5	-0.15399535
117	0xbd14b428	-0.036304623
118	0xbe4fdf35	-0.2029999
119	0x3cef3ca6	0.029203724
120	0x3ebf2cb9	0.37338808
121	0xbcfc0948	-0.030766144
122	0xbd6b656e	-0.057469778
123	0xbe9b235a	-0.3030041
124	0xbe174dfb	-0.14775841
125	0xbe738296	-0.23780283
126	0xbde6a693	-0.1126224
127	0x3ebc59e4	0.3678733
128	0x3e8b2bc2	0.27181822
129	0x3dfb5201	0.122715004
130	0xbdaaba1d	-0.083362795
131	0xbde8c5d7	-0.1136586
132	0xbc8a0da6	-0.016852211
133	0x3e50f25f	0.20404957
134	0xbceccf43	-0.028907424
135	0xbe3ae889	-0.18252768
136	0xbd1c069c	-0.03809224
137	0xbe9e862e	-0.30961746
138	0x3dfb1763	0.1226032
139	0x3cc7cd75	0.024389962
140	0xbe770bbc	-0.2412557
141	0xbd8e3d4b	-0.069452845
142	0xbb92bb4d	-0.0044778944
143	0xbe204832	-0.1565254
144	0x3ef8f6da	0.48625833
145	0xbe35a69c	-0.17739338
146	0xbd02f9a6	-0.031976365
147	0xbda2cfad	-0.07949767
148	0xbe0f170c	-0.13973635
149	0xbe3db084	-0.18524367
150	0x3ac6aac3	0.0015157092
151	0xbd36ca3f	-0.04462647
152	0x3e3655e9	0.1780621
153	0xbead4bc0	-0.33846855
154	0xbe589128	-0.21149123
155	0xbd77dd96	-0.060514055
156	0xbe30af95	-0.17254479
157	0xbe59df2e	-0.21276543
158	0xbe47b109	-0.19501127
159	0x3ebcdc39	0.36886767
160	0xbde3f112	-0.11129965
161	0x3ec53fc3	0.3852521
162	0x3e746f2d	0.23870535
163	0xbe158182	-0.14600185
164	0x3e758ff4	0.23980695
165	0xbe31742e	-0.17329475
166	0x3ee06336	0.43825692
167	0xbd3e7012	-0.046493597
168	0x3e71755a	0.23579922
169	0xbd11ac77	-0.035564866
170	0x3dca56bf	0.09879827
171	0xbc82cc20	-0.015966475
172	0x3dc2f611	0.0951959
173	0x3d99fca1	0.07518888
174	0xbe25c236	-0.16187367
175	0x3ec89295	0.39174333
176	0xbe2ebb54	-0.17063648
177	0x3e8bf670	0.27336454
178	0xbe80a768	-0.2512772
179	0x3e31a45c	0.17347854
180	0x3d1775aa	0.036977448
181	0xbe381d2b	-0.17979877
182	0xbe7cab53	-0.2467473
183	0x3e5b4a0a	0.21414962
184	0xbe08698c	-0.13321513
185	0xbd44ad73	-0.048016977
186	0x3e291366	0.16511306
187	0xbe8490f0	-0.2589183
188	0xbe0bb784	-0.13644224
189	0xbe9b1b09	-0.30294064
190	0xbd81c884	-0.063370734
191	0xbe644cc9	-0.22294916
192	0x3e33e1ef	0.17566656
193	0xbe9e2ba8	-0.30892682
194	0xbe61e3dd	-0.22059579
195	0x3c992ab0	0.018697113
196	0xbd897aa2	-0.067128435
197	0x3e9c8ba7	0.30575296
198	0x3e35a702	0.1773949
199	0xbda9e15f	-0.08294939
200	0xbd342615	-0.04398163
201	0x3eedab72	0.46419865
202	0x3d67610a	0.056489028
203	0x3e0dbc17	0.13841282
204	0xbc49b104	-0.01231027
205	0xbe5cffec	-0.21582001
206	0x3e5eef2d	0.21770926
207	0x3e9707d1	0.2949815
208	0xbc2e4d72	-0.010638582
209	0xbd603232	-0.05473537
210	0x3dd1c8e9	0.10243399
211	0xbd87591e	-0.06608795
212	0xbe5230d3	-0.20526437
213	0xbdeec692	-0.11658968
214	0x3e9b9aae	0.3039145
215	0x3e0c2e9f	0.1368966
216	0xbe385815	-0.1800235
217	0xbe446387	-0.19178592
218	0x3e1a57d9	0.15072574
219	0xbb82b93f	-0.003989368
220	0x3dd52571	0.10407532
221	0x3df48058	0.11938542
222	0xbdc01608	-0.09379202
223	0xbdb8b66b	-0.090191685
224	0xbe1e6d11	-0.15471293
225	0xbd8a4c59	-0.067528434
226	0x3ea4c9a2	0.32185084
227	0xb987c92b	-0.00025899088
228	0xbd85b867	-0.065293126
229	0xbe2ef496	-0.1708549
230	0xbddccc63	-0.10781171
231	0x3e1af030	0.15130687
232	0xbe131302	-0.1436272
233	0x3e8262d6	0.2546603
234	0x3c96bf13	0.018401658
235	0xbe1c3de2	-0.15257981
236	0x3d85644b	0.0651327
237	0xbea21e31	-0.3166366
238	0x3e9b4cff	0.3033218
239	0x3e90ea6a	0.28303844
240	0xbdd1799e	-0.10228275
241	0xbe95cebc	-0.29259288
242	0xbdc80a51	-0.09767593
243	0xbd9d7447	-0.07688194
244	0xbc0a24ca	-0.008431623
245	0x3e90f9be	0.28315538
246	0x3e91ed3c	0.28501308
247	0x3e88830a	0.26662475
248	0xbe8c6362	-0.27419573
249	0x3e6452ea	0.22297254
250	0x3e086cde	0.1332278
251	0xbe5b6dac	-0.21428555
252	0x3e2264a9	0.15858711
253	0xbe18cd0c	-0.14921969
254	0xbe163cb0	-0.14671588
255	0x3b5c7200	0.0033637285

encoder.z_mu.weight f4 [1, 400]
0	0xbd2c518d	-0.04206996
1	0xbbce8c78	-0.0063033663
2	0xba91dd89	-0.0011128645
3	0x3e11c52f	0.14235376
4	0xbdebbb7e	-0.11510371
5	0x3e8e482b	0.27789435
6	0xbdb869b7	-0.090045385
7	0xbdb5501a	-0.08853169
8	0x3d00d0e9	0.031449232
9	0xbc3e1a68	-0.011602975
10	0xbd28c625	-0.04120459
11	0x3d2000c9	0.03906325
12	0x3d373e1c	0.044736966
13	0x3e242ffd	0.16033931
14	0xbc9024ec	-0.01759573
15	0x3a187092	0.0005815114
16	0xba420e61	-0.00074026553
17	0x3e8e4c40	0.2779255
18	0xbdbc0d6b	-0.09182247
19	0x3d051419	0.03248987
20	0x3e207495	0.15669473
21	0x3df8b141	0.121431835
22	0x3ea9b3f0	0.33145094
23	0xbd547399	-0.051868055
24	0xbddd8a0e	-0.108173475
25	0xbe343f72	-0.17602327
26	0xbc1b5b1b	-0.00948217
27	0xbc5f2247	-0.013619012
28	0x3ce330c2	0.02773321
29	0xbd721286	-0.059099697
30	0x3a03bb40	0.0005025156
31	0xbd131a8d	-0.035913993
32	0x3e76200a	0.2403566
33	0xbd140356	-0.036135994
34	0x3c756904	0.014978651
35	0xba4a3626	-0.0007713757
36	0xbc2a5e9d	-0.010398534
37	0xbd764864	-0.06012763
38	0xbdf8df3e	-0.12151955
39	0x3e23c3d1	0.15992667
40	0xbdd46e74	-0.1037263
41	0xbe56f10c	-0.2099039
42	0x3e49d015	0.19708283
43	0x3da1f9eb	0.07908996
44	0x3ca781a6	0.020447563
45	0xbcda0d61	-0.026617708
46	0x3de4451c	0.11145994
47	0xbce14489	-0.0274985
48	0x3e9c3c27	0.30514643
49	0xbd5adbfd	-0.053432453
50	0xbe10ec84	-0.14152724
51	0xbe110b5f	-0.14164494
52	0xbbbe9068	-0.0058155544
53	0xbd458763	-0.048224818
54	0x3c084320	0.008316785
55	0xbd24839a	-0.040164568
56	0xbe5a2093	-0.21301489
57	0xbdafeb4f	-0.085898034
58	0xbd983245	-0.07431463
59	0x3d0e1bad	0.034694362
60	0x3d1658e1	0.036705855
61	0xbe6fbb54	-0.23411304
62	0x3d0ae923	0.033913743
63	0xbdef92f9	-0.11697955
64	0x3c21fac8	0.009886451
65	0x3d456240	0.0481894
66	0xbce1555c	-0.027506523
67	0x3e729df9	0.23693074
68	0xbe86b9e1	-0.2631369
69	0xbbab6018	-0.005229961
70	0x3df3aec9	0.11898572
71	0xbc279cd8	-0.010230266
72	0x3cbb66cd	0.022876168
73	0x3d1dc54b	0.03851823
74	0x3ce0d568	0.02744551
75	0x3e5ca183	0.21545987
76	0xbe54e4ea	-0.20790449
77	0xbcc10aa4	-0.023564644
78	0x3e08d715	0.13363297
79	0x3dc76daf	0.09737717
80	0xbe34a3e3	-0.17640643
81	0x3cdb5767	0.026775075
82	0xbe3fe0c0	-0.18738079
83	0x3d29c78e	0.041450076
84	0x3cdaf38e	0.026727464
85	0xbc392841	-0.011301101
86	0xbccc9f10	-0.02497819
87	0x3b13e61a	0.002256757
88	0x3d261852	0.040550537
89	0xbc4fbf48	-0.012679882
90	0x3b84cee4	0.0040529836
91	0xbcf3b0bd	-0.029747361
92	0x3c238794	0.009981055
93	0x3cdae8bf	0.02672231
94	0xbd89acad	-0.067223884
95	0x3e0cb9b3	0.13742714
96	0x3e0c08c9	0.13675226
97	0xbde24f4d	-0.11050282
98	0x3eb504f2	0.35355335
99	0x3d46e6d9	0.048559997
100	0xbdb039da	-0.08604784
101	0xbc1fef9c	-0.009761717
102	0x3d3718b1	0.044701282
103	0xbd20c5db	-0.03925119
104	0xbd467a67	-0.048456576
105	0x3e03ad12	0.1285899
106	0xbd707f45	-0.058715124
107	0xbdcdf1e4	-0.100559026
108	0x3d72e60a	0.059301414
109	0xbda3deca	-0.08001478
110	0x3b1b5030	0.0023698919
111	0xbd4f6e4a	-0.05064229
112	0x3be33090	0.0069332793
113	0x3ca90b50	0.020635277
114	0x3d5cca8a	0.053904094
115	0x3cf3fed3	0.029784596
116	0xbe775bdf	-0.2415614
117	0xbc91b08c	-0.01778438
118	0xbd6264b7	-0.05527183
119	0xbb8d0a90	-0.0043042377
120	0x3eac8852	0.33697754
121	0x3c411bb8	0.011786394
122	0xbd97a0ef	-0.074037425
123	0xbe38f57f	-0.180624
124	0xbd10e04a	-0.03537015
125	0x3cc413c9	0.023935216
126	0x3d008d9f	0.03138506
127	0x3c66f85a	0.014097298
128	0x3e006a58	0.12540567
129	0xbd17c552	-0.037053414
130	0xbdae339e	-0.08505939
131	0xbcd9fb4d	-0.026609087
132	0x3b0177e2	0.0019755294
133	0x3e493dc5	0.1965247
134	0xbd0e02e9	-0.034670744
135	0xbde10772	-0.10987748
136	0x3c923492	0.017847333
137	0xbe77f8bb	-0.24215977
138	0x3e2073fe	0.15669248
139	0x3d1dab1d	0.038493264
140	0xbead36a0	-0.33830738
141	0xbdb2ada4	-0.087245256
142	0xbdff9798	-0.12480086
143	0x3d3daaa5	0.046305317
144	0x3e1e982c	0.15487736
145	0xbe62cc0e	-0.22148153
146	0xbd0107a2	-0.03150142
147	0x3a21a829	0.00061667204
148	0xbce9754a	-0.02849831
149	0xbe0975c7	-0.13423835
150	0xba5defcb	-0.0008466213
151	0xbc01c079	-0.007919424
152	0x3e02c23b	0.12769406
153	0xbe3a3e67	-0.18187867
154	0xbe9c1dc3	-0.30491456
155	0x3ca37546	0.019953381
156	0x3b60a960	0.0034280643
157	0xbdbcac51	-0.09212554
158	0x3d27d709	0.040976558
159	0x3bd01465	0.0063500875
160	0x3c8e7602	0.017390255
161	0x3dde26bc	0.10847232
162	0x3cc63aa7	0.02419789
163	0xba7d8940	-0.0009671636
164	0x3e473530	0.19453883
165	0xbd2497bb	-0.040183764
166	0x3d24388f	0.040093
167	0xbd9e6347	-0.077337794
168	0x3e6f923b	0.23395626
169	0xbd6c633a	-0.057711817
170	0x3d750ed6	0.0598286
171	0xbbff0e58	-0.0077836923
172	0x3d8d1623	0.06888988
173	0x3d296719	0.041358087
174	0xbca6f469	-0.020380216
175	0x3e7355cb	0.23763196
176	0xbd144632	-0.036199756
177	0x3e5324f7	0.2061957
178	0xbdbd74a8	-0.09250766
179	0x3c834811	0.016025575
180	0xbca5d732	-0.020244215
181	0x3d248099	0.040161703
182	0xbdc521ee	-0.09625612
183	0x3cff7f8e	0.031188753
184	0xbccc89f7	-0.02496813
185	0xbc909713	-0.017650163
186	0x3e842e74	0.2581669
187	0xbeb4b734	-0.35296023
188	0xbcf67127	-0.030083252
189	0xbe320b39	-0.17387094
190	0xbd073e54	-0.033018425
191	0xbe087b94	-0.13328391
192	0x3c329faa	0.010902325
193	0xbdd80bbc	-0.10549113
194	0x3aff5d60	0.0019482784
195	0xbd07fb2a	-0.033198513
196	0x3d0e5d55	0.034756977
197	0x3d0ec7c9	0.0348585
198	0x3b79877d	0.0038075142
199	0xbd7ffe12	-0.06249816
200	0xbd7045aa	-0.058660187
201	0x3de417bc	0.111373395
202	0x3d4dbf0d	0.05023103
203	0x3e53b2f5	0.20673735
204	0xbc0b32f2	-0.008496033
205	0xbb5b92e0	-0.0033504292
206	0x3e049dd6	0.12950835
207	0x3d222ee1	0.03959549
208	0xbd3ee160	-0.046601653
209	0xbd88872b	-0.06666406
210	0xbd89d262	-0.067295805
211	0xbd0b69d4	-0.034036472
212	0xbe00310a	-0.12518707
213	0xbdca8a59	-0.09889669
214	0x3e5da2f4	0.21644193
215	0x3e1593ae	0.14607117
216	0xbde0f947	-0.10985046
217	0xbe0a9bdc	-0.13536018
218	0x3e11a73c	0.14223951
219	0xbb8f0755	-0.0043648877
220	0x3d2717bc	0.04079412
221	0x3c4983fd	0.012299535
222	0xbd831cfa	-0.06402011
223	0xbbe1fff1	-0.0068969657
224	0x3cdb19ba	0.026745666
225	0x3ac33b4a	0.0014894989
226	0x3e4ee137	0.202031
227	0x3b0218c0	0.0019851178
228	0xbbebfba3	-0.0072016283
229	0xbe1f56f0	-0.15560508
230	0x3d38c2d1	0.045107666
231	0xbcd21f40	-0.025649667
232	0xbc1578d8	-0.00912305
233	0x397e7019	0.00024265087
234	0xbcf72e04	-0.03017331
235	0xbc874a16	-0.01651482
236	0x3d7e35f1	0.06206316
237	0xbe95da5f	-0.29268166
238	0x3e073aef	0.13206075
239	0x3dd49008	0.10379034
240	0xbd6626bd	-0.056189287
241	0xbdec6eb4	-0.115445524
242	0xbe05a0d5	-0.13049634
243	0xbcf7ef1b	-0.030265382
244	0x3b0cd21c	0.002148754
245	0x3e953c08	0.29147363
246	0x3e285a53	0.16440706
247	0x3e1669d0	0.14688802
248	0xbe0e5cbd	-0.13902564
249	0x3cf7b9b8	0.030239925
250	0xbafac71d	-0.0019132827
251	0xbdbf1f26	-0.09332113
252	0x3dde5a21	0.108570345
253	0xbd1d196e	-0.03835433
254	0xbd333c8f	-0.043758925
255	0xbd3ecaa3	-0.04657997

encoder.z_sigma.weight f4 [1, 400]
0	0x3c509424	0.012730632
1	0x3d68d764	0.056846038
2	0xbc39a91e	-0.011331825
3	0x3da4e17d	0.08050821
4	0x3d90ef18	0.070768535
5	0xbc70fa25	-0.014708077
6	0x3e0c0a23	0.13675742
7	0xbec98eb4	-0.39366686
8	0xbd2ba320	-0.041903615
9	0x3c8fe772	0.017566416
10	0x3b624f5e	0.003453217
11	0x3c82bf22	0.01596028
12	0x3c0a265e	0.008431999
13	0xbe87acf7	-0.2649915
14	0xbcb58c47	-0.022161616
15	0xbd88e3ae	-0.066840515
16	0x3cdb3257	0.026757402
17	0xbeaeb327	-0.34121057
18	0x3ce52781	0.027972938
19	0x3c9502aa	0.018189747
20	0x3dd6ab8e	0.1048194
21	0x3e3ad21a	0.1824421
22	0xbe9335bb	-0.2875193
23	0x3ebdf55d	0.3710126
24	0x3d234c75	0.039867837
25	0x3e04ac1e	0.12956282
26	0xbea9e004	-0.33178723
27	0xbea330ff	-0.3187332
28	0xbba56a00	-0.0050480366
29	0x3d2a0e32	0.041517444
30	0x3d322275	0.043489892
31	0xbd55e2c8	-0.05221823
32	0x3aaee751	0.0013344084
33	0x3d62a5cb	0.055333894
34	0x3d3f07e5	0.04663839
35	0xbdf0e78a	-0.117629126
36	0x3ce83574	0.028345801
37	0x3db44b61	0.0880344
38	0x3e0ca373	0.13734226
39	0x3e2dc7a8	0.16970694
40	0xbd3d7cf7	-0.046261754
41	0x3d626466	0.05527153
42	0xbe253e6e	-0.16137096
43	0xbe9c096c	-0.30475938
44	0x3c8ac31a	0.016938735
45	0x3d43ebeb	0.04783241
46	0xbe8d5f1c	-0.27611625
47	0x3d4b5a28	0.049646527
48	0xbe83e742	-0.25762373
49	0x3dacf207	0.084446006
50	0xbb5df472	-0.0033867625
51	0x3e2c45cf	0.16823505
52	0xbd3658d0	-0.044518292
53	0x3ca09912	0.01960424
54	0xbc5429ec	-0.012949448
55	0x3cd637b4	0.026149608
56	0x3e6891e4	0.22711903
57	0x3d4c4f2b	0.049880188
58	0x3d0e343d	0.034717787
59	0x3ceae932	0.02867565
60	0xbce62a2d	-0.028096283
61	0x3e6e89bc	0.23294729
62	0x3d1639f9	0.03667638
63	0x3d17b72d	0.037039924
64	0x3c72bf4c	0.014816117
65	0xbd1ebc5a	-0.038753845
66	0x3d3b8b57	0.04578718
67	0xbe755d35	-0.23961337
68	0xbe65e098	-0.22448957
69	0xbcfa6b7d	-0.030568833
70	0x3e0a3d66	0.13499984
71	0xbc0e72a8	-0.008694328
72	0xbe10012f	-0.14062952
73	0xbd80725e	-0.06271814
74	0x3c0e419b	0.008682634
75	0xbe8d4d3f	-0.27597997
76	0x3e0aaa0b	0.13541429
77	0x3e89d190	0.26917696
78	0xbd965b69	-0.07341654
79	0xbe21fdc1	-0.15819456
80	0xbd678cb4	-0.05653067
81	0x3e1a7698	0.15084302
82	0x3df3ddf6	0.1190757
83	0xbce96bc9	-0.028493779
84	0x3cf6baf2	0.03011844
85	0x3ce9d2ee	0.028542962
86	0x3d441209	0.047868762
87	0xbd1722ea	-0.03689853
88	0x3c851d6c	0.016249381
89	0x3bf0d4f0	0.007349603
90	0xbd516823	-0.051124703
91	0xbc0028ed	-0.0078222575
92	0x3c4c2478	0.012459867
93	0x3cc0f3cf	0.023553757
94	0x3e060dd3	0.13091211
95	0xbe59e818	-0.21279943
96	0x3e05b4c5	0.1305724
97	0x3ddd93fd	0.10819242
98	0x3d784c5b	0.060619693
99	0x3c78bcfc	0.015181776
100	0x3d2fb53b	0.042897444
101	0x3c912a5d	0.017720396
102	0x3b9a1518	0.0047022216
103	0xbc2dcc98	-0.010607861
104	0xbd39fd18	-0.045407385
105	0xbe7b8b0f	-0.24564765
106	0x3d292cc5	0.04130246
107	0x3da885ca	0.08228643
108	0xbe7c64df	-0.24647854
109	0x3e22663f	0.15859316
110	0xbc68fa52	-0.014219837
111	0x3cc0c67d	0.023532147
112	0xbc09b68c	-0.008405339
113	0x3d96824f	0.07349073
114	0xbe3550e6	-0.17706642
115	0xbe25fcea	-0.1620976
116	0xbe559217	-0.2085651
117	0xbce71700	-0.02820921
118	0x3b4bfe45	0.0031126898
119	0x3d8de6d5	0.06928793
120	0xbecb4864	-0.39703667
121	0x3c71cdac	0.014758509
122	0xbc59549a	-0.0132647995
123	0xbaa8b3db	-0.0012870984
124	0x3cd54992	0.026036058
125	0xbbe12409	-0.006870751
126	0x3c1ecfb4	0.009693075
127	0xbe7220d3	-0.23645334
128	0xbdfe441b	-0.12415334
129	0xbdd3154f	-0.10306799
130	0xbd16ac06	-0.036785148
131	0xbcb5fc97	-0.02221517
132	0x3d47bacd	0.04876213
133	0xbe9633c6	-0.29336375
134	0xbbc035a2	-0.0058657685
135	0xbd8c9eaa	-0.068662
136	0x3cfb6f4a	0.030692715
137	0x3e06dde0	0.13170576
138	0x3de2f735	0.11082307
139	0x3af96e3d	0.0019030046
140	0xbecf799b	-0.40522465
141	0xbd00513a	-0.031327464
142	0x3e09de6d	0.13463755
143	0x3d244a19	0.040109728
144	0xbe97ff7f	-0.29687116
145	0x3e1d4874	0.1535967
146	0x3caf9e32	0.021437738
147	0x3c0505d3	0.008119064
148	0x3cc3e396	0.023912232
149	0x3e0d6a97	0.13810192
150	0x3cbc091d	0.022953564
151	0xbcbd43b2	-0.023103569
152	0xbe0a2666	-0.1349121
153	0xbc93bed7	-0.018035335
154	0xbcdc2372	-0.02687237
155	0xbbce1ff4	-0.00629043
156	0x3ca7add2	0.020468626
157	0x3cf0b531	0.029383274
158	0x3cf42272	0.029801581
159	0xbe50f6fe	-0.2040672
160	0xbd456baf	-0.0481984
161	0xbe8cbd91	-0.27488378
162	0xbc046a88	-0.00808204
163	0x3d2257bf	0.039634462
164	0x3db6998c	0.089160055
165	0x3dcb6b9a	0.09932633
166	0xbe800c5c	-0.2500943
167	0x3d5c7984	0.053826824
168	0xbeadb84d	-0.33929673
169	0xbe549210	-0.20758843
170	0x3de607ee	0.11231981
171	0x3cb6c16e	0.022309031
172	0x3e499feb	0.1968991
173	0x3e57e6bc	0.21084112
174	0xbd39d9fd	-0.045373905
175	0xbe4cc734	-0.19997865
176	0x3d2db535	0.04240914
177	0xbe6a400c	-0.22875994
178	0x3ddefab0	0.108876586
179	0xbd82ba01	-0.06383134
180	0xbd3526a2	-0.044226296
181	0xbcc6087d	-0.02417397
182	0x3db8f720	0.0903151
183	0xbb1cc90b	-0.0023923542
184	0x3bacbce8	0.005271543
185	0xbb13f6c9	-0.0022577515
186	0x3e28dae2	0.16489747
187	0xbe4abb93	-0.19798116
188	0x3d03543d	0.032062758
189	0xbe34ee81	-0.17669107
190	0xbd0bd8c6	-0.034142278
191	0xbed3ea2d	-0.413896
192	0xbd2031cd	-0.039109994
193	0xbabbe82a	-0.0014336158
194	0x3d4292f9	0.047503445
195	0xbcd7ca98	-0.026341721
196	0x3c4dcc44	0.012560908
197	0xbd977fa3	-0.07397392
198	0xbbdcfd27	-0.0067440453
199	0x3d69f8d5	0.05712207
200	0x3cd88002	0.026428226
201	0xbe93ad59	-0.2884319
202	0x3e19f814	0.1503604
203	0x3e269df3	0.1627119
204	0x3cab3e2c	0.02090367
205	0xbd0c6ad4	-0.034281567
206	0xbe55fca5	-0.20897157
207	0xbe3c8d33	-0.18413238
208	0xb9eb3930	-0.000448653
209	0x3d86db8a	0.065848425
210	0xbefb58c4	-0.4909116
211	0xbd24730b	-0.040148776
212	0xbd46a6c5	-0.048498888
213	0x3d81efbf	0.06344556
214	0xbea08fc5	-0.31359687
215	0x3e52b651	0.2057736
216	0x3d723af6	0.05913826
217	0xbe391bbd	-0.18076988
218	0xbe61918c	-0.22028178
219	0x3d388461	0.04504812
220	0x3e6a2f3d	0.22869582
221	0xbc0d1690	-0.008611336
222	0x3d3f3a27	0.046686318
223	0x3bd7233a	0.0065654786
224	0xbd1d42f0	-0.038393915
225	0x3dee37ab	0.116317116
226	0xbe3e0568	-0.1855675
227	0x3c6b9a57	0.014380059
228	0xbc4f1e8c	-0.01264156
229	0x3e18d709	0.1492578
230	0xbd46baf5	-0.04851814
231	0xbeb1c479	-0.3472021
232	0xbce33f60	-0.02774018
233	0xbe6a0b5e	-0.22855899
234	0xbd4bd440	-0.049762964
235	0x3ceabe8e	0.028655317
236	0x3e3f4fe7	0.18682824
237	0xbe46b431	-0.19404675
238	0xbdf28bd0	-0.11843073
239	0xbe155bd9	-0.14585818
240	0x3d946045	0.072449245
241	0x3db253d4	0.08707395
242	0xbe055bac	-0.13023251
243	0xbb60785f	-0.0034251434
244	0x3d0f392c	0.034966633
245	0xbb67429a	-0.00352875
246	0xbe245227	-0.16046964
247	0xbe74af18	-0.23894918
248	0x3dca68a6	0.09883241
249	0xbbb49709	-0.005511169
250	0xbe2e862a	-0.17043367
251	0x3e0e28ef	0.13882802
252	0xbe85bddc	-0.26121414
253	0x3cd6ab36	0.026204687
254	0xbc18a974	-0.0093177445
255	0xbccd8b07	-0.025090707
