Weight_Files/VAE_trained_on_1D&3D/vae_net_velocity.pth (torch_old, 84660 bytes, 23 tensors)

encoder.conv1.weight f4 [16, 1, 3]
0	0x3eac3296	0.33632344
1	0xbe647ea3	-0.22313933
2	0xbd5955d9	-0.053060386
3	0x3e573ba7	0.2101885
4	0xbf1986e6	-0.59971464
5	0x3e990ba8	0.29891706
6	0xbdf3b731	-0.11900175
7	0x3e917667	0.28410646
8	0x3d7ee895	0.062233526
9	0xbdbf851c	-0.093515605
10	0x3e00b1fd	0.12567897
11	0x3c86a912	0.01643804
12	0x3e523169	0.20526661
13	0xbe6683fd	-0.22511287
14	0xbd70cc8e	-0.05878883
15	0xbd83761a	-0.064190105
16	0x3d8c0b1b	0.06838056
17	0xbd072238	-0.032991618
18	0x3ef7a800	0.4837036
19	0x3e4576be	0.19283578
20	0xbe636498	-0.22206342
21	0xbeb28872	-0.34869725
22	0xbdc630e4	-0.09677294
23	0xbe7f02f2	-0.24903467
24	0xbe333867	-0.17501985
25	0x3ce49cc1	0.027906777
26	0x3ead05e5	0.3379356
27	0x3ea2d87e	0.31805795
28	0xbf10d64c	-0.5657699
29	0x3eaf01b0	0.34180975
30	0x3a63e3a7	0.00086932856
31	0x3e4a37b4	0.19747812
32	0x3e797fbf	0.24365138
33	0xbf06aaec	-0.52604556
34	0xbf0c87f4	-0.5489495
35	0xbe8e9438	-0.27847457
36	0x3f0337ab	0.5125682
37	0xbdbf182a	-0.09330781
38	0x3e7a7f53	0.24462633
39	0xbe9fd928	-0.31220365
40	0x3f0c1d99	0.5473266
41	0xbe80ff37	-0.25194713
42	0x3ecd97de	0.40154928
43	0xbcd0db5a	-0.02549522
44	0xbea88831	-0.32916406
45	0x3e8cf76b	0.27532515
46	0xbe9d6ab3	-0.30745468
47	0x3dc895f5	0.09794227

encoder.conv1.bias f4 [16]
0	0xbe88dcb6	-0.2673089
1	0xbd116ecb	-0.03550605
2	0xbf35f99c	-0.71084
3	0xbef1bd0d	-0.47214547
4	0x3ee20d61	0.44150832
5	0xbe972181	-0.2951775
6	0x3ede51d9	0.4342182
7	0x3eecf3c4	0.46279728
8	0xbe232267	-0.15931092
9	0xbf0bf16c	-0.54665256
10	0x3de64628	0.1124385
11	0x3e377c34	0.17918473
12	0xbf038bbb	-0.51385087
13	0x3f02489a	0.5089203
14	0x3e8ee461	0.27908614
15	0x3f082e1f	0.53195375

encoder.conv2.weight f4 [8, 16, 3]
0	0xbd774dc9	-0.060376916
1	0x3d0cc019	0.034362886
2	0x3d656a24	0.056009427
3	0xbb66ac46	-0.0035197898
4	0xbdd5fbea	-0.104484394
5	0xbda942c9	-0.082646914
6	0x3dfc87ad	0.123305656
7	0x3c9db9c6	0.019253623
8	0x3dfe511f	0.12417816
9	0x3d26dbd7	0.040737
10	0x3db4193e	0.08793877
11	0x3d5207c3	0.051276933
12	0xbd0a047c	-0.033695683
13	0xbd03940e	-0.032123618
14	0xbe13a809	-0.14419569
15	0x3dd279a1	0.10277105
16	0xbd888dbd	-0.066676594
17	0xbe051535	-0.12996371
18	0x3c820216	0.015870135
19	0xbd0a90d3	-0.03382952
20	0x3db7e4e9	0.08979208
21	0xbdab31c6	-0.08359103
22	0xbe03649c	-0.12831348
23	0x3dd72182	0.10504438
24	0xbcdc9909	-0.026928442
25	0x3daea21d	0.085270144
26	0x3d261ec9	0.040556703
27	0xbd530f5c	-0.05152832
28	0x3db4e11f	0.08832001
29	0x3dceed4a	0.10103853
30	0xbdb90047	-0.09033256
31	0xbd65b7d0	-0.0560835
32	0x3d80d4c1	0.062905796
33	0x3cd3cc00	0.02585411
34	0xbd7b7bae	-0.061397247
35	0xbd32f7b8	-0.043693274
36	0x3e267be6	0.16258201
37	0xbc088a49	-0.008333751
38	0x3de31f09	0.11089904
39	0x3d65a88a	0.056068935
40	0xbdc6631d	-0.09686873
41	0xbe184f41	-0.14873983
42	0x3df4c625	0.119518556
43	0xbcf9c1c2	-0.030487899
44	0x3db2cdd1	0.087306626
45	0xbad37b4c	-0.0016134768
46	0x3b942963	0.0045215352
47	0x3da0e46a	0.078560665
48	0x3e2e26b8	0.17006958
49	0xbe0a4314	-0.13502151
50	0x3d174fc0	0.03694129
51	0x3de2ac19	0.11067981
52	0x3d1516e3	0.03639878
53	0x3d72c51c	0.05927001
54	0xbdce570c	-0.100751966
55	0xbdbbf04e	-0.09176694
56	0xbdb03adf	-0.08604979
57	0x3c89148b	0.016733428
58	0x3e1a4bf9	0.15068044
59	0xbdd0c3db	-0.101936065
60	0xbe2bb27e	-0.16767308
61	0xbe85aae6	-0.26106948
62	0xbe7055d5	-0.23470242
63	0xbd0df4f7	-0.034657445
64	0x3e057249	0.13031878
65	0x3e48cfd6	0.19610533
66	0xbdcdbbce	-0.100455865
67	0x3b9efee3	0.004852162
68	0x3dc7d5b3	0.09757557
69	0x3dc3e1f2	0.0956458
70	0x3db83a10	0.089954495
71	0x3dd210bc	0.10257098
72	0x3d98a7cc	0.0745388
73	0x3c1db3b0	0.00962536
74	0xbe0fd895	-0.14047463
75	0xbd85781a	-0.06517048
76	0xbd817789	-0.06321628
77	0x3b12e781	0.002241582
78	0xbdddba8f	-0.10826599
79	0x3d05e863	0.032692324
80	0x3c9ea712	0.019366775
81	0xbd05debc	-0.03268312
82	0x3d63398c	0.055474803
83	0x3d3f11a8	0.046647698
84	0x3dd0163e	0.10160492
85	0x3da85a85	0.0822039
86	0xbd864e72	-0.06557931
87	0x3de873f2	0.1135024
88	0xbc531840	-0.0128842
89	0xbcb52faa	-0.022117455
90	0xbe06a62d	-0.13149329
91	0xbe0f013f	-0.13965319
92	0xbde5dc0a	-0.1122361
93	0xbd42afc7	-0.047530916
94	0x3d3ab569	0.045583162
95	0xbdcf2b36	-0.10115664
96	0xbd863e17	-0.065548114
97	0x3dbf5025	0.09341458
98	0xbc1d6723	-0.009607109
99	0x3df61d9a	0.12017365
100	0xbd8b7f46	-0.06811385
101	0xbc22323f	-0.009899675
102	0xbcea7805	-0.028621683
103	0xb9933780	-0.00028079376
104	0xbdedcb59	-0.11611051
105	0xbd44cfa4	-0.048049584
106	0xbd41e6bf	-0.047339197
107	0x3d443661	0.047903422
108	0x3dbec8f8	0.093156755
109	0xbd45757a	-0.048207738
110	0x3da47516	0.08030145
111	0x3e0eb3c3	0.13935761
112	0x3d3d7bee	0.046260767
113	0xbc6cddb1	-0.014457152
114	0xbdd8723d	-0.10568664
115	0x3de63ef9	0.1124248
116	0xbd439455	-0.047748882
117	0xbc3f2f70	-0.011669025
118	0xbdfea976	-0.12434666
119	0xbce98f78	-0.028510794
120	0xbdcbec93	-0.09957232
121	0x3ded5a95	0.11589543
122	0xbe18fa5c	-0.14939255
123	0xbde116b0	-0.109906554
124	0xbc95bd24	-0.018278666
125	0xbd96357f	-0.07334422
126	0x3d5c0623	0.05371679
127	0xbd5d5705	-0.054038066
128	0xbd992913	-0.074785374
129	0x3c05f030	0.008174941
130	0x3dd5fc94	0.10448566
131	0xbdcfef35	-0.10153047
132	0x3da173b0	0.07883394
133	0x3dcc45b5	0.09974233
134	0x3e047c90	0.12938142
135	0xbdb9b3ca	-0.09067495
136	0x3d3af09e	0.045639627
137	0xbdd1124e	-0.102085695
138	0x3dd661e5	0.10467891
139	0xbd82452b	-0.06360849
140	0x3d7d3957	0.06182226
141	0xbccadd09	-0.0247636
142	0xbd8b42d4	-0.06799856
143	0xbd6a7350	-0.057238877
144	0x3e21b822	0.15792897
145	0x3e2ccc9a	0.16874924
146	0xbd6022e9	-0.054720793
147	0x3db8a327	0.09015494
148	0xbe31d8b5	-0.17367823
149	0x3dd725b9	0.10505242
150	0x3e428e40	0.18999577
151	0x3e3bf4d7	0.18355118
152	0x3c3ed3a3	0.011647138
153	0xbda6f6fa	-0.08152576
154	0x3d63c36c	0.05560629
155	0x3d0a6d6d	0.033795763
156	0xbde7b817	-0.11314409
157	0x3dd3f84b	0.103500925
158	0xbe53ada2	-0.20671704
159	0xbddec8d6	-0.1087815
160	0x3d8cac88	0.06868845
161	0xbe1dedc9	-0.15422739
162	0x380238e5	3.1047402e-05
163	0x3e05a912	0.13052776
164	0x3c448d93	0.011996645
165	0x3e0bc8c6	0.13650808
166	0xbcefeeac	-0.029288612
167	0xbde5c2c9	-0.11218793
168	0x3e0e9fd5	0.13928159
169	0xbe11fd1c	-0.1425671
170	0xbd733e42	-0.059385546
171	0x3dc713ef	0.09720599
172	0xbe36e368	-0.17860186
173	0x3dc24b52	0.094870225
174	0x3df58b3f	0.1198945
175	0xbdccd478	-0.10001463
176	0xbe634535	-0.22194369
177	0xbc4f2680	-0.012643456
178	0x3d785264	0.06062545
179	0xbb88fb20	-0.004180327
180	0xbce4f07c	-0.027946703
181	0x3d3265f8	0.043554276
182	0xbe6c17f0	-0.23056006
183	0xbdc7d2d2	-0.09757008
184	0xbdb2080e	-0.086929426
185	0x3c046f6b	0.008083205
186	0x3e17a59e	0.14809272
187	0xbc8fd562	-0.017557804
188	0xbdc2171e	-0.094770655
189	0x3d5fd0b8	0.05464241
190	0xbe0f2c32	-0.13981703
191	0xbe205382	-0.15656856
192	0x3da87a9f	0.08226513
193	0x3e01ac6f	0.12663434
194	0x3d32272c	0.04349439
195	0xbd880fad	-0.06643615
196	0x3e225e19	0.15856208
197	0x3e0c939b	0.13728182
198	0xbd504ed5	-0.05085643
199	0x3e58e1ee	0.21179935
200	0x3e0fcf51	0.14043929
201	0xbdebdbaa	-0.11516507
202	0x3e25e74c	0.16201514
203	0xbd2c4b71	-0.042064134
204	0xbcce9e36	-0.025221925
205	0xbcaece82	-0.021338705
206	0x3bd08f2b	0.006364723
207	0x3cc9112b	0.02454432
208	0x3dcf3b79	0.101187654
209	0x3dfcaa08	0.123371184
210	0xbc61df48	-0.013786145
211	0xbd898d08	-0.06716353
212	0xbdab4397	-0.08362501
213	0xbbc21a80	-0.005923569
214	0xbd8c088b	-0.06837567
215	0x3bbd8380	0.0057834983
216	0xbd9e4875	-0.07728664
217	0x3d9c2ab4	0.076253325
218	0x3e168d6e	0.14702389
219	0x3ddac6b6	0.10682432
220	0x3d4918a0	0.04909575
221	0xbac80c89	-0.0015262525
222	0xbddfc3cb	-0.109260164
223	0x3e31bad8	0.17356431
224	0x3d0262a0	0.031832337
225	0x3ceead18	0.029135272
226	0x3baef480	0.0053392053
227	0xbdbc60d7	-0.09198158
228	0x3e0e04f2	0.13869074
229	0x3df6f440	0.12058306
230	0x3da762d2	0.08173145
231	0xbdda6b19	-0.106649585
232	0xbd81f702	-0.06345941
233	0x3bc89921	0.00612177
234	0xbd87fe49	-0.06640298
235	0xbdf34993	-0.118792675
236	0xbc4871b0	-0.012234136
237	0xbd4bcbba	-0.049754836
238	0x3cb19f2f	0.02168235
239	0xbd03fcd6	-0.032223545
240	0xbc9cbe90	-0.019133836
241	0xbd61a716	-0.055090986
242	0xbe0711f3	-0.13190441
243	0x3e00e6de	0.12588069
244	0x3ce19560	0.027537048
245	0x3e042afa	0.1290702
246	0xbcbe8f1c	-0.0232616
247	0xbd1493ec	-0.03627388
248	0xbe0af302	-0.13569263
249	0xbd606da8	-0.054792076
250	0x3dc1d930	0.09465253
251	0xbe10c381	-0.14137079
252	0xbd4ec89e	-0.050484292
253	0x3db4195c	0.087938994
254	0x3daa5e9e	0.08318828
255	0x3d5a4ce0	0.05329597

encoder.conv2.bias f4 [8]
0	0xbe5927eb	-0.21206634
1	0xbe802d5c	-0.25034606
2	0xbd2b3cde	-0.041806094
3	0xbd3bf20e	-0.04588514
4	0x3d573edd	0.052550185
5	0xbc772780	-0.015085101
6	0x3e9aa888	0.30206704
7	0x3db766ca	0.08955152

encoder.conv3.weight f4 [16, 8, 3]
0	0xbd87c9cc	-0.066302866
1	0xbdf6b003	-0.1204529
2	0x3e0e4e3e	0.13897035
3	0xbd9ea282	-0.0774584
4	0x3e0a6faf	0.13519166
5	0xbddb11c4	-0.10696748
6	0x3e11bbe7	0.14231835
7	0x3d75b0b3	0.059982967
8	0x3cf1a166	0.029495906
9	0x3e1f01a7	0.15527974
10	0xbe325401	-0.17414857
11	0x3ab5d522	0.0013872723
12	0x3d6131e6	0.054979227
13	0xbda1dd0a	-0.07903488
14	0xbd5ac33d	-0.05340885
15	0xbdb448d4	-0.08802953
16	0x3e4734e4	0.1945377
17	0x3e319296	0.17341074
18	0x3e3068a3	0.17227416
19	0x3e30e03f	0.17273043
20	0xbe082d83	-0.13298611
21	0x3d855968	0.065111935
22	0x3d93a071	0.07208336
23	0xbe195063	-0.14972071
24	0x3e0054c8	0.12532341
25	0xbdcadb17	-0.09905069
26	0x3d4c59d8	0.04989037
27	0x3da255b4	0.07926503
28	0x3e28014e	0.16406748
29	0xbe19b521	-0.15010501
30	0xbe2d5105	-0.16925438
31	0x3e3e9580	0.18611717
32	0x3dd5ba6d	0.104359485
33	0x3c6cd0b3	0.014454055
34	0x3d901a87	0.0703631
35	0xbcba9464	-0.022775836
36	0x3e2c68e2	0.16836885
37	0xbe2b61bc	-0.16736501
38	0x3d429f8c	0.047515437
39	0x3dbcf938	0.09227222
40	0x3e0ed05e	0.13946673
41	0xbdd0c296	-0.10193364
42	0xbe1dd4e9	-0.1541325
43	0x3daf7277	0.08566754
44	0xbe42cdbb	-0.19023792
45	0xbe2db620	-0.16964006
46	0xbe38ba44	-0.18039805
47	0xbdcab9a2	-0.09898688
48	0xbd1f976c	-0.038962767
49	0xbdf79071	-0.12088097
50	0xbdb0c2ca	-0.08630903
51	0xbe391656	-0.18074927
52	0x3e007988	0.1254636
53	0xbd3f6814	-0.046730116
54	0xbe03e1d8	-0.12879121
55	0x3d59ae50	0.053144753
56	0xbe1c49cc	-0.15262526
57	0x3e12506c	0.14288491
58	0x3df06214	0.11737457
59	0xbe4d68d2	-0.20059517
60	0xbe241267	-0.16022645
61	0xbe09d330	-0.13459468
62	0xbde24d2d	-0.11049876
63	0x3cd0cac8	0.025487319
64	0xbe4eb1a6	-0.20184955
65	0xbe1af67c	-0.15133089
66	0x3dbeea5c	0.09322044
67	0xbd88ea56	-0.06685321
68	0xbda65998	-0.081225574
69	0xbe2cebc1	-0.16886808
70	0x3da97060	0.08273387
71	0x3c6c2aa0	0.0144144595
72	0xbdcfe1ad	-0.10150466
73	0xbe17753e	-0.14790818
74	0x3d0b4d8e	0.03400951
75	0x3d86ce8c	0.065823644
76	0x3dce8314	0.10083595
77	0x3dae9e66	0.08526306
78	0xbd511f3c	-0.051055178
79	0xbe328db5	-0.1743687
80	0x3de9f7f6	0.11424248
81	0xbb5ab413	-0.0033371493
82	0xbde4be95	-0.11169163
83	0x3e3a39cd	0.18186112
84	0x3da99aef	0.08281504
85	0xbe4e6838	-0.20156944
86	0xbe0f135d	-0.1397223
87	0xbd8e4352	-0.06946434
88	0xbdf154c4	-0.11783746
89	0x3dc338dc	0.095323294
90	0xbe2f8331	-0.1713989
91	0x3e2bceb7	0.16778074
92	0xbdf67115	-0.120332874
93	0x3df6c330	0.12048948
94	0x3be3c8c0	0.0069514215
95	0xbdb7da5f	-0.08977198
96	0x3e0081c2	0.12549499
97	0xbe1ff2c2	-0.15619949
98	0xbdc13e47	-0.094357066
99	0x3d0e70ec	0.03477566
100	0x3e371b0c	0.17881411
101	0xbd8c654c	-0.06855258
102	0xbe1d9522	-0.15388921
103	0xbe164919	-0.14676322
104	0xbd9f74a3	-0.077859186
105	0xbd9059f2	-0.07048406
106	0xbdaa2265	-0.083073415
107	0xbde51312	-0.11185278
108	0x3d403f43	0.04693533
109	0xbd90c090	-0.070679784
110	0xbe07382b	-0.1320502
111	0xbdeebb3e	-0.11656807
112	0x3d310b58	0.04322371
113	0xbb3f1a00	-0.0029159784
114	0x3de8157e	0.11332224
115	0xbc071fc7	-0.008247322
116	0xbe2f6814	-0.17129546
117	0xbe1a989b	-0.15097277
118	0xbd756a00	-0.059915543
119	0xbd392ce0	-0.04520881
120	0x3d15623a	0.03647063
121	0xbd202979	-0.03910205
122	0x3d8fe065	0.07025222
123	0xbdbff615	-0.09373108
124	0x3decbb0a	0.11559112
125	0x3ca072d3	0.019586002
126	0xbd8e7fdd	-0.06957982
127	0x3e32037b	0.1738414
128	0x3d52cf68	0.05146733
129	0xbe472891	-0.19449069
130	0xbe0a14e3	-0.1348453
131	0x3e1610b9	0.14654817
132	0x3db71abb	0.08940645
133	0x3e3a6202	0.1820145
134	0xbc16403e	-0.00917059
135	0x3e1231f0	0.14276862
136	0x3dcfd7f4	0.10148612
137	0x3d8148a8	0.06312686
138	0xbd20de86	-0.039274715
139	0x3e404d56	0.18779501
140	0x3d542fb8	0.05180332
141	0xbd4abb71	-0.049495164
142	0x398c4bf6	0.00026759476
143	0x3e50ba9f	0.2038369
144	0x3e3599e0	0.1773448
145	0x3cdcb277	0.026940567
146	0x3e6fd789	0.23422064
147	0x3df33b4f	0.118765466
148	0xbdf6fa17	-0.120594196
149	0xbe41d348	-0.18928254
150	0x3dc2589b	0.094895564
151	0x3e548736	0.20754704
152	0xbdd9f82b	-0.106430374
153	0x3e34c160	0.17651892
154	0xbd13597d	-0.035974015
155	0xbd90b84a	-0.070664
156	0xbb9d68aa	-0.0048037367
157	0x3e0b27aa	0.1358935
158	0x3dca1b63	0.09868505
159	0x3e0d2d12	0.13786724
160	0x3d990934	0.074724585
161	0x3dbe3c28	0.09288818
162	0x3e6d0310	0.231457
163	0x3df30406	0.11866002
164	0x3d6ee20b	0.05832104
165	0xbd91b202	-0.071140304
166	0x3e1c8928	0.15286696
167	0x3d0879ef	0.03331941
168	0x3d9965e1	0.07490135
169	0x3e3c4b8c	0.18388194
170	0xbe0e36cd	-0.13888092
171	0x3e1addd3	0.15123682
172	0xbdb369b6	-0.08760397
173	0x3e34b328	0.17646468
174	0x3e2673d2	0.1625512
175	0xbdb63719	-0.08897228
176	0xbdd92b54	-0.10603967
177	0xbcfb9a78	-0.030713305
178	0xbd9e19be	-0.07719754
179	0xbe14e6a4	-0.14541107
180	0xbd81f9af	-0.063464515
181	0xbe183403	-0.14863591
182	0xbe86fa5f	-0.26362893
183	0xbdfcd889	-0.12345988
184	0xbc8ee518	-0.017443225
185	0xbd8573fa	-0.065162614
186	0x3dfbc2f3	0.12293043
187	0x3d98e7c4	0.07466081
188	0x3d9b5c2d	0.075859405
189	0x3db90500	0.09034157
190	0xbe25b4b6	-0.16182217
191	0x3e457a48	0.19284928
192	0xbe38317c	-0.17987627
193	0xbd896f80	-0.0671072
194	0xbe131d1c	-0.14366573
195	0x3d965458	0.07340306
196	0xbe2dee70	-0.16985488
197	0xbdce1830	-0.10063207
198	0xbe04c61e	-0.129662
199	0xbe007bca	-0.12547222
200	0xbdc326da	-0.09528895
201	0x3e4d793c	0.20065778
202	0xbc8894b8	-0.016672477
203	0x3d7edd60	0.06222284
204	0xbe4f7e72	-0.20263079
205	0x3e39d87a	0.18148986
206	0xbd36107c	-0.044449314
207	0xbe3fd466	-0.18733367
208	0x3e100cde	0.14067408
209	0xbd621304	-0.055193916
210	0x3e3dd212	0.18537167
211	0xbe0df9a8	-0.13864768
212	0xbe42105b	-0.18951552
213	0xbe1d0787	-0.15334903
214	0x3db516ac	0.08842215
215	0xbcbb87c0	-0.02289188
216	0xbe28898b	-0.16458718
217	0xbb163236	-0.0022918112
218	0xbe16de55	-0.1473325
219	0x3df94d26	0.12172918
220	0xbe1b8ca1	-0.15190364
221	0xbe434d3c	-0.19072431
222	0x3e332f18	0.17498434
223	0xbd450e38	-0.048109263
224	0x3db4922c	0.088169426
225	0x3e750f78	0.23931682
226	0xbd89dc21	-0.067314394
227	0xbde6a21f	-0.11261391
228	0x3d1ca9b3	0.038247775
229	0xbe457cc6	-0.19285879
230	0xbd184882	-0.037178524
231	0xbdae2f1a	-0.08505078
232	0xbdb95a37	-0.0905041
233	0xbe2196be	-0.1578016
234	0x3e1eccc0	0.15507793
235	0xbcd3674c	-0.025806092
236	0xbe012e80	-0.12615395
237	0xbd5bdf34	-0.05367966
238	0xbde8ba26	-0.1136363
239	0xbe4b363c	-0.19844908
240	0x3dc02dec	0.09383759
241	0xbd876a5c	-0.06612083
242	0x3e0f92f1	0.14020897
243	0x3e23594c	0.15952033
244	0xbe132b57	-0.14372002
245	0xbd6c570d	-0.057700206
246	0xbd80ed57	-0.06295269
247	0x3e038a49	0.1284572
248	0xbbb8101b	-0.0056171543
249	0xbe154d5c	-0.14580292
250	0x3e0c0135	0.13672335
251	0x3e4e6ab9	0.20157899
252	0x3e1d7f0c	0.15380496
253	0xbe2ee403	-0.17079167
254	0xbd1c6e36	-0.038191043
255	0xbd205f6c	-0.0391535

encoder.conv3.bias f4 [16]
0	0x3e892b1e	0.26790708
1	0xbe481609	-0.19539656
2	0xbe34fea0	-0.17675257
3	0xb9342453	-0.0001717967
4	0x3d1c2142	0.038117655
5	0xbe8d148a	-0.27554733
6	0xbe419ee1	-0.18908264
7	0x3d62626e	0.05526965
8	0xbd2b78e8	-0.041863352
9	0x3e8dba6b	0.27681288
10	0xbe9f464e	-0.31108326
11	0xbe1cf051	-0.15326048
12	0xbea57b2a	-0.3232053
13	0xbdea672a	-0.11445458
14	0xbe8bbba5	-0.272916
15	0x3d082475	0.033237893

encoder.conv4.weight f4 [4, 16, 3]
0	0xbe244ba7	-0.16044484
1	0xbe21e3e4	-0.1580959
2	0xbe1194d1	-0.14216925
3	0xbdb58801	-0.08863831
4	0x3e086cc0	0.13322735
5	0x3ce9c0a3	0.02853424
6	0xbda43bb4	-0.080192
7	0x3dcf2340	0.10114145
8	0xbd06218c	-0.032746837
9	0x3daea4f6	0.085275576
10	0xbd5b0301	-0.05346966
11	0xbdaadcff	-0.08342933
12	0x3a77a9ec	0.00094476226
13	0x3d1d9c8a	0.038479365
14	0xbe2f0906	-0.17093286
15	0x3d0f0808	0.03491977
16	0x3d74abd0	0.059734166
17	0x3d8d121d	0.068882205
18	0x3c1a6fb3	0.009426045
19	0xbd1015e1	-0.035177115
20	0xbdbce944	-0.092241794
21	0x3dc1942a	0.09452088
22	0xbdd6e0e4	-0.10492113
23	0xbdf99f98	-0.12188643
24	0xbd3dcf02	-0.046339996
25	0xbdca5b6c	-0.098807186
26	0x3d35347c	0.044239506
27	0x3d3b5aa2	0.04574073
28	0x3bb6b4eb	0.0055757663
29	0xbe84a3a1	-0.2590609
30	0x3e3f71db	0.18695776
31	0x3e261cb9	0.16221894
32	0x3d7962c1	0.060885195
33	0x3d9cbabc	0.07652804
34	0x3de8db2a	0.11369927
35	0x3e28b6d2	0.1647599
36	0x3dc85e15	0.0978357
37	0x3db75dc3	0.089534305
38	0xbc77dfdb	-0.015129055
39	0xbe078fab	-0.13238399
40	0xbd81d05b	-0.06338569
41	0x3df337b0	0.11875856
42	0x3cc7a1b6	0.024369102
43	0x3df26693	0.11835971
44	0xbd9d7aee	-0.076894626
45	0xbc025cd6	-0.007956704
46	0xbd869e67	-0.065731816
47	0xbe2bb109	-0.16766752
48	0x3de2f5ec	0.11082062
49	0xbd8e0b49	-0.06935746
50	0xbb272487	-0.002550395
51	0x3caacc70	0.020849437
52	0xbde021fd	-0.10943983
53	0x3dee632b	0.116400085
54	0xbd3c1d62	-0.04592646
55	0x3d84cc98	0.06484336
56	0x3da4fb58	0.080557525
57	0x3e19f693	0.15035467
58	0x3dc9ef4f	0.098600976
59	0x3df378de	0.11888288
60	0x3e18a403	0.14906316
61	0x3dd78def	0.105251186
62	0x3d114b80	0.035472393
63	0xbd3322cd	-0.04373436
64	0x3d424ed0	0.047438443
65	0x3db330f6	0.08749573
66	0xbe222e45	-0.15837963
67	0x3e12e89c	0.14346546
68	0x3d17edf1	0.037092153
69	0x3d0b0b7c	0.0339465
70	0x3d942254	0.0723311
71	0x3e41c545	0.18922909
72	0x3d5ce89c	0.05393277
73	0x3df14b08	0.11781889
74	0x3b438e80	0.0029839575
75	0x3e6b7b8f	0.22996353
76	0x3e81e1e6	0.2536766
77	0x3e5d2258	0.21595132
78	0xbc869347	-0.01642765
79	0x3d2a992d	0.041649986
80	0x3d8735df	0.06602072
81	0xbbb58abd	-0.0055402205
82	0xbc647a95	-0.013945241
83	0x3d957e07	0.072994284
84	0xbc88dc0c	-0.016706489
85	0x3db50288	0.088383734
86	0x3da401d6	0.08008163
87	0x3d94b644	0.07261327
88	0x3e42d819	0.19027747
89	0x3c2753b4	0.0102128275
90	0xbe2b5c0d	-0.16734333
91	0x3cf26ff2	0.029594395
92	0xbd7443cc	-0.05963497
93	0x3d737e36	0.059446536
94	0x3dd64adb	0.10463496
95	0xbdab14ad	-0.08353553
96	0x3cdaff85	0.02673317
97	0x3e08c525	0.13356455
98	0xbe2d494e	-0.16922495
99	0x3ca6d067	0.020363046
100	0x3e3e69c2	0.18595031
101	0x3e2c12f6	0.16804108
102	0x3d2b9790	0.04189259
103	0xbd7efcf4	-0.062252954
104	0xbc5c7240	-0.013454974
105	0xbd906865	-0.07051162
106	0xbdbd91c2	-0.09256317
107	0xbda4f0cb	-0.0805374
108	0x3de7fd4d	0.1132761
109	0x3d5fdbdc	0.054653034
110	0x3a3f091d	0.000728743
111	0x3c7017c7	0.014654106
112	0x3e3c6900	0.1839943
113	0x3c12fd46	0.008971518
114	0x3e282732	0.16421202
115	0x3da82e31	0.08211935
116	0xbcc87e99	-0.024474429
117	0x3d8d623a	0.06903501
118	0xbc289549	-0.010289499
119	0xbd514aa6	-0.05109658
120	0x3d30cb54	0.04316266
121	0xbd342104	-0.0439768
122	0x3d87cfa0	0.06631398
123	0x3e04a5af	0.12953828
124	0xbd8a8272	-0.06763162
125	0x3de3fd74	0.11132327
126	0x3e0c73f8	0.13716114
127	0x3e2acf6a	0.16680685
128	0xba0eaef2	-0.0005442939
129	0x3c25a168	0.010109283
130	0xb971013f	-0.00022984015
131	0x3e2865c7	0.16445075
132	0xbda6ff78	-0.081541955
133	0xbc682ac5	-0.014170353
134	0x3d63e6b9	0.055639956
135	0x3e25fd05	0.162098
136	0x3e16326e	0.14667675
137	0xbdcf0caa	-0.10109837
138	0xbd8ffaa2	-0.07030226
139	0x3e770055	0.2412122
140	0x3d052668	0.03250733
141	0xbda7725b	-0.081761084
142	0xbca64e80	-0.020301104
143	0x3d9d0af3	0.07668104
144	0xbcc40f15	-0.023932973
145	0xbdce24c6	-0.10065608
146	0xbdae947a	-0.085244134
147	0xbd8baa70	-0.06819618
148	0x3c0fce87	0.008777267
149	0x3d8ca6ce	0.06867753
150	0x3d8ded76	0.06930058
151	0xbd8f9a03	-0.07011797
152	0xbcc66488	-0.024217859
153	0xbdd1b89b	-0.10240289
154	0x3dffefe0	0.124969244
155	0x3e2339d0	0.15940022
156	0x3e167814	0.14694244
157	0x3d99b06d	0.07504354
158	0xbccabcc6	-0.024748217
159	0x3c47dd4c	0.012198757
160	0x3d88746c	0.06662831
161	0xbde88de7	-0.11355191
162	0x3c209673	0.009801495
163	0xbdf19502	-0.11795999
164	0xbe13592d	-0.14389487
165	0x3c4cc6d8	0.01249858
166	0xbcf0b440	-0.029382825
167	0xbd9bdeff	-0.076108925
168	0x3cc40380	0.02392745
169	0x3bc0aac0	0.00587973
170	0x3cb46fd8	0.022025988
171	0xbda57210	-0.08078396
172	0xbe0db8cb	-0.13840024
173	0x3c4d1169	0.012516358
174	0xbd76d824	-0.06026472
175	0xbd433689	-0.04765943
176	0x3de400a3	0.11132934
177	0x3d230020	0.03979504
178	0x3da69018	0.081329525
179	0xbd0d7c31	-0.034542266
180	0xbdc67136	-0.09689562
181	0x3d383943	0.044976484
182	0xbda59400	-0.080848694
183	0x3d01525a	0.031572677
184	0xbdde3aba	-0.10851045
185	0x3dfc6f46	0.12325911
186	0xbdac6962	-0.08418538
187	0x3e0fa86f	0.14029096
188	0x3dfe33a6	0.12412195
189	0x3dff6d30	0.12471998
190	0x3dd07750	0.10179007
191	0x3d44ced3	0.048048805

encoder.conv4.bias f4 [4]
0	0xbe20404e	-0.1564953
1	0xbd04130f	-0.03224474
2	0xbe01e64b	-0.12685506
3	0xbdf596b6	-0.119916365

encoder.fc1.weight f4 [400, 20]
0	0x3e50b40e	0.20381185
1	0x3c3dd190	0.011585608
2	0x3dd76190	0.105166554
3	0x3c0676b0	0.008207008
4	0x3d8399e0	0.06425834
5	0xbe0d13d8	-0.13777101
6	0xbe31fefc	-0.17382425
7	0x3e2e9ff2	0.17053202
8	0x3dada928	0.084795296
9	0x3de21dfc	0.11040875
10	0xbe6344d1	-0.2219422
11	0x3c77afd0	0.015117601
12	0xbe559364	-0.20857006
13	0xbcd19fc8	-0.025588885
14	0xbc41ac20	-0.011820823
15	0xbe21165c	-0.15731186
16	0xbe62bc35	-0.22142108
17	0x3ac0e600	0.0014716983
18	0x3e4dea62	0.20108941
19	0x3e4e5b40	0.20151997
20	0xbe0b6764	-0.13613659
21	0xbcac0a29	-0.021000938
22	0xbdb29a46	-0.087208316
23	0xbe208e86	-0.15679368
24	0xbd33a2de	-0.043856494
25	0x3e3fa842	0.18716529
26	0xbe7bcf2e	-0.24590752
27	0xbd1fac92	-0.038982935
28	0x3ccad97d	0.02476191
29	0xbd83eb77	-0.06441396
30	0x3e50299d	0.20328374
31	0x3e1e2474	0.15443593
32	0x3e663c5b	0.22483961
33	0x3dc7b332	0.09750976
34	0xbe0cb9d3	-0.13742761
35	0xbe3d2492	-0.18470982
36	0xbdcc2b97	-0.099692516
37	0x3e433ca3	0.190661
38	0x3e055934	0.1302231
39	0x3d8607b8	0.06544441
40	0xbe2e5eb0	-0.17028308
41	0xbe28a3d4	-0.16468745
42	0x3e3aceca	0.18242946
43	0xbcbe2578	-0.023211226
44	0xbe668f22	-0.22515538
45	0xbd7fa9d6	-0.062417828
46	0xbdad716e	-0.084689006
47	0xbd0d00b2	-0.03442449
48	0x3d6e13de	0.058124416
49	0x3d879af1	0.066213496
50	0xbe3576e8	-0.1772114
51	0xbc57d631	-0.013173626
52	0xbdf7e033	-0.121033095
53	0x3e10a744	0.14126307
54	0x3dcde404	0.10053256
55	0x3df0448b	0.117318235
56	0x3e3f702e	0.18695137
57	0x3ddd7415	0.108131565
58	0xbe64e337	-0.223523
59	0x3d671b78	0.05642268
60	0xbe1d1e42	-0.15343574
61	0x3c1df8b3	0.009641814
62	0x3e46d66a	0.1941773
63	0x3e30db62	0.17271188
64	0xbe901361	-0.28139785
65	0xbe27307a	-0.16327086
66	0x3dc0acd8	0.09407967
67	0x3de4fa72	0.11180581
68	0x3eb847fb	0.35992417
69	0x3e9cb66d	0.3060793
70	0x3d8daa0c	0.069171995
71	0x3cbbbc16	0.022916835
72	0xbde7b47a	-0.1131372
73	0xbe024cf1	-0.12724663
74	0xbe4c3049	-0.19940294
75	0x3d331a80	0.043726444
76	0xbe164bc0	-0.14677334
77	0x3d9d71e8	0.076877415
78	0x3e13df98	0.14440763
79	0x3e424c9e	0.1897454
80	0xbe61b0bc	-0.22040075
81	0x3e507daa	0.20360437
82	0xbdbb01f6	-0.091312334
83	0x3d8315dd	0.064006545
84	0x3ea0262f	0.31279132
85	0x3e22dcf8	0.15904605
86	0xbe2ccc92	-0.16874912
87	0x3e196e20	0.14983416
88	0xbe7ddc36	-0.24791035
89	0x3e1b8c9f	0.15190361
90	0x3e8a14b1	0.2696891
91	0x3d1967a1	0.037452344
92	0x3de27ccd	0.1105896
93	0x3d9504a8	0.07276279
94	0xbd29b7e4	-0.041435137
95	0xbdbd5913	-0.09245505
96	0xbb12069b	-0.002228177
97	0xbe348cd7	-0.17631851
98	0xbe36691d	-0.17813535
99	0x3cc90890	0.024540216
100	0xbe14fcb6	-0.14549527
101	0xbe04582d	-0.12924261
102	0x3e37fad6	0.1796678
103	0xbe2b80e5	-0.16748388
104	0x3ba20555	0.0049444833
105	0xbd8b084f	-0.06788694
106	0xbb4ab47e	-0.0030930336
107	0xbc9e5451	-0.019327315
108	0xbc0ae467	-0.008477307
109	0x3e67f224	0.22650963
110	0x3dad804b	0.084717356
111	0xbe31fd25	-0.17381723
112	0xbe0a72f3	-0.13520412
113	0x3e052e1f	0.13005875
114	0xbe71eb99	-0.2362503
115	0x3d780f68	0.060561568
116	0xbe392e18	-0.1808399
117	0xbe4bcbf5	-0.19902022
118	0x39b16400	0.00033834577
119	0xbe02af08	-0.12762082
120	0x3df80474	0.12110224
121	0xbd491b59	-0.049098346
122	0x3ccc6706	0.02495147
123	0xbd1a61ea	-0.037691034
124	0x3e4c272d	0.1993682
125	0x3e8708ee	0.26374
126	0xbde05801	-0.109542854
127	0xbdcda8db	-0.10041972
128	0xbd3bfdf1	-0.045896474
129	0x3e90004e	0.28125232
130	0x3e3139d1	0.17307211
131	0x3e1f1f09	0.15539183
132	0x3dec30c1	0.115327366
133	0x3e6ff912	0.23434857
134	0x3e3e517d	0.18585773
135	0x3df0a3f9	0.11750025
136	0x3e1ce396	0.15321192
137	0x3d1caca5	0.038250584
138	0x3e47a65a	0.19497052
139	0x3e0e6158	0.13904321
140	0xbbe04c40	-0.006845027
141	0xbda3e7f4	-0.08003226
142	0x3c1f289f	0.009714275
143	0x3e762c26	0.24040279
144	0x3e696a28	0.22794402
145	0xbd8834a3	-0.06650665
146	0xbe1c655a	-0.15273038
147	0x3dbf1a64	0.093312055
148	0x3cc08425	0.023500511
149	0x3e5ac165	0.21362837
150	0x3e3c4b47	0.18388091
151	0x3def511a	0.11685391
152	0x3de1c138	0.11023182
153	0xbde17800	-0.11009216
154	0x3c1e14f4	0.00964855
155	0x3d019a56	0.031641327
156	0xbe114bdb	-0.14189093
157	0xbe421525	-0.18953378
158	0x3e1c9cfe	0.15294263
159	0x3d9bc018	0.07604998
160	0xbe38c610	-0.18044305
161	0x3c5970d0	0.0132715255
162	0x3e78fb54	0.24314624
163	0x3e0d1c88	0.13780415
164	0x3e661159	0.22467555
165	0xbdd9bf68	-0.10632211
166	0x3dc61d5a	0.09673567
167	0xbe50c1ab	-0.20386378
168	0xbd74f5e8	-0.059804827
169	0xbe11a044	-0.14221293
170	0xbce397aa	-0.02778228
171	0x3df050a7	0.11734133
172	0x3dc8353d	0.097757794
173	0xbe0551be	-0.13019463
174	0xbd779b9e	-0.060451142
175	0xbd373ab4	-0.044733718
176	0xbdae3716	-0.085066006
177	0xbdfadc55	-0.12249056
178	0x3e282280	0.1641941
179	0x3e1e45ea	0.15456358
180	0x3e3f273c	0.1866731
181	0xbdfb76bf	-0.122785084
182	0x3e27ac8e	0.16374418
183	0xbd8add1c	-0.067804545
184	0xbd572e74	-0.052534536
185	0xbd7696f8	-0.06020257
186	0xbc322430	-0.010872886
187	0xbdc888c0	-0.09791708
188	0x3cfa82e0	0.030579984
189	0xbe13950c	-0.14412326
190	0x3dbc5918	0.09196681
191	0xbe4005b4	-0.18752176
192	0xbda60430	-0.081062675
193	0xbe1fed80	-0.15617943
194	0x3e1a7558	0.15083826
195	0x3e1d50d6	0.15362868
196	0xbe361d85	-0.17784698
197	0xbdf9e372	-0.12201585
198	0x3e4ced72	0.20012453
199	0x3d857108	0.065156996
200	0x3e1daa5a	0.15397015
201	0xbe1b78ed	-0.15182848
202	0x3e235727	0.15951215
203	0x3e504ecb	0.20342557
204	0x3cff5ffa	0.031173695
205	0x3b844691	0.0040367325
206	0x3c97e0d7	0.01853983
207	0x3d519a5d	0.051172603
208	0xbdcc5b98	-0.099784076
209	0xbdcfa115	-0.10138146
210	0xbd3f67e4	-0.046729937
211	0xbdcc874d	-0.09986744
212	0x3e8f950d	0.28043404
213	0x3db406b3	0.0879034
214	0x3e90e41c	0.28299034
215	0x3e43e78f	0.19131301
216	0xbdd4ed7e	-0.103968605
217	0x3cb22922	0.02174813
218	0xbd6085bd	-0.054815043
219	0xbb850aa0	-0.0040601045
220	0x3e16e848	0.14737046
221	0x3dfc2b54	0.12312952
222	0xbe020df1	-0.1270063
223	0xbde298d1	-0.11064304
224	0xbe22a9d4	-0.15885097
225	0xbe42683c	-0.18985075
226	0x3e12e29e	0.1434426
227	0xbe0d7ca2	-0.13817075
228	0x3b3f82c0	0.002922222
229	0xb99f4400	-0.00030377507
230	0x3d1caf40	0.03825307
231	0xbc565900	-0.013082743
232	0x3deda544	0.116037875
233	0x3cfb90e0	0.03070873
234	0x3e2431a2	0.16034558
235	0x3d45b438	0.048267573
236	0xbb36c700	-0.002788961
237	0x3d01c8a8	0.0316855
238	0x3e189c9e	0.14903495
239	0x3d0a3d50	0.03374988
240	0x3e214e80	0.15752602
241	0xba3cbf30	-0.000720012
242	0x3ddec883	0.10878088
243	0x3e66072a	0.2246367
244	0xbdcbfa72	-0.09959878
245	0x3cad1428	0.021127775
246	0x3dc3c90f	0.09559833
247	0xbe0f60a4	-0.14001709
248	0xbcaf6235	-0.021409133
249	0xbbd6eedf	-0.0065592374
250	0x3e0da22f	0.138314
251	0x3de25d9d	0.110530116
252	0x3dac3b28	0.08409721
253	0x3dfb6584	0.12275222
254	0xbcc3fe70	-0.023925036
255	0x3dc0a988	0.094073355

encoder.fc1.bias f4 [400]
0	0xbe5f6bbb	-0.2181844
1	0x3d0b816d	0.034058977
2	0xbc67291a	-0.0141089205
3	0x3e89f6ef	0.26946208
4	0xbd7a420f	-0.061098155
5	0x3eb8c7ba	0.3608988
6	0xbc76fb51	-0.015074567
7	0xbd4b70e8	-0.049668223
8	0xbe06074e	-0.13088724
9	0xbdee7944	-0.11644223
10	0x3d34da1a	0.04415331
11	0xbd91d886	-0.07121377
12	0xbe3d5459	-0.18489207
13	0x3e2a934e	0.16657755
14	0xbe454889	-0.19265951
15	0x3e6a7ffb	0.22900383
16	0x3d3a6994	0.045510843
17	0x3eaeaf01	0.34117892
18	0x3df28f1d	0.11843703
19	0xbe0588cc	-0.13040465
20	0x3e94b008	0.2904055
21	0x3e5507c3	0.20803742
22	0x3ec7f9f3	0.39057884
23	0xbe3ebfc9	-0.18627848
24	0xbe0767df	-0.13223217
25	0xbe5eb568	-0.21748888
26	0xbe17fe84	-0.14843184
27	0x3e40dce4	0.18834263
28	0xbe5cfe34	-0.21581346
29	0xbc804603	-0.015658384
30	0xbd15f560	-0.03661096
31	0x3e2b052f	0.16701196
32	0x3e9a16d9	0.30095556
33	0xbda0cb71	-0.07851303
34	0xbdb308f6	-0.087419435
35	0x3e1498f4	0.14511472
36	0xbc0deb48	-0.008662052
37	0xbe129298	-0.14313734
38	0xbe7d8fec	-0.24761933
39	0x3d683d79	0.05669925
40	0xbd9758a2	-0.07389952
41	0xbdf4f8c7	-0.11961513
42	0xbd621221	-0.05519307
43	0x3ec49ffb	0.38403305
44	0xbe5d87bc	-0.2163381
45	0xbce727da	-0.028217245
46	0xbcebf5f6	-0.028803807
47	0xbce5f2e4	-0.02806992
48	0x3ebc75b4	0.3680855
49	0xbc255eae	-0.010093374
50	0xbd364d72	-0.04450745
51	0xbdfab06a	-0.122406796
52	0xbd8ee6d5	-0.069776215
53	0xbe2d2170	-0.16907287
54	0xbe22126c	-0.1582734
55	0x3c1c2521	0.009530337
56	0xbe8ab304	-0.27089703
57	0xbde8c0a3	-0.113648675
58	0x3d590fba	0.052993514
59	0xbca8d4a0	-0.0206092
60	0xbdac6607	-0.08417898
61	0xbd8fbfba	-0.07018991
62	0xbd6a4322	-0.05719293
63	0xbe397d63	-0.18114237
64	0xbe4cb3e0	-0.19990492
65	0xbce17580	-0.027521849
66	0x3e0cf7c1	0.13766386
67	0x3e34863a	0.17629328
68	0xbd7aecf0	-0.061261117
69	0xbe11e878	-0.14248836
70	0x3e024ae6	0.12723884
71	0xbe5646d4	-0.20925456
72	0x3e3e3bcb	0.18577497
73	0x3e225fe8	0.15856898
74	0xbd0c6cc4	-0.034283414
75	0x3e4d88b3	0.20071678
76	0xbe75e52e	-0.24013206
77	0xbe3235bf	-0.17403315
78	0x3e07950c	0.1324045
79	0x3eb8c74c	0.3608955
80	0x3d37d8ca	0.04488448
81	0xbd297767	-0.041373637
82	0xbe863d25	-0.26218525
83	0xbd666b34	-0.05625458
84	0xbe314dac	-0.17314786
85	0xbe2896b0	-0.16463733
86	0xbdfd0dcf	-0.123561494
87	0xbd830f72	-0.0639943
88	0x3e1bdde1	0.15221359
89	0xbe478863	-0.19485621
90	0x3eb0d59d	0.34537974
91	0x3c839599	0.016062545
92	0xbe1f25f4	-0.15541822
93	0xbe32a900	-0.17447281
94	0xbe859635	-0.2609116
95	0x3e782ea3	0.2423654
96	0x3e1b7786	0.15182313
97	0xbe08581b	-0.1331486
98	0x3e9a14af	0.30093905
99	0xbdfe83fd	-0.124275185
100	0xbd0f56b8	-0.03499481
101	0xbc953897	-0.01821546
102	0xbe372780	-0.17886162
103	0xbd2cf530	-0.042226017
104	0xbe10d8cc	-0.14145201
105	0x3b9cd474	0.0047860686
106	0xbdd0fcfc	-0.10204503
107	0xbe88c3db	-0.26711926
108	0x3eaa53dd	0.33267108
109	0xbbb764a5	-0.0055967146
110	0x3e10db8c	0.1414625
111	0xbc54a4b2	-0.01297872
112	0xbdbb021a	-0.0913126
113	0xbda5aa6c	-0.08089146
114	0xbce0e833	-0.027454471
115	0xbd3054d0	-0.043049634
116	0x3e228661	0.15871574
117	0xbd14b428	-0.036304623
118	0x3db5cd5d	0.088770606
119	0xbc425b93	-0.011862653
120	0x3ea4ed1c	0.3221215
121	0xbcfc0948	-0.030766144
122	0x3b831ca2	0.004001216
123	0xbe2257e1	-0.15853836
124	0xbe174dfb	-0.14775841
125	0xbe72d615	-0.23714478
126	0xbde6a693	-0.1126224
127	0x3eb1fac9	0.34761646
128	0x3e4e6c71	0.20158555
129	0x3e77d5cd	0.24202652
130	0x3c08b2f8	0.008343451
131	0xbde8c5d7	-0.1136586
132	0xbe213158	-0.1574148
133	0x3e94d8f7	0.2907178
134	0xbbf92e31	-0.0076043834
135	0xbe25abb1	-0.16178776
136	0xbd683bfe	-0.056697838
137	0xbe55f9fe	-0.20896146
138	0x3e6d8e1c	0.23198742
139	0x3da9496b	0.082659565
140	0xbe1ff3b7	-0.15620314
141	0x3c2496d6	0.010045728
142	0xbd16d9f0	-0.036828935
143	0xbe204832	-0.1565254
144	0x3ecab1eb	0.39588866
145	0xbde3536e	-0.11099897
146	0xbd1f055d	-0.038823474
147	0xbd94f7b4	-0.07273808
148	0xbe0f170c	-0.13973635
149	0xbe11eee0	-0.1425128
150	0x3d3472b9	0.04405472
151	0xbe3962ba	-0.18104067
152	0xbcaf17c1	-0.021373631
153	0xbe8ac624	-0.27104294
154	0xbe037d5b	-0.12840788
155	0xbd94a0e3	-0.07257249
156	0xbe3c1963	-0.1836906
157	0xbe0934a8	-0.13398993
158	0xbe47b109	-0.19501127
159	0x3e8c7de3	0.27439794
160	0xbdd7bb60	-0.10533786
161	0x3e96f5dd	0.29484454
162	0x3e88bd55	0.2670695
163	0xbe158182	-0.14600185
164	0x3ea1cc85	0.3160135
165	0xbdcd31a2	-0.10019232
166	0x3ebf9888	0.3742106
167	0xbcc6fb9d	-0.0242899
168	0x3e88b124	0.26697648
169	0x3dc38c00	0.09548187
170	0x3e11fcfb	0.1425666
171	0xbc82cc20	-0.015966475
172	0x3e198fc7	0.14996253
173	0x3e16f6e6	0.14742622
174	0xbe259a62	-0.16172174
175	0x3e9ca910	0.30597734
176	0xbe2ebb54	-0.17063648
177	0x3d8de29a	0.069279864
178	0xbe738ddb	-0.23784582
179	0x3e281b2b	0.16416614
180	0x3e4137f7	0.18869005
181	0xbe381d2b	-0.17979877
182	0xbe58def2	-0.21178797
183	0x3df261c6	0.11835055
184	0xbe130dc7	-0.14360724
185	0x3ce8cadb	0.028417042
186	0x3e4edfb8	0.2020253
187	0xbe0dcafe	-0.13846967
188	0xbe0bb784	-0.13644224
189	0xbe456dbe	-0.19280145
190	0xbd8bffe5	-0.068359174
191	0x3dd24ccf	0.10268556
192	0x3e3ef87a	0.18649474
193	0xbe81e216	-0.25367802
194	0xbe61e3dd	-0.22059579
195	0xbbe230bd	-0.0069027827
196	0xbd897aa2	-0.067128435
197	0x3e922a9f	0.28548142
198	0x3e534a05	0.20633705
199	0x3e05c6fb	0.13064186
200	0xbc21f56d	-0.009885174
201	0x3ec77c36	0.38961953
202	0x3d876917	0.06611841
203	0x3e22ce90	0.1589911
204	0xbc08ba6c	-0.008345228
205	0xbe5cffec	-0.21582001
206	0x3dd58c2a	0.10427125
207	0x3e6e3b24	0.23264748
208	0xbcfd014a	-0.030884404
209	0xbb444f89	-0.0029954633
210	0x3d1cbebc	0.038267836
211	0xbd87591e	-0.06608795
212	0xbe4dc940	-0.20096302
213	0xbdb08725	-0.08619527
214	0x3ec4ee3e	0.38463014
215	0x3e30458d	0.17214032
216	0xbdca98d2	-0.098924294
217	0xbd82b618	-0.06382388
218	0x3d50f160	0.051011443
219	0xbe0f75d1	-0.14009787
220	0x3d7aed05	0.061261196
221	0x3e13b67b	0.1442508
222	0xbcf9d45c	-0.030496769
223	0xbdc25ab1	-0.09489954
224	0xbe1e6d11	-0.15471293
225	0xbdc26569	-0.09491999
226	0x3e9e298a	0.30891067
227	0x3d8bc2e6	0.06824283
228	0xbd852218	-0.065006435
229	0xbe124a59	-0.14286174
230	0xbe49be65	-0.19701536
231	0x3e4d750c	0.20064181
232	0xbe7931e6	-0.24335441
233	0x3e12b94e	0.143285
234	0x3da26c16	0.07930772
235	0xbe1c3de2	-0.15257981
236	0x3dd8c78b	0.10584935
237	0xbe77b515	-0.24190171
238	0x3e7b2aff	0.2452812
239	0x3e7bb18f	0.24579452
240	0xbd30a256	-0.043123566
241	0xbe5103e5	-0.20411642
242	0xbd201e98	-0.039091676
243	0xbd7f4f04	-0.062331215
244	0x3d814c7e	0.06313418
245	0x3ea149d6	0.31501645
246	0x3e632c32	0.22184828
247	0x3ea7266c	0.326465
248	0xbe683a43	-0.22678475
249	0x3d93d128	0.07217628
250	0x3de84b1e	0.113424525
251	0xbe6702d6	-0.22559676
252	0x3d80a18f	0.06280815
253	0xbe18cd0c	-0.14921969
254	0xbe3d9a7c	-0.18515962
255	0xbc0ee68c	-0.008721959

encoder.z_mu.weight f4 [1, 400]
0	0xbd2c518d	-0.04206996
1	0xbc9fc79c	-0.01950436
2	0x3ba84a52	0.005135813
3	0x3e023610	0.12715936
4	0xbdca0764	-0.09864691
5	0x3e1cb11b	0.15301935
6	0xbe050b13	-0.12992506
7	0xbd997d81	-0.07494641
8	0xbadb3e6b	-0.0016726976
9	0xbc3e1a68	-0.011602975
10	0xbd3d434b	-0.046206754
11	0x3d2000c9	0.03906325
12	0xbe633927	-0.2218977
13	0x3e0f8c33	0.14018326
14	0xbc9024ec	-0.01759573
15	0x3cd0470c	0.025424503
16	0xbaf5512a	-0.0018716205
17	0x3e525f21	0.20544101
18	0xbdcd77b0	-0.10032594
19	0x3d051419	0.03248987
20	0x3e6b0317	0.22950397
21	0x3dd02591	0.10163415
22	0x3e90875a	0.28228265
23	0x3c6c0c9d	0.014407304
24	0xbd29a724	-0.041419163
25	0xbc1463d8	-0.009057008
26	0x3ca97304	0.020684727
27	0x3bb5c965	0.0055476897
28	0x3ce330c2	0.02773321
29	0xbd35871f	-0.044318315
30	0x3a03bb40	0.0005025156
31	0xbd112b00	-0.0354414
32	0x3e27f008	0.16400158
33	0xbcf59ce4	-0.029982038
34	0x3c756904	0.014978651
35	0x3c90e712	0.017688308
36	0xbcf6a53a	-0.030108083
37	0xbdcb7861	-0.0993507
38	0xbe2e5e48	-0.17028153
39	0x3e4c3efb	0.199459
40	0xbc51e9dd	-0.012812105
41	0xbd45bcc2	-0.048275717
42	0xbd2004db	-0.03906713
43	0x3da3f80f	0.08006298
44	0x3ca781a6	0.020447563
45	0x3d094809	0.033515964
46	0x3c129653	0.008946973
47	0xbe129ce0	-0.14317656
48	0x3e7a93ab	0.24470393
49	0xbbd66ce9	-0.006543745
50	0xbd83d66c	-0.06437382
51	0xbdb41eee	-0.08794962
52	0xbc312887	-0.010812885
53	0xbd2d50e2	-0.042313464
54	0x3c084320	0.008316785
55	0xbcd9d570	-0.026591033
56	0xbeb562e6	-0.35427016
57	0xbd6a70a8	-0.057236344
58	0xbd856c00	-0.0651474
59	0x3d0e1bad	0.034694362
60	0x3c7ef09b	0.0155602945
61	0xbd47870d	-0.04871278
62	0x3cfd0610	0.03088668
63	0xbda92db2	-0.08260669
64	0x3c21fac8	0.009886451
65	0x3d4596ab	0.04823939
66	0x3d692616	0.056921087
67	0x3d91bac5	0.071157016
68	0xbd80fc56	-0.06298129
69	0xbbab6018	-0.005229961
70	0x3d9438ed	0.0723742
71	0xbc279cd8	-0.010230266
72	0x3de865cf	0.113475434
73	0x3d2f7925	0.04284014
74	0x3ce368fe	0.027760025
75	0x3e1e36ce	0.15450594
76	0xbe846fe9	-0.2586663
77	0xbe2d8576	-0.16945443
78	0x3dcf7269	0.10129244
79	0x3e367107	0.17816554
80	0xbcfe8f2d	-0.03107413
81	0xbdb0d01d	-0.086334445
82	0xbeb366f3	-0.35039482
83	0x3d2ca70c	0.042151496
84	0x3cdaf38e	0.026727464
85	0xbc0e2f6b	-0.0086782975
86	0xbe0944f5	-0.13405211
87	0x3c1658b4	0.009176422
88	0x3c9490c3	0.018135434
89	0xbc4fbf48	-0.012679882
90	0x3ce42925	0.02785165
91	0xbd066b8a	-0.0328174
92	0x3c238794	0.009981055
93	0xbea7ee78	-0.32799125
94	0xbea20261	-0.3164244
95	0x3dd67f76	0.1047353
96	0x3ea28a5d	0.31746188
97	0xbc320188	-0.010864623
98	0x3e4d56c6	0.20052633
99	0x3d46e6d9	0.048559997
100	0xbd87f137	-0.06637805
101	0xbace2039	-0.0015726156
102	0x3c611359	0.013737523
103	0xbd20c5db	-0.03925119
104	0xbd467a67	-0.048456576
105	0xbcc76124	-0.024338312
106	0xbb43bdbc	-0.002986773
107	0xbe1fda73	-0.15610676
108	0x3e44ba73	0.1921175
109	0xbd432989	-0.047647033
110	0xbc24c2ba	-0.010056192
111	0xbe062fb8	-0.13104141
112	0x3be33090	0.0069332793
113	0x3cef1542	0.029184941
114	0x3d05e9dd	0.032693733
115	0x3ab47b44	0.0013769646
116	0xbcd5aad4	-0.026082434
117	0xbc91b08c	-0.01778438
118	0xbd277ae2	-0.040888675
119	0x3b3c35b1	0.0028718526
120	0x3e32e949	0.17471804
121	0x3c411bb8	0.011786394
122	0xbd7a0900	-0.06104374
123	0x3a2d3c60	0.0006608423
124	0xbd10e04a	-0.03537015
125	0x3d1a6c75	0.03770109
126	0x3d008d9f	0.03138506
127	0x3d8d1fd7	0.068908386
128	0x3d83a998	0.06428832
129	0xbc3afba1	-0.011412532
130	0xbcb14c11	-0.021642717
131	0xbcd9fb4d	-0.026609087
132	0xbe2be15c	-0.16785187
133	0x3df7d63b	0.12101408
134	0xbad90a0b	-0.0016558779
135	0xbe917339	-0.2840822
136	0xbb0e6c2e	-0.002173196
137	0xb99f80cc	-0.00030422804
138	0x3e3af01f	0.18255661
139	0x3e340f29	0.17583908
140	0xbccbee93	-0.024894034
141	0xbd993e54	-0.07482591
142	0xbbb2cec9	-0.0054567796
143	0x3d3daaa5	0.046305317
144	0x3e38b5f7	0.18038164
145	0xbe1c3b3c	-0.15256971
146	0xbb9597b1	-0.004565202
147	0xbbb94428	-0.005653877
148	0xbce9754a	-0.02849831
149	0xbe001a24	-0.12509972
150	0x3d22afec	0.039718553
151	0xbe41e6e0	-0.18935728
152	0xbc9234f9	-0.017847525
153	0xbe5a8fad	-0.2134387
154	0xbd1ab1a3	-0.037767064
155	0x3c6072df	0.013699262
156	0xbd0f3eb8	-0.034971923
157	0xbc81f684	-0.015864618
158	0x3d27d709	0.040976558
159	0x3d8d2932	0.06892623
160	0x3c9253d2	0.017862234
161	0x3ddf55ad	0.10905013
162	0x3da1c4e2	0.078988805
163	0xba7d8940	-0.0009671636
164	0x3e6f3f7a	0.23364058
165	0xbd7921e0	-0.06082332
166	0x3d695445	0.05696513
167	0xbcc8ff63	-0.02453584
168	0x3e74ab94	0.23893577
169	0x3c6016c7	0.013677306
170	0x3de563ee	0.11200701
171	0xbbff0e58	-0.0077836923
172	0x3e8ea880	0.2786293
173	0x3eb1939d	0.34682932
174	0xbca92783	-0.020648723
175	0x3dcb8664	0.09937742
176	0xbd144632	-0.036199756
177	0xbc9b56f4	-0.01896236
178	0xbdd4c9d9	-0.10390062
179	0x3ce725ba	0.028216232
180	0x3c103b33	0.008803177
181	0x3d248099	0.040161703
182	0xbe1845b3	-0.14870338
183	0x3b7ad66d	0.003827478
184	0xbc04b4d9	-0.008099758
185	0xbc4f4b45	-0.012652223
186	0x3e797de3	0.24364428
187	0xbd319e27	-0.043363716
188	0xbcf67127	-0.030083252
189	0x3c084a8f	0.008318557
190	0xbd0b5669	-0.034017954
191	0x3bacfb0c	0.0052789506
192	0x3c14aa63	0.0090738265
193	0xbe68110a	-0.2266275
194	0x3aff5d60	0.0019482784
195	0xbb456940	-0.0030122548
196	0x3d0e5d55	0.034756977
197	0x3d37a567	0.044835474
198	0x3cc739ec	0.024319611
199	0xbd4b696a	-0.049661078
200	0xbd351f6b	-0.044219416
201	0x3e10b6a9	0.1413218
202	0xbbc7ef3b	-0.0061015165
203	0x3dde17da	0.10844393
204	0x3b3dcf16	0.0028962544
205	0xbb5b92e0	-0.0033504292
206	0xbca21f5a	-0.01979034
207	0x3e1d08af	0.15335344
208	0xbdcf2663	-0.101147436
209	0xbd8b3447	-0.067970805
210	0x3b9dd136	0.0048161997
211	0xbd0b69d4	-0.034036472
212	0xbb7fde70	-0.0039042495
213	0xbda9fe4f	-0.08300459
214	0x3dbb725b	0.09152671
215	0x3d33f9ff	0.043939587
216	0xbdd529bc	-0.10408351
217	0xbdb9249a	-0.09040184
218	0x3c3daeed	0.01157735
219	0xbe3e7c38	-0.18602073
220	0x3e145a39	0.14487542
221	0x3d8c6be3	0.06856515
222	0xbd7d29c3	-0.061807405
223	0x3b81605c	0.0039482545
224	0x3cdb19ba	0.026745666
225	0xbdb68474	-0.08911982
226	0x3e404810	0.1877749
227	0x3dcb361a	0.099224284
228	0xbbe62310	-0.0070232227
229	0xbec580d1	-0.38574842
230	0xbddd854d	-0.10816441
231	0x3d092240	0.03347993
232	0xbe93fde0	-0.2890463
233	0x3d00c5c6	0.03143861
234	0xbd069ccf	-0.032864388
235	0xbc874a16	-0.01651482
236	0xbd1b7771	-0.037955705
237	0xbe89c816	-0.26910466
238	0x3dc42193	0.09576716
239	0x3d9cdf94	0.07659832
240	0xbd3cb81f	-0.04607403
241	0xbdf2ac35	-0.11849252
242	0x3a48c630	0.0007658927
243	0xbd353b0f	-0.044245776
244	0xba09b56e	-0.00052531704
245	0x3e501529	0.20320572
246	0x3cc029b7	0.023457391
247	0x3e255f31	0.16149594
248	0xbe2c81c9	-0.16846384
249	0xbb93a66e	-0.004505924
250	0xbcc150c6	-0.023598086
251	0xbe06821a	-0.13135567
252	0x3ca31f0d	0.019912267
253	0xbd1d196e	-0.03835433
254	0xbe607e95	-0.21923287
255	0xbd037df8	-0.032102555

encoder.z_sigma.weight f4 [1, 400]
0	0x3c509424	0.012730632
1	0xbca7e3e1	-0.020494403
2	0x3b47d2e7	0.0030490698
3	0xbe4b129c	-0.19831318
4	0x3b1c08de	0.0023808996
5	0xbe782a59	-0.24234904
6	0x3c3e9a19	0.011633419
7	0x3cf1b3f2	0.02950475
8	0xbe692c05	-0.22770698
9	0x3c8fe772	0.017566416
10	0xbca6add9	-0.020346569
11	0x3c82bf22	0.01596028
12	0xbec60cf6	-0.38681763
13	0xbdf88100	-0.1213398
14	0xbcb58c47	-0.022161616
15	0xbdb15e1c	-0.08660528
16	0x3d7c4239	0.061586592
17	0xbe6ba97a	-0.23013869
18	0xbf3366bc	-0.70078635
19	0x3c9502aa	0.018189747
20	0xbe3c24bc	-0.18373388
21	0x3f2b9764	0.6702788
22	0xbe991e99	-0.29906157
23	0xbbb73186	-0.0055906205
24	0xbcf9b5ec	-0.030482255
25	0xbba19811	-0.004931458
26	0xbcd9acf9	-0.026571738
27	0xbda27f74	-0.07934466
28	0xbba56a00	-0.0050480366
29	0x3d1b3836	0.037895404
30	0x3d322275	0.043489892
31	0xbda834ac	-0.08213171
32	0xbe28b77c	-0.16476244
33	0x3d1408a5	0.036141057
34	0x3d3f07e5	0.04663839
35	0xbd6d34e5	-0.057911772
36	0x3c18549e	0.009297518
37	0x3d5acff3	0.053420972
38	0x3c708c2b	0.014681856
39	0x3e871123	0.26380262
40	0x3d2624d6	0.040562473
41	0x3d2c0f2a	0.04200665
42	0x3da3d0f2	0.079988375
43	0xbf058823	-0.52160853
44	0x3c8ac31a	0.016938735
45	0x3d8cd2e8	0.06876165
46	0x3c60383c	0.013685282
47	0x3d329a6d	0.043604303
48	0xbe656bfd	-0.22404476
49	0x3c988cb5	0.018621782
50	0xbe28a9a7	-0.16470967
51	0x3d71ea4e	0.05906134
52	0xbcf5e3c9	-0.030015843
53	0x3d011393	0.031512808
54	0xbc5429ec	-0.012949448
55	0xbd417780	-0.047233105
56	0xbda9f208	-0.08298117
57	0x3c92dc09	0.017927187
58	0xbc0f13c8	-0.008732744
59	0x3ceae932	0.02867565
60	0xbc8f7ae8	-0.017514661
61	0xbc5f9c00	-0.013648033
62	0x3d0c329c	0.034227952
63	0xbd4c22a3	-0.04983772
64	0x3c72bf4c	0.014816117
65	0xbd263a83	-0.040583145
66	0xbde45093	-0.11148181
67	0xbd1cf9de	-0.03832423
68	0x3bff59d0	0.007792689
69	0xbcfa6b7d	-0.030568833
70	0xbd2d133b	-0.042254668
71	0xbc0e72a8	-0.008694328
72	0xbdbd370f	-0.09239017
73	0xbd2ad751	-0.041709248
74	0x3bdeba40	0.006797105
75	0x3ba2096e	0.0049449718
76	0xbb14f26e	-0.0022727507
77	0x3dd98272	0.106205836
78	0x3f26c76c	0.65148044
79	0xbe3335d7	-0.17501007
80	0xbbb778b2	-0.005599105
81	0x3dc73f28	0.09728843
82	0xbec6b9d8	-0.38813663
83	0xbc581975	-0.013189663
84	0x3cf6baf2	0.03011844
85	0x3cf7f31a	0.030267287
86	0x3c289392	0.01028909
87	0xbd3dfaf3	-0.046381902
88	0x3c5e7db6	0.0135797765
89	0x3bf0d4f0	0.007349603
90	0xbef54c84	-0.4790994
91	0xbd33555f	-0.043782588
92	0x3c4c2478	0.012459867
93	0xbeb58943	-0.35456285
94	0xbef693ae	-0.48159546
95	0xbeec8937	-0.46198437
96	0x3eb64b5f	0.3560438
97	0xbc811b4c	-0.015760086
98	0xbe231cf9	-0.15929021
99	0x3c78bcfc	0.015181776
100	0xbd91cf51	-0.071196206
101	0x3dcf5ec0	0.10125494
102	0x3d0ff20c	0.035142943
103	0xbc2dcc98	-0.010607861
104	0xbd39fd18	-0.045407385
105	0x3da77bfe	0.081779465
106	0xbbac2cff	-0.0052543874
107	0xbd1ae48b	-0.03781561
108	0xbe42860a	-0.18996444
109	0xbdb255a0	-0.08707738
110	0xbd6ed7f5	-0.05831142
111	0x3be640c1	0.0070267622
112	0xbc09b68c	-0.008405339
113	0x3d016cef	0.031598028
114	0xbca86b44	-0.02055896
115	0xbe3571ac	-0.17719144
116	0xbeb63517	-0.3558738
117	0xbce71700	-0.02820921
118	0xbf0a0887	-0.5391926
119	0x3d288092	0.04113824
120	0xbddfa64a	-0.10920389
121	0x3c71cdac	0.014758509
122	0xbd2ac047	-0.041687276
123	0xbc4dd2c7	-0.01256246
124	0x3cd54992	0.026036058
125	0xbc0ed474	-0.008717645
126	0x3c1ecfb4	0.009693075
127	0xbf296a26	-0.66177595
128	0x3be0c34c	0.0068592187
129	0xbe035c91	-0.1282828
130	0xbda4e65c	-0.0805175
131	0xbcb5fc97	-0.02221517
132	0xbeb00825	-0.34381214
133	0xbef5d707	-0.48015615
134	0xbbc87f17	-0.006118666
135	0xbeda726b	-0.4266542
136	0x3cd0b901	0.025478842
137	0xbc4aeb53	-0.012385207
138	0xbe48512e	-0.19562218
139	0x3e334cf0	0.17509818
140	0xbd416a32	-0.047220416
141	0xbdb36aed	-0.08760629
142	0x3d99a183	0.07501509
143	0x3d244a19	0.040109728
144	0xbe77ad15	-0.2418712
145	0xbd3ce753	-0.046119045
146	0x3c270344	0.01019365
147	0x3cd6247a	0.02614044
148	0x3cc3e396	0.023912232
149	0x3c96a8e5	0.018391082
150	0x3ded6b71	0.115927584
151	0xbefabebd	-0.48973647
152	0x3c62da61	0.013846011
153	0x3dbdabe5	0.09261302
154	0x3b4cc950	0.0031247921
155	0xbb2dcd15	-0.0026519943
156	0xbe0f534b	-0.13996617
157	0xbe57b6e9	-0.21065868
158	0x3cf42272	0.029801581
159	0xbe29ba6b	-0.16575019
160	0xbd5fc3d3	-0.054630112
161	0xbe59767c	-0.21236604
162	0xbdf1b785	-0.11802582
163	0x3d2257bf	0.039634462
164	0xbe25c3a0	-0.16187906
165	0x3e144aee	0.14481708
166	0xbe41fdbd	-0.1894445
167	0x3cf37c80	0.029722452
168	0xbe5568ed	-0.20840807
169	0xbe438370	-0.19093108
170	0x3ef05ec5	0.46947303
171	0x3cb6c16e	0.022309031
172	0x3ef2a82f	0.4739394
173	0x3edb8f27	0.42882654
174	0xbd3f4855	-0.04669984
175	0xbdf97d33	-0.12182083
176	0x3d2db535	0.04240914
177	0xbc2055a6	-0.009786045
178	0x3d0a8950	0.033822358
179	0xbd8529dc	-0.06502125
180	0xbd767d7e	-0.060178272
181	0xbcc6087d	-0.02417397
182	0x3d55fc00	0.05224228
183	0x3db84f1e	0.089994654
184	0x3d017ea6	0.031614922
185	0xbd25eecb	-0.040510934
186	0x3f0a459e	0.5401248
187	0xbd2a9e89	-0.041655097
188	0x3d03543d	0.032062758
189	0xbd36622e	-0.044527225
190	0xbced61bb	-0.028977266
191	0xbe801f33	-0.25023803
192	0xbd8e84f8	-0.069589555
193	0xbc8e7fa4	-0.017394848
194	0x3d4292f9	0.047503445
195	0xbd58f2d7	-0.052965965
196	0x3c4dcc44	0.012560908
197	0xbd999b6d	-0.07500348
198	0xbc845d9f	-0.016157923
199	0xbf024f31	-0.50902086
200	0x3c2c311c	0.010509755
201	0xbe43518c	-0.19074076
202	0x3e1d2093	0.15344457
203	0x3f1ae1aa	0.60500586
204	0x3d12ef3d	0.035872687
205	0xbd0c6ad4	-0.034281567
206	0x3e92e658	0.28691363
207	0xbe01a698	-0.12661207
208	0xbc1443ca	-0.009049365
209	0xba9639ae	-0.0011461282
210	0x3d839f69	0.064268894
211	0xbd24730b	-0.040148776
212	0xbc35ff9c	-0.011108305
213	0x3d235a80	0.03988123
214	0xbe1d7416	-0.15376315
215	0x3f1942c4	0.598675
216	0xbd13c313	-0.03607471
217	0xbc2afbc9	-0.010436007
218	0x3da8caa0	0.08241773
219	0xbedbe139	-0.4294527
220	0x3e114897	0.14187847
221	0xbd7f0633	-0.06226177
222	0xba2d403d	-0.00066089985
223	0x3c0c2a7f	0.008555054
224	0xbd1d42f0	-0.038393915
225	0x3d62c70d	0.05536561
226	0xbdaf7d8d	-0.08568869
227	0x3c8dcce6	0.017309617
228	0xbc74a240	-0.014931262
229	0xbeace865	-0.33771053
230	0xbef2925c	-0.47377288
231	0xbdd40848	-0.10353142
232	0xbf12df9b	-0.57372445
233	0xbdee2abf	-0.11629247
234	0xbd40aed3	-0.047041725
235	0x3ceabe8e	0.028655317
236	0xbbd0f2c3	-0.0063765957
237	0xbd906d81	-0.07052136
238	0xbd5793e0	-0.05263126
239	0xbdc9b085	-0.098481216
240	0xbc32ade5	-0.0109057175
241	0xbe72a683	-0.23696332
242	0xbd35f7d5	-0.044425804
243	0xbbe3d380	-0.006952703
244	0x3e0dead3	0.1385911
245	0xbe185b3b	-0.14878552
246	0xbe01fde9	-0.12694515
247	0xbe788a69	-0.2427155
248	0x3d35997f	0.04433584
249	0x3dce9007	0.10086065
250	0xbf01252d	-0.5044735
251	0x3d930518	0.07178706
252	0x3c41f8d7	0.011839113
253	0x3cd6ab36	0.026204687
254	0xbe22e2ab	-0.1590678
255	0x3b7dd877	0.003873376
