Weight_Files/VAE_trained_on_1D/vae_net_velocity.pth (torch_old, 84660 bytes, 23 tensors)

encoder.conv1.weight f4 [16, 1, 3]
00000000: 79e6 943e e682 85be 31b4 d9bd f80d 8c3e
00000010: 4829 0cbf 0884 af3e 9ddb 15be 5116 6c3e
00000020: 341a 50bc 8cba abbd 5443 2d3e 9e60 283d
00000030: 547d 623e 385b 56be df13 22bc 63ee 23bd
00000040: bbbc bd3d c9ad 593b 9a2d 013f d02e 3e3e
00000050: 6a16 5bbe 7288 b2be e430 c6bd f202 7fbe
00000060: 0042 95be 1d40 c13c 34d0 a83e 9ea6 9f3e
00000070: a856 12bf 57db b33e 66b9 1a3e ca6a f03e
00000080: 0c2f b13e ecaa 06bf f487 0cbf 3894 8ebe
00000090: 3eb9 033f 69e0 b1bd e486 803e 2821 96be
000000a0: 2cb9 0a3f c2ee 8abe d5dc bb3e bf8a 47bd
000000b0: 473d b5be 3c92 8f3e a11b a0be 7468 f43d
0.29082087 -0.2607643 -0.10630072 0.27354407 -0.5475049 0.3428042 -0.14634557 0.23055388
-0.01270156 -0.0838519 0.16920215 0.041107766 0.22118121 -0.20933235 -0.009892433 -0.040022265
0.09264513 0.0033215156 0.5046021 0.18572545 -0.21395269 -0.34869725 -0.09677294 -0.24903467
-0.29151917 0.023590142 0.32971346 0.31181806 -0.57163477 0.3512828 0.15109786 0.46956474
0.34606206 -0.52604556 -0.5489495 -0.27847457 0.5145453 -0.08685381 0.25102913 -0.2932217
0.541888 -0.27135283 0.3669192 -0.048716303 -0.35398313 0.28041255 -0.3127108 0.11933985

encoder.conv1.bias f4 [16]
00000000: fcee 9bbe 9ee5 27be c166 12bf b8d0 c8be
00000010: 8466 f03e 5918 7abe aeec ed3e c4f3 ec3e
00000020: bef7 20be f6ce edbe 483c 643e 347c 373e
00000030: e8a4 f6be 4acd db3e 85a1 d33e 9bbf 043f
-0.30455768 -0.16396186 -0.5718804 -0.3922174 0.46953213 -0.2442335 0.46469635 0.46279728
-0.15719506 -0.4644696 0.2228862 0.17918473 -0.48172688 0.4293006 0.41334167 0.51854867

encoder.conv2.weight f4 [8, 16, 3]
00000000: 7ce3 adbd bb97 90bc d6e5 b4bc 229e 83ba
00000010: 445b b1bd 9eb4 dabd c9d6 f13d ba7e 763c
00000020: b0b5 213e 0193 383c 026d 9f3d 8a9e 673d
00000030: 8b8f 92bb a36d 173d 4be3 2fbe 69e7 873d
00000040: 5595 98bd 97fc cbbd e584 043c b537 79bd
00000050: 5f49 a23d c631 abbd 9c64 03be 8221 d73d
00000060: fb1e a0bd 736c c13d d9d7 283d cd4b 90bd
00000070: 03fd 1d3e 5eaa d23d f829 debd 96ff 86bd
00000080: 3dcf 583d 00cc d33c ae7b 7bbd b8f7 32bd
00000090: 7511 123e 2c60 97bc 1c57 c63d c3fc 893c
000000a0: 2bf7 a9bd 2580 11be 639d 343e 7f62 45bb
000000b0: c521 b13d e31a 63b9 6341 773c f191 ae3d
000000c0: b800 0b3e 9ee2 67bd 1ae7 353d 1901 f83d
000000d0: 598a ea3d 8cdd 013e 76d9 47bd 20b9 1dbd
000000e0: 50b8 a63b abdf 593d 1d7e 383e 6f27 6cbd
000000f0: 0880 a7bc 05d8 2dbe 53cf 52be f451 4dbb
00000100: 1bc9 d93d e1fa 1c3e 0006 c2bd 3f4d 123d
00000110: 2c41 093e f2e1 c33d 103a b83d bc10 d23d
00000120: cf70 d43d 9866 483d 77d3 b6bd 3863 b7bc
00000130: b5cf 773c 5e90 da3d fcbb 9abd 6d17 8d3d
00000140: 7168 703d bcde 05bd 8c39 633d a811 3f3d
00000150: d394 e43d ac3b fa3d 53ea afbc 6060 1f3e
00000160: 0853 09bc 81b5 37bc 5948 96bd 7d19 adbd
00000170: a1ee 94bd dd7f 9dbd 9c1a b83d 1406 77bd
00000180: 44f7 d6bd 6f83 0a3e 66ab 973d 6abd f33d
00000190: 062b 23bd 781c 96bc 2eb8 83bc 7039 4e3d
000001a0: 31b8 acbb cc3a 59bd 094a c2bc b3ea cc3d
000001b0: 2d8c 8dbd c6c6 90bd 24f5 833c 352b 073e
000001c0: 1953 d73d 082a 223d 7842 ccbd 2c8f de3d
000001d0: a8ca 4abd 702f 3fbc 76a9 febd 788f e9bc
000001e0: 8745 b8bd 41e0 183e e14f a2bc f7cc a3bb
000001f0: a4a7 d13d 9b38 50be 8751 603d 9d15 67bd
00000200: 0331 a6bd 30f0 053c 94fc d53d 35ef cfbd
00000210: d8cc ad3d a106 d13d 211a f43d 5d67 0ebe
00000220: 37b8 cabc 1f89 bdbd 155d ca3d 83cc 8bbd
00000230: fb23 923d f5af 22bc 4c67 57bd 4bee f2bd
00000240: 7d92 b83c 6619 d93d 7d0a 333c 1fd6 2d3d
00000250: 8929 11be ac5b d73d c996 133e 6946 133e
00000260: d1de c43d 1ab2 babd cb02 20bd 6802 ed3d
00000270: 4421 75be 615a ad3c 2616 f3bd 3ad0 b0bd
00000280: c6b7 b23d 695d ecbd 903c 30bd de4e cb3d
00000290: 96a8 d23d c6c8 0b3e acee efbc c9c2 e5bd
000002a0: 7ca5 0c3e 5d65 2cbd 423e 73bd c0ce 9b3d
000002b0: 3ef1 e7bd 524b c23d 3645 ac3d 6669 04be
000002c0: ce1f 05be 8026 4fbc 6452 783d 20fb 88bb
000002d0: efb8 94bd a996 a2b9 b1b0 16be 6d1b ffbd
000002e0: f700 d0bd 3ae6 db3d 8fc6 d43d 6119 4fbd
000002f0: e67c a1bb 6b50 393d 4605 92bd eda3 acbd
00000300: 6109 b03d dd7f ad3d 691a 05bc 86ab b9bc
00000310: a52d e23d 6cfd f33d a485 d0bd 5ded 443e
00000320: 0323 ef3d 05c2 f0bd 89af f53d d025 a6bd
00000330: 3da1 da3d 335f f4bd e77a 3d3d d33c bd3c
00000340: e4b4 923d 2177 083e 6f5f 82bd aa15 8fbe
00000350: 1757 eabd 801a c2bb 8b08 8cbd 8083 bd3b
00000360: 0e2b 56bd 0626 8f3d 8aa1 db3d 668f 143d
00000370: c5f8 8abd da63 b5bb e58e 17be 5c86 083e
00000380: 3619 90bc 18ad ee3c 80f4 ae3b d760 bcbd
00000390: 4e7f 9d3d 464b e33d d9e8 f73c f922 c2bd
000003a0: 381c 23bd 3ad5 cfba 2b36 b8bd 3892 e6bd
000003b0: 2cca 833c 2291 3cbd 5079 443c 38b6 5abd
000003c0: 90be 9cbc 16a7 61bd f311 07be dee6 003e
000003d0: 6095 e13c fa2a 043e 1c8f bebc ec93 14bd
000003e0: 02f3 0abe a86d 60bd 30d9 c13d 81c3 10be
000003f0: 9ec8 4ebd 5c19 b43d 9e5e aa3d e04c 5a3d
-0.08490655 -0.017650476 -0.02208225 -0.0010041634 -0.08659986 -0.10678981 0.11808545 0.015044862
0.15791965 0.011265517 0.077844635 0.05654768 -0.004472678 0.036969792 -0.17176549 0.06635935
-0.07450358 -0.09960287 0.008088325 -0.060844142 0.07924151 -0.08359103 -0.12831348 0.10504438
-0.07818409 0.09444513 0.041221473 -0.07045708 0.15428548 0.10286401 -0.10847849 -0.06591718
0.052932013 0.02585411 -0.061397247 -0.043693274 0.14264472 -0.018478476 0.096845835 0.016844159
-0.08299097 -0.1420904 0.17638163 -0.0030118523 0.08649019 -0.00021658423 0.015091273 0.0852393
0.13574493 -0.056612603 0.04440985 0.12109584 0.11452169 0.1268217 -0.04879137 -0.038506627
0.0050878897 0.053191822 0.18016858 -0.057654794 -0.020446792 -0.16976936 -0.205869 -0.0031329365
0.10634061 0.15330078 -0.09473801 0.0357182 0.13403767 0.0956458 0.089954495 0.10257098
0.10373079 0.048925966 -0.089270525 -0.022386178 0.015125205 0.10672067 -0.075553864 0.06889234
0.058693353 -0.03268312 0.055474803 0.046647698 0.111611985 0.12218413 -0.02147404 0.15564108
-0.008381613 -0.0112127075 -0.07338018 -0.08452127 -0.07272077 -0.076904036 0.0898945 -0.06030853
-0.10496381 0.135267 0.074057385 0.11901362 -0.039835952 -0.018324122 -0.016079035 0.050347745
-0.0052709808 -0.05303459 -0.023716943 0.10005703 -0.06911502 -0.07069163 0.016108103 0.13200076
0.105138965 0.039590865 -0.099736154 0.108671516 -0.049509674 -0.011669025 -0.12434666 -0.028510794
-0.08997636 0.14929296 -0.01981348 -0.004998799 0.10237053 -0.20334093 0.05476525 -0.056417096
-0.08114817 0.008174941 0.10448566 -0.10153047 0.084863365 0.102063425 0.11919046 -0.13906617
-0.024746044 -0.092546694 0.09881035 -0.06826117 0.07135769 -0.009929647 -0.052588746 -0.11861857
0.022530789 0.106005475 0.010927794 0.04244053 -0.14176 0.10515532 0.14412989 0.14382328
0.09612811 -0.091160014 -0.039065164 0.115727246 -0.23938471 0.02116126 -0.11869459 -0.08633466
0.08726458 -0.11541254 -0.043026507 0.09927152 0.102860615 0.13650808 -0.029288612 -0.11218793
0.13735002 -0.042088855 -0.059385546 0.07607794 -0.1132531 0.094870225 0.084116384 -0.12930831
-0.13000414 -0.012643456 0.06062545 -0.004180327 -0.07261836 -0.00031011298 -0.1471584 -0.12456403
-0.10156434 0.107372716 0.103894345 -0.050561313 -0.004928219 0.04524271 -0.07129912 -0.08429704
0.08595539 0.084716536 -0.008123972 -0.022664797 0.11043862 0.11913571 -0.1018174 0.19231172
0.116766 -0.11755756 0.11996371 -0.08112681 0.10675285 -0.1193222 0.046259787 0.023100292
0.071634084 0.13326694 -0.06365859 -0.27946216 -0.11442392 -0.005923569 -0.06837567 0.0057834983
-0.052287154 0.06989674 0.107241705 0.036269568 -0.0678573 -0.005535585 -0.14800604 0.13332504
-0.017590147 0.029135272 0.0053392053 -0.09198158 0.07690297 0.11098342 0.030262398 -0.09479327
-0.039821833 -0.0015856393 -0.08994707 -0.11258358 0.016087614 -0.046036847 0.011991814 -0.053396434
-0.019133836 -0.055090986 -0.13190441 0.12588069 0.027537048 0.1290702 -0.0232616 -0.03627388
-0.13569263 -0.054792076 0.09465253 -0.14137079 -0.050484292 0.087938994 0.08318828 0.05329597

encoder.conv2.bias f4 [8]
00000000: 730b 3fbe dd96 63be 7b90 4fbd 05cf 5d3a
00000010: 99bb 263d 8027 77bc 3b51 843e 22e8 bd3d
-0.18656711 -0.22225519 -0.050674897 0.0008461329 0.04070625 -0.015085101 0.25843224 0.092727914

encoder.conv3.weight f4 [16, 8, 3]
00000000: ff74 e3bd 0427 9dbd 13c2 d93d 4051 bebd
00000010: 9378 013e 6bfa 00be 5016 233e 7c5c ad3d
00000020: bdf4 f73c 11c2 ae3d 99e2 39be 8c0f 11bd
00000030: a857 a3bc bed8 46be fa3b 1cbd d448 b4bd
00000040: e434 473e 9692 313e 6adb 2d3e 6a2d 383e
00000050: 319d e8bd 64d6 8b3d 4c16 9a3d 6350 19be
00000060: a699 e93d 3560 debd 01f6 643d 9ad5 663d
00000070: 54a1 453e d81e c6bd 5869 55be 68ba 193e
00000080: 3aac c33d a330 ce3d 67c7 fe3c 9f3a 27bd
00000090: 9a09 253e bb01 3abe 61d4 363d 38f9 bc3d
000000a0: 5ed0 0e3e 96c2 d0bd f4b2 20be 3b31 a53d
000000b0: 45e1 35be 20b6 2dbe 74fa 3bbe a2b9 cabd
000000c0: 6c97 1fbd 7190 f7bd cac2 b0bd 5616 39be
000000d0: 8879 003e 1468 3fbd d8e1 03be 50ae 593d
000000e0: cc49 1cbe 6c50 123e 1462 f03d d268 4dbe
000000f0: 6712 24be 30d3 09be 2d4d e2bd c8ca d03c
00000100: a6b1 4ebe 7cf6 1abe 5cea be3d 56ea 88bd
00000110: 9859 a6bd c1eb 2cbe 6070 a93d a02a 6c3c
00000120: 0f29 4bbd 408f d9bd 5aca 7d3d 0cc2 a73d
00000130: f011 eb3d d6f5 af3d 61b6 f1bc d769 1dbe
00000140: 1caa 0d3e ffaf 6bbb a2f9 e5bd 14eb 583e
00000150: 005d 1a3e 9539 07be a71e afbd 5243 8ebd
00000160: c454 f1bd dc38 c33d 3eef ddbd 4f8a 583e
00000170: d30e a8bd 30c3 f63d c0c8 e33b 5fda b7bd
00000180: 97c0 1d3e 01cd 70be 1261 dbbd 4f85 113d
00000190: c5f0 2b3e d144 b9bd 8115 79be 119b 48be
000001a0: 8221 e0bd bea2 8ebd 6f02 42bd 7948 debd
000001b0: e8d5 a23d 6e6c 573c e1a5 f4bd 3ebb eebd
000001c0: 580b 313d 001a 3fbb 662b 3abc a5bc 18bc
000001d0: c60a 42be 9b98 1abe 006a 75bd e02c 39bd
000001e0: 0efe 14bd 1b63 16bd 3b3b d2bc 6d84 babd
000001f0: 635b 0c3e 1c83 0f3d 6948 2bbd 8a2c 313e
00000200: 316a 5bbc c88f 0abe ba10 a0bd 4397 253e
00000210: f41b 38bb 9079 433e 2a20 1f39 f031 123e
00000220: f4d7 cf3d a848 813d d786 2abc b32f 8e3e
00000230: 1951 893d 2cb9 57bd 4032 3ebb d87a 4d3e
00000240: 3fa1 a23d 460c 2ebc 7341 533e caf9 c13d
00000250: b223 0abe ca2c 3cbe a660 ff3d 12f4 413e
00000260: 7755 0ebe 1232 bc3d aede 2c3d 5878 7bbd
00000270: 7b66 37bd bfb9 823d 4036 393d 122d 0d3e
00000280: 3409 993d 283c be3d 41a9 083e 5b85 943d
00000290: 521d 693d 1e32 98bd 9c4b 193e 58f3 f63c
000002a0: bcf6 6b3d 8c4a 9e3d 261d 09be 2d6d a23d
000002b0: cae9 dfbd 7b1f f33d 73c3 903d a15e eebd
000002c0: 4a69 01bd 2d4d a9bd 5dec 54bd f5d0 19bd
000002d0: e665 9dbd 9f18 48be 9eca 4fbe 89d8 fcbd
000002e0: 18e5 8ebc fa73 85bd 7684 74bc bd63 2b3e
000002f0: 38e4 203e 0005 b93d b6b4 25be 487a 453e
00000300: 7c31 38be 806f 89bd 1c1d 13be 5854 963d
00000310: 70ee 2dbe 3018 cebd 1ec6 04be ca7b 00be
00000320: da26 c3bd 3c79 4d3e b894 88bc 60dd 7e3d
00000330: 727e 4fbe 7ad8 393e 7c10 36bd 66d4 3fbe
00000340: de0c 103e 0413 62bd 12d2 3d3e a8f9 0dbe
00000350: 5b10 42be 8707 1dbe ac16 b53d c087 bbbc
00000360: 5e3d 4abe 8a3a 123d 9753 e7bd 1a57 973d
00000370: 6a95 d6bd 11e7 1dbe acf9 073e af47 c3bd
00000380: 2305 073e 2594 303e 749d fbbd cd1c e3bd
00000390: 4474 553d 7705 53be 9c62 803d 1a2f aebd
000003a0: 375a b9bd be96 21be 50d7 053e ec59 82bd
000003b0: 6ddb 13be 34df 5bbd 26ba e8bd 3c36 4bbe
000003c0: 73ca d63d e2cd 20bd b962 023e 3d6a 393e
000003d0: afe5 adbd 020f 8dbd 6d98 65bd 470e 103e
000003e0: 6a20 fe3c e7a2 89bd 3f9b 233e b94a 633e
000003f0: 5a75 393e b46f 1cbe 4fad 26bd 6c5f 20bd
-0.111062996 -0.07673457 0.1063272 -0.09292841 0.12643652 -0.12595527 0.1592648 0.084649056
0.030268067 0.08533109 -0.18152846 -0.035415217 -0.019939259 -0.19418618 -0.038143136 -0.08802953
0.1945377 0.17341074 0.16978231 0.17986074 -0.11358107 0.06828001 0.07523784 -0.14972071
0.11406259 -0.10858194 0.05589867 0.05635605 0.19299823 -0.09673852 -0.20840967 0.15012515
0.09554334 0.100678705 0.031100942 -0.04082739 0.16116944 -0.18164723 0.044636134 0.09227222
0.13946673 -0.10193364 -0.15693265 0.080660306 -0.17761715 -0.16964006 -0.18357259 -0.09898688
-0.038962767 -0.12088097 -0.08630903 -0.18074927 0.1254636 -0.046730116 -0.12879121 0.053144753
-0.15262526 0.14288491 0.11737457 -0.20059517 -0.16022645 -0.13459468 -0.11049876 0.025487319
-0.20184955 -0.15133089 0.09322044 -0.06685321 -0.081225574 -0.16886808 0.08273387 0.0144144595
-0.049599703 -0.10623026 0.061960556 0.081913084 0.11478031 0.08591811 -0.02950591 -0.15372406
0.13834423 -0.0035963056 -0.11229254 0.21183425 0.15074539 -0.1320556 -0.08550768 -0.06946434
-0.11783746 0.095323294 -0.108366475 0.2114651 -0.082059525 0.12048948 0.0069514215 -0.08977198
0.15405498 -0.23515703 -0.10711874 0.035527524 0.16791065 -0.09046329 -0.2432461 -0.19590403
-0.10943891 -0.06964634 -0.047365602 -0.10853667 0.07950956 0.01314841 -0.119457014 -0.11656807
0.04322371 -0.0029159784 -0.011362886 -0.00932232 -0.18949422 -0.15097277 -0.059915543 -0.04520881
-0.036375098 -0.036715608 -0.025663009 -0.091072895 0.13706736 0.035037145 -0.041817103 0.17302147
-0.013392017 -0.1353141 -0.0781569 0.16170983 -0.0028092833 0.19089341 0.00015175404 0.14276862
0.10148612 0.06312686 -0.010408125 0.27770767 0.06704921 -0.052666828 -0.002902165 0.20066392
0.079409115 -0.010623043 0.20630436 0.094714716 -0.13490179 -0.1837646 0.12469606 0.18940762
-0.1389979 0.09189238 0.04220455 -0.061394066 -0.044775467 0.063830845 0.045217752 0.13786724
0.074724585 0.09288818 0.13345815 0.07251998 0.056912728 -0.07431434 0.14970249 0.030145332
0.05760835 0.077290624 -0.13390025 0.0793098 -0.109332636 0.11871239 0.07068529 -0.11639143
-0.031594552 -0.08266673 -0.051983226 -0.037552793 -0.07685451 -0.19540642 -0.20292136 -0.12345988
-0.017443225 -0.065162614 -0.014924159 0.16737266 0.15712059 0.09034157 -0.16182217 0.19284928
-0.17987627 -0.0671072 -0.14366573 0.07340306 -0.16985488 -0.10063207 -0.129662 -0.12547222
-0.09528895 0.20065778 -0.016672477 0.06222284 -0.20263079 0.18148986 -0.044449314 -0.18733367
0.14067408 -0.055193916 0.18537167 -0.13864768 -0.18951552 -0.15334903 0.08842215 -0.02289188
-0.19749972 0.03570036 -0.1129524 0.0738966 -0.10477717 -0.15420176 0.13278836 -0.09535157
0.13185553 0.17244013 -0.12285891 -0.11089478 0.052112833 -0.20607553 0.06268808 -0.08505078
-0.0905041 -0.1578016 0.13070416 -0.063648075 -0.14439173 -0.05367966 -0.1136363 -0.19844908
0.10487833 -0.039258845 0.12732972 0.18106933 -0.08491074 -0.06887628 -0.056053568 0.14067946
0.031021316 -0.06720524 0.1597719 0.22196473 0.18111172 -0.15276986 -0.040692624 -0.0391535

encoder.conv3.bias f4 [16]
00000000: fef7 633e 9646 50be a0fe 34be e736 9fbd
00000010: 2dd8 dbbc 58f0 86be f316 5bbe 8726 cc3c
00000020: e878 2bbd 0033 673e e352 97be c72a e5bd
00000030: fd17 84be ee04 d8bd 07a0 0fbe 88ec babc
0.2226257 -0.20339426 -0.17675257 -0.07774144 -0.02683648 -0.26355243 -0.21395473 0.024920715
-0.041863352 0.22578049 -0.29555425 -0.111898 -0.25799552 -0.10547815 -0.1402589 -0.022817865

encoder.conv4.weight f4 [4, 16, 3]
00000000: 798a 01be 7a1a ffbd fa45 b0bd 4be8 b7bd
00000010: fe58 dbb9 2b91 acbc b43b a4bd 4023 cf3d
00000020: 8c21 06bd 38b4 b53d a016 ca3c 48d2 fdbd
00000030: 075c 253d 75ca b63d 801c 10be 9629 703d
00000040: 84fc 48be d862 5b3c 1803 893c c253 bebc
00000050: e999 eebd d0b0 5e3d 6755 b9bd b182 01be
00000060: 02cf 3dbd 6c5b cabd 7c34 353d c1af d83d
00000070: b620 e43d 9733 c6bd bc68 513e d3e1 2c3e
00000080: eb24 cabb 19ce 7b3d a227 993d 202e e23d
00000090: 1777 e53d 16ea c33d 0e6e 7fbd 92bb 47bd
000000a0: d840 1e3b d5f1 e33d 1ebe 18bd 002a a93b
000000b0: 6fd6 09be 33bf 113b be84 3bbd 615c cebd
000000c0: ed65 d53d d361 1cbe 486c 09bd 6550 043d
000000d0: b341 d6bd 4988 fe3d 621d 3cbd 98cc 843d
000000e0: 58fb a43d b05e 153e f5cd 493d 9e41 0b3e
000000f0: 7473 2a3e 980b 713d 5c0f 053c 7499 9c3a
00000100: 510f 823d 2cd0 a63d 428f 17bd 64c4 1f3e
00000110: 265a d23c bd00 d8bd b4d2 a03d 8504 f63d
00000120: 9ce8 5c3d 084b f13d 808e 433b 5542 8cbe
00000130: db55 96bc a582 1d3d 7945 8b3d 4fd2 503e
00000140: 66a3 033e c3da 173c 7485 243d 4023 af3d
00000150: 0a74 6bbd 8609 fd3d f43f ec3d 5b71 bb3d
00000160: 8042 3a3e 283e 9b3c 4d5b c2bd 5c2b 6e3c
00000170: d3ca 06bd 73bc 723d 868e 093e 9aef 8bbd
00000180: 800e c63b dcc1 0f3e c37a f2bd 800a ccbc
00000190: 2e86 0f3e 9e4b cc3d 9097 2b3d f4fc 7ebd
000001a0: 4072 5cbc 9289 04be 3f4b 0cbe 669b 0bbe
000001b0: 9af5 0d3e 34cd e93d 16fe 653d ec7e 14bd
000001c0: 4e40 fc3d a7c5 20bd 6637 cd3d 20ef 99bb
000001d0: 020e 8bbd fc00 25bd d531 0bbd f507 09be
000001e0: 54cb 303d 0421 34bd a0cf 873d e078 bc3d
000001f0: d4fd bbbc 965c 8f3d b83d ec3c a084 c63d
00000200: a9ea c0bd 009f 4fbc e484 49bd 7761 003e
00000210: 68aa 04be b46c a8bd 12b7 783c 7635 033e
00000220: 30ba c53d 7e4e 0abe 0ed4 cfbd 544f 0f3e
00000230: e051 ac3c ab2f fdbd c6c3 3ebd 60f7 7d3d
00000240: 840f c2bd 24cc f8bd 2aca 1fbe 93fb 57bd
00000250: 94d3 0a3d 1f82 d63d 76ed 8d3d 039a 8fbd
00000260: 8864 c6bc 77f6 dbbd d257 003e 5836 2e3e
00000270: 0357 183e 77a6 b43d 02d9 dc3b ec2e 503d
00000280: 278b d03d eaee acbd 3c9a 093c 45fe b1bd
00000290: 275a ecbd 27ea d23c df29 53bc eb82 41bd
000002a0: 8003 c43c c0aa c03b d86f b43c 1072 a5bd
000002b0: bc2a 2abe 9a82 c3bd 7c10 933d e33a a93d
000002c0: 6669 663e ce06 7b3d c86f ec3d 78c4 6dbc
000002d0: af1f 38bd 079c a03d ba13 80bd 92d7 ea3c
000002e0: e489 d6bd 4128 ee3d a9b1 c7bd 2adf f23d
000002f0: 79c6 c93d 3a46 f83d fcb3 d73d 459b 443d
-0.1265048 -0.12456222 -0.08607097 -0.08979853 -0.0004183724 -0.021065315 -0.080192 0.10114145
-0.032746837 0.088722646 0.024668992 -0.123936236 0.040370967 0.08925334 -0.14073372 0.05863341
-0.19627577 0.013390265 0.016725108 -0.023233298 -0.1165045 0.05436784 -0.09049492 -0.12647511
-0.046339996 -0.098807186 0.044239506 0.105803974 0.111390516 -0.09677809 0.20450109 0.1688302
-0.0061689517 0.061475847 0.074782625 0.11043954 0.11204355 0.09566133 -0.062360816 -0.048762865
0.0024147537 0.1113011 -0.037290685 0.0051624775 -0.13460706 0.0022239208 -0.04578089 -0.10076214
0.104198314 -0.15271692 -0.03355053 0.032303233 -0.1046175 0.12428338 -0.04592646 0.06484336
0.080557525 0.14586902 0.04926868 0.1359925 0.16645604 0.058848947 0.008121338 0.0011947588
0.063505776 0.081451744 -0.037001856 0.15602261 0.025677752 -0.10547016 0.078526884 0.12012581
0.05393277 0.11781889 0.0029839575 -0.27394357 -0.018351486 0.03845467 0.0680036 0.20392726
0.128553 0.009268465 0.040166333 0.08551645 -0.05748371 0.12355332 0.115356356 0.0915248
0.1818943 0.018950537 -0.094900705 0.014536705 -0.032908272 0.05926175 0.13433275 -0.0683281
0.006044209 0.14038795 -0.11839821 -0.02490735 0.14016029 0.0997536 0.04189259 -0.062252954
-0.013454974 -0.12943104 -0.13700579 -0.13633499 0.13863221 0.114160925 0.05615052 -0.036253855
0.12316953 -0.039250996 0.10020332 -0.0046976954 -0.06789781 -0.040284142 -0.03398307 -0.13381942
0.04316266 -0.0439768 0.06631398 0.092027426 -0.022948183 0.07000081 0.028838024 0.09693265
-0.09419758 -0.012672186 -0.049199 0.1253718 -0.1295563 -0.082238585 0.015180366 0.12813362
0.09654653 -0.13506505 -0.10147868 0.13995105 0.021035135 -0.123626076 -0.046573423 0.062003493
-0.094756156 -0.12148312 -0.15604463 -0.052730154 0.033893183 0.104740374 0.06930058 -0.07011797
-0.024217859 -0.10740369 0.12533501 0.17012918 0.14876942 0.08820813 0.0067397365 0.050826
0.10182791 -0.08444007 0.008398589 -0.08691076 -0.11540633 0.025746418 -0.012888401 -0.047243994
0.02392745 0.00587973 0.022025988 -0.08078396 -0.16617864 -0.09546395 0.071808785 0.08263185
0.22501144 0.061285786 0.11544758 -0.014512174 -0.04495209 0.0784226 -0.062537625 0.028667245
-0.10475519 0.116287716 -0.09750683 0.118589714 0.09852309 0.1212277 0.10532376 0.04799964

encoder.conv4.bias f4 [4]
00000000: e75d b9bc cc72 a7bd fea5 6fbd 2428 54be
-0.022627784 -0.08176193 -0.05850791 -0.20718437

encoder.fc1.weight f4 [400, 20]
00000000: 0eb4 503e 90d1 3d3c 9061 d73d b076 063c
00000010: e099 833d d813 0dbe fcfe 31be f29f 2e3e
00000020: 28a9 ad3d fc1d e23d d144 63be d0af 773c
00000030: 6493 55be c89f d1bc 20ac 41bc 5c16 21be
00000040: 35bc 62be 00e6 c03a 62ea 4d3e 405b 4e3e
00000050: 6467 0bbe a309 2bbd 3b7a 3fbe 4fd1 32be
00000060: 8f58 1fbe 6105 243e c387 c2bd 002b 18bd
00000070: 79f0 263e 897f 59bd 60b6 383e 9a26 183e
00000080: f8b5 563e 1011 1d3d ad2a 39be 6b6a 90be
00000090: e3b2 31be 09bc f23c d011 d93d b807 863d
000000a0: b05e 2ebe 02c1 2bbe cace 3a3e 706b 58bc
000000b0: 1b21 4dbe 2cd0 6a3c 8b55 f3bc 0e6c 0c3d
000000c0: 6d0f f93d cc4d 213e 6948 2ebe c09d 20bb
000000d0: 22f2 e2bd 52e2 1a3e 70c4 e23d 32e5 a63e
000000e0: de3e 903e 5998 2b3e 5869 3dbe 781b 673d
000000f0: 421e 1dbe 51aa de3c 00a3 1c3b f009 5b3e
00000100: 52ae 52be cc39 37be 2344 13bb a55a 9e3d
00000110: 92be 4a3e 62b3 3f3e ea5e 2f3e bc8f 903d
00000120: 4adf 82bd c0a8 41bd 4a70 fabd 8baf 0fbe
00000130: e05b 49be 3bed 1f3c b290 b63d 9e4c 423e
00000140: bcb0 61be 95ca 383e e2d6 0fbe 48ca 07bc
00000150: 44e0 6b3e 60b3 223e a636 4dbd e436 293e
00000160: 610e 3ebe 3483 803e 7a34 5f3e 805e 26bc
00000170: a8bc 163d fce9 56bd c6f3 10be befe 2d3d
00000180: f3d0 843d 551c 06be 601d 14be 9008 c93c
00000190: b6fc 14be 2a19 f9bd 8075 fdba da56 f1bd
000001a0: 2716 b93d 4a13 71bd 35f9 babd 3798 08bd
000001b0: 913d 3bbe 0d95 e73c 9ebb 443e 320d 04be
000001c0: 2c3d aabd 86b1 553e 53a3 25be d275 eabd
000001d0: 2cf9 91be 6ed9 a0be 6194 1bbb 08af 02be
000001e0: 7404 f83d 15e4 93bd c062 103b 5151 dabd
000001f0: 2d52 fb3d 1e90 883e bb36 793b b77e a9bd
00000200: c124 2ebe d7ea 983e 66d9 c23d 2c20 bd3d
00000210: 50ef 1b3d 70ca e53d 1c9f a23d cc6e 823e
00000220: e5b3 673e ec95 b13d 1e6b 6d3e 5861 0e3e
00000230: 404c e0bb 37f8 d2bd 50dc 723c 8921 3a3e
00000240: f443 623e d22c 76bd 4f4f 73bc 053e cb3d
00000250: bb40 013e c0fa b73e 892c e03d 38e5 913d
00000260: 18ae 533d 5830 57be 34b7 a8bd cc0b 453e
00000270: ad6c 87bd f42a 51bd a76f 283e 18c0 9b3d
00000280: 10c6 38be d070 593c fed8 063e e2e7 033e
00000290: b619 513e d212 b5bd 24e9 cb3d 38bd 39be
000002a0: 38f3 e1bc 44a0 11be 8866 2ebd cc59 023e
000002b0: 404c e43d ffe2 f0bd d81c 63bd b43a 37bd
000002c0: 1637 aebd 55dc fabd 8022 283e ea45 1e3e
000002d0: 3c27 3f3e bf76 fbbd 8eac 273e 1cdd 8abd
000002e0: 742e 57bd f896 76bd 3024 32bc c088 c8bd
000002f0: e082 fa3c 0c95 13be 1859 bc3d b405 40be
00000300: 3004 a6bd 80ed 1fbe 5875 1a3e d650 1d3e
00000310: 851d 36be 72e3 f9bd 72ed 4c3e 0871 853d
00000320: 5aaa 1d3e 4673 32be bcae ce3d 3bde 1b3e
00000330: 80b0 03bd 5695 5e3c 6abc 2d3e 27fb a83d
00000340: 4969 a93d 6d33 743d ac33 bdbd 5e26 0cbe
00000350: 767f 643e 58b5 90bc 9e32 4b3e e645 973e
00000360: 60ba 68bd 4295 723d c499 b9bc a00a 85bb
00000370: 48e8 163e 542b fc3d f10d 02be d198 e2bd
00000380: d4a9 22be 3c68 42be 9ee2 123e a27c 0dbe
00000390: c082 3f3b 0044 9fb9 40af 1c3d 0059 56bc
000003a0: 44a5 ed3d e090 fb3c a231 243e 38b4 453d
000003b0: 00c7 36bb a8c8 013d 9e9c 183e 503d 0a3d
000003c0: 804e 213e a0b3 adbc 0020 fe3a e65e 403e
000003d0: 536a 5bbe fdb8 9c3c a2e2 4d3e b24e ecbd
000003e0: c1f2 35bd 635a 88bc 84de 963d 8816 ad3d
000003f0: 707c 4f3d fca5 b43d 247c c4bd b528 ba3d
0.20381185 0.011585608 0.105166554 0.008207008 0.06425834 -0.13777101 -0.17382425 0.17053202
0.084795296 0.11040875 -0.2219422 0.015117601 -0.20857006 -0.025588885 -0.011820823 -0.15731186
-0.22142108 0.0014716983 0.20108941 0.20151997 -0.13613659 -0.041757237 -0.18698971 -0.17462657
-0.15561126 0.16017677 -0.09498551 -0.037150383 0.1630267 -0.053100143 0.1803832 0.14858475
0.20967853 0.03834635 -0.18082686 -0.2820619 -0.17353396 0.029630678 0.105991006 0.06544441
-0.17028308 -0.16772845 0.18242946 -0.013209209 -0.2003216 0.014331859 -0.029703876 0.034282736
0.12161145 0.15752333 -0.1701981 -0.0024508089 -0.110813394 0.15125397 0.11072624 0.32596737
0.28172964 0.16757335 -0.18497217 0.05642268 -0.15343574 0.027180823 0.0023900867 0.2139051
-0.2057431 -0.17893142 -0.0022471033 0.07732133 0.1979926 0.18720773 0.1712605 0.07058665
-0.06390245 -0.047280073 -0.12228449 -0.14031808 -0.19663954 0.00976115 0.08914317 0.1897454
-0.22040075 0.18046029 -0.14046815 -0.008287974 0.2303477 0.15888739 -0.050100945 0.16524845
-0.18560173 0.251001 0.21797362 -0.0101543665 0.03680101 -0.05246924 -0.14155492 0.04247927
0.064851664 -0.13096745 -0.1446433 0.024540216 -0.14549527 -0.12163003 -0.0019337386 -0.11784144
0.09037428 -0.058856286 -0.09129564 -0.03334829 -0.18285204 0.028269315 0.19212195 -0.12895659
-0.08312449 0.20868501 -0.16175584 -0.11448254 -0.28510416 -0.31415886 -0.0023739564 -0.12762082
0.12110224 -0.072212376 0.0022031516 -0.10660041 0.12271533 0.26672453 0.0038027007 -0.08276122
-0.17006208 0.2986667 0.09514122 0.09234652 0.038070023 0.112202525 0.07940504 0.25475156
0.22627218 0.086711735 0.23185393 0.13904321 -0.006845027 -0.103012495 0.014823034 0.18176855
0.22096235 -0.060101338 -0.014850452 0.09923939 0.12622349 0.35933495 0.109459944 0.07123798
0.0516797 -0.21014535 -0.08238068 0.19242781 -0.06612525 -0.051066354 0.16448842 0.07604998
-0.18044305 0.0132715255 0.13168713 0.12881425 0.20419964 -0.0884148 0.099565774 -0.18138587
-0.027581796 -0.14221293 -0.04257825 0.12729567 0.11147356 -0.11762046 -0.05544743 -0.044733718
-0.085066006 -0.12249056 0.1641941 0.15456358 0.1866731 -0.122785084 0.16374418 -0.067804545
-0.052534536 -0.06020257 -0.010872886 -0.09791708 0.030579984 -0.14412326 0.09196681 -0.18752176
-0.081062675 -0.15617943 0.15083826 0.15362868 -0.17784698 -0.12201585 0.20012453 0.065156996
0.15397015 -0.17426786 0.10091922 0.15221493 -0.032150745 0.013585409 0.16966406 0.082510285
0.08272035 0.059619356 -0.09238371 -0.13686511 0.22314247 -0.017664596 0.19843528 0.29545516
-0.056818366 0.059224375 -0.022656329 -0.0040601045 0.14737046 0.12312952 -0.1270063 -0.11064304
-0.15885097 -0.18985075 0.1434426 -0.13817075 0.002922222 -0.00030377507 0.03825307 -0.013082743
0.116037875 0.03070873 0.16034558 0.048267573 -0.002788961 0.0316855 0.14903495 0.03374988
0.15752602 -0.021203816 0.0019388199 0.18786201 -0.21427278 0.019131178 0.20105985 -0.115384474
-0.04442096 -0.016644662 0.0736666 0.08451563 0.050655782 0.088207215 -0.095939904 0.090897955

encoder.fc1.bias f4 [400]
00000000: bb6b 5fbe 3b5f 163e 55ce 9abc 0058 793e
00000010: c1e0 6abd db29 bd3e fb4b 21bb 6118 0bbe
00000020: 686c 97bd 4479 eebd dc26 783d 86d8 91bd
00000030: de42 70bd cd13 d73d 8948 45be 7d9e 443e
00000040: a5c4 bf3c df13 a33e 7712 f4bc cc88 05be
00000050: 3cb4 483e eaae 213e eea8 b23e e653 59be
00000060: 985a 40be 6f26 5bbe da53 d1bd 848d 8b3e
00000070: 34fe 5cbe d1d7 fab8 60f5 15bd abc3 3a3e
00000080: 1624 a93e 96ea 4bbc f608 b3bd c3c4 a13d
00000090: 81f7 813c 344d 4fbe 1f41 92be 36c2 bb3d
000000a0: 0384 2dbe 64a8 f5bd a3e3 b53d be33 a73e
000000b0: bc87 5dbe e9b2 cd3c ae90 26be 9026 8cbc
000000c0: f0ed c83e d203 bc3d 643f 0dbe bd02 8dbd
000000d0: 905e 5abd beb1 29be 6c12 22be 02ce 6b3a
000000e0: c285 46be 3cf7 bcbd 13ff 893d a0d4 a8bc
000000f0: b23c 81bd 6bb7 f8bd 8c47 5dbd 75a3 60be
00000100: e0b3 4cbe 8164 b43b 462e 033e b949 6d3e
00000110: 0e5b 9abd 78e8 11be 42a6 0a3e d446 56be
00000120: 225c 623e 6e6d 363e 786c 19bd 1b6d 043e
00000130: e33a 8fbe 7f60 ccbd ca5f c13d c133 9f3e
00000140: a79d 943d 367e 6abd 19a5 9abe cc5c 58bd
00000150: ac4d 31be e661 51be 507e a3bd 447e 19be
00000160: 3ba8 493e 6388 47be 1764 6c3e 7dc7 ec3c
00000170: f425 1fbe db0d f6bc e37c 2abe 58df 473e
00000180: 06c6 063e c7ef 49be cde3 b13e fd83 febd
00000190: b535 7abd 98fa cabd 3465 1fbe 30f5 2cbd
000001a0: ccd8 10be d495 bf3d d07f 1ebd 6db3 94be
000001b0: 4a06 963e 29c1 d1bd 4473 2a3e 39a4 6fb9
000001c0: 1a02 bbbd 6caa a5bd 8c21 a6bc 6062 41bd
000001d0: 2d42 1abd 28b4 14bd 2a3b c4bd 8f48 ba3d
000001e0: 89b5 9b3e 4809 fcbc 1ef3 3c3c 7117 1fbe
000001f0: fb4d 17be 2710 63be 93a6 e6bd 0a52 873e
00000200: acc5 503e 0f23 923e 8ca2 0f3b d7c5 e8bd
00000210: 93a4 f8bd aba4 6a3e 804e 4c3d b9b2 1bbe
00000220: 9c06 1cbd a097 47be 24a7 6f3e 1642 bc3d
00000230: 947d 65be e128 9d3c 02aa c6bb 3248 20be
00000240: 8d90 b93e 16ff fdbd 8ea7 6e3c b4f7 94bd
00000250: 0c17 0fbe 00f8 25be 00ac d5b9 e87d 34bd
00000260: 0d69 d83d 89f4 4bbe 5b7d 03be 5404 65bd
00000270: 95af 30be c94f f9bd 09b1 47be 123c 723e
00000280: 1fb2 3bbe 1b4d 873e 717e 733e 8281 15be
00000290: faf4 b73e 1f07 debd 31ee b83e 0c02 bc3a
000002a0: 433f 8e3e c2e6 8c3d e18f e63d 20cc 82bc
000002b0: a044 aa3d 3ca4 bb3d 891b 2cbe ef52 933e
000002c0: 54bb 2ebe 8838 4f3d f111 86be 57d5 363e
000002d0: c1ee 303e 2b1d 38be 5c1a 7abe 43cd 233e
000002e0: 8c69 08be ef00 833d a66e 2e3e 70f2 64be
000002f0: 84b7 0bbe a4b7 9dbe b16c 97bd 554a babd
00000300: 903d 4c3e 323d 9bbe dde3 61be 8860 71ba
00000310: a27a 89bd cbe0 8f3e 323a 5c3e c97b d7bb
00000320: 44e8 a03b bf30 b53e 4103 ca3d 3ece 8c3e
00000330: f75a 383e ecff 5cbe 07c9 a13d bb24 483e
00000340: 9745 0ebc dce0 92bb aa30 303e 1e59 87bd
00000350: fda6 31be fc83 1ebd ab0e b53e 856a 423e
00000360: e00c e6bd 6d77 41be b6bf f33c 4936 7f3d
00000370: 2f70 403d c201 1f3e 7a43 5abc e291 52be
00000380: 116d 1ebe dcfe 8dbd 3d30 873e 6ec5 b33d
00000390: 1822 85bd a583 06be 63cc dcbd b627 1b3e
000003a0: 0213 13be 9e1f 263e f668 d43d e23d 1cbe
000003b0: 31f9 013e 4a15 a0be 6509 823e c3fe 6d3e
000003c0: 3229 ccbd b616 46be cc10 27bd d728 86bd
000003d0: 9976 aabd 7710 b63e d8e6 b43d 6cf0 993e
000003e0: b309 7fbe 2f6b 283e 3019 163e 597c 5ebe
000003f0: 0919 1a3e 0ccd 18be b03c 16be b990 2abc
-0.2181844 0.14684765 -0.018897215 0.24349976 -0.05734325 0.36945996 -0.0024611938 -0.13583519
-0.07393724 -0.11644223 0.060583934 -0.07121377 -0.05865752 0.105018236 -0.19265951 0.19201083
0.023409197 0.31851098 -0.029793961 -0.13040465 0.19600004 0.1578938 0.34894508 -0.21223411
-0.18784559 -0.2140138 -0.102210715 0.27256405 -0.21581346 -0.00011961128 -0.03661096 0.18238704
0.33035344 -0.012446066 -0.087419435 0.078988574 0.01586509 -0.20244294 -0.28565308 0.09167902
-0.1694489 -0.119950086 0.08881309 0.32656664 -0.2163381 0.025109725 -0.16266128 -0.017108232
0.39244032 0.09180416 -0.13793713 -0.06885288 -0.053312838 -0.1657171 -0.1582734 0.0008995236
-0.19386962 -0.09226844 0.06738105 -0.0206092 -0.06310405 -0.12144359 -0.05402331 -0.21937354
-0.19990492 0.005505145 0.1281062 0.23172654 -0.075368986 -0.14248836 0.13539985 -0.20925456
0.22105458 0.17815182 -0.03745696 0.12932245 -0.27974615 -0.09979343 0.094420984 0.31094173
0.07256632 -0.05724927 -0.30204085 -0.052822873 -0.17314786 -0.20447502 -0.079830766 -0.14989573
0.19693081 -0.19485621 0.23085056 0.028903717 -0.15541822 -0.030035904 -0.16649203 0.19518793
0.13161477 -0.19720374 0.3474411 -0.124275185 -0.061086375 -0.09911078 -0.1556595 -0.042226017
-0.14145201 0.09354749 -0.03869611 -0.2904314 0.29301673 -0.102419205 0.16645533 -0.00022853994
-0.0913126 -0.08089146 -0.020279668 -0.04721296 -0.037660766 -0.036304623 -0.09581597 0.09095871
0.30411938 -0.030766144 0.011532573 -0.15536286 -0.14775841 -0.2217413 -0.1126224 0.26429778
0.20387906 0.28542373 0.0021916954 -0.1136586 -0.12140765 0.22914378 0.04987955 -0.15204896
-0.03809224 -0.19491434 0.23403603 0.091922924 -0.22411186 0.019184532 -0.006062747 -0.1565254
0.36243096 -0.124021694 0.014566315 -0.07273808 -0.13973635 -0.16207886 -0.00040754676 -0.044065386
0.10566912 -0.19917502 -0.12840788 -0.05591233 -0.17254479 -0.12173421 -0.19501127 0.23655728
-0.18329667 0.26426014 0.23778702 -0.14600185 0.3592909 -0.10841202 0.36119226 0.0014343872
0.2778264 0.06879951 0.112579115 -0.015966475 0.083138704 0.091621846 -0.16807379 0.2877421
-0.17063648 0.05059102 -0.26185563 0.1785482 0.17278577 -0.17979877 -0.24424118 0.1599627
-0.13321513 0.063966624 0.17034397 -0.22358108 -0.13644224 -0.3080417 -0.07393778 -0.09096209
0.19945359 -0.30320126 -0.22059579 -0.00092078047 -0.067128435 0.2810119 0.21506575 -0.0065760356
0.0049105007 0.35388753 0.09863902 0.275011 0.1800345 -0.21582001 0.07899671 0.19545262
-0.008683584 -0.0044823717 0.17206064 -0.06608795 -0.17348857 -0.03870009 0.35362753 0.18985946
-0.112329245 -0.18893214 0.0297545 0.06230763 0.046981987 0.15528014 -0.013321752 -0.20563462
-0.15471293 -0.06933376 0.2640399 0.08777891 -0.065006435 -0.13136156 -0.10781171 0.15151867
-0.1436272 0.16222998 0.10371582 -0.15257981 0.12692715 -0.31266242 0.25397792 0.23241715
-0.09968795 -0.19344601 -0.040787503 -0.06550758 -0.08323402 0.35559437 0.088330925 0.3006624
-0.24906044 0.16447137 0.14658046 -0.21727122 0.15048613 -0.14921969 -0.14671588 -0.010410481

encoder.z_mu.weight f4 [1, 400]
00000000: 8d51 2cbd 20a0 cabb edfd 13be 50a9 c73d
00000010: 78cd dbbd 5250 313e 4963 2bbe 0025 85be
00000020: e9d0 003d 681a 3ebc 3ed4 4dbd c900 203d
00000030: 2bba 3e3d 38cd ab3e ec24 90bc f9ad da3a
00000040: 7721 61bc 2451 593e ff2a 073a 1914 053d
00000050: be60 883e 81fc 323e 24e6 783e 5a97 303c
00000060: 064e 00be 7804 50bc 3e5b 82bc 4d22 393d
00000070: c230 e33c a535 67bd 40bb 033a bfaa a5bc
00000080: e409 513e a810 03bd 0469 753c 7719 09bd
00000090: 9dd9 36bd 0b8d 88be 50a5 40be 38d2 a93e
000000a0: bf0f 83be 1fb6 3dbd cd00 11bd fafd c33d
000000b0: a681 a73c 56a4 e4bc 6ff3 93be b34a fdbc
000000c0: 987e 8b3e 852a a53e 9ac3 42be 82a6 023d
000000d0: 6890 bebb 6387 45bd 2043 083c 17c0 063d
000000e0: c6a1 e23c c3f5 bfbd 8a95 6fbd ad1b 0e3d
000000f0: e158 163d 035b a5be 23e9 0a3d f19c 15be
00000100: c8fa 213c c338 0a3d 11f9 e03d 98f7 203e
00000110: 4f10 e9bd 1860 abbb ba3a 9d3e d89c 27bc
00000120: 3e58 663e 1ab7 c43d edab c93c c59f 8a3d
00000130: 2abd 6fbe 46ad b33c b119 8d3e 567f e63d
00000140: a265 34bd ed6a ffb9 38c6 aebe 97ca 283d
00000150: 8ef3 da3c 4293 1ebe 109f ccbc 0295 9ebe
00000160: c6a3 573d 48bf 4fbc 87a6 793c c8a3 e4bc
00000170: 9487 233c 06eb 71bb fabd 9d3c da90 0b3e
00000180: 4ece 803d b06b 97be 43ce 923e d9e6 463d
00000190: 6f5f a1bd 3f7f 0dbd b118 373d dbc5 20bd
000001a0: 677a 46bd ecd0 793d a712 3dbd 6085 6cbe
000001b0: 07d0 eb3d cb8a a1be 6491 64bc 8127 c7bd
000001c0: 9030 e33b 4215 ef3c 0b47 903d 12f5 f13c
000001d0: a7ee 51bb 8cb0 91bc 7b9e 38bc d907 723c
000001e0: cc4a 243e b81b 413c d0dd 98bd a0f4 793b
000001f0: 4ae0 10bd 31b3 373d 9f8d 003d 0ab9 6f3d
00000200: e4fe 553d b3bc e13b 3b40 95bd 4dfb d9bc
00000210: 126d e0bd 859c cc3d 8251 e9bb f3d1 b1bd
00000220: 9234 923c d005 fe3b 97ba 9a3d 1087 a53e
00000230: 6ed8 8cbe a3ec 7abd 7b73 1f3c a5aa 3d3d
00000240: d698 073e 4958 3abc 1dd6 f5bc 2844 b9bb
00000250: 4a75 e9bc d863 6dbe 5073 043b 90c4 edbb
00000260: 3d39 23bd e710 a2bc a3b1 1abd 8d0b b83c
00000270: 60a9 603b 7162 a7bd 09d7 273d 9099 923c
00000280: e4f6 93bd c862 f43d 4652 c63d 4089 7dba
00000290: 0481 8b3e fc1c d2bc bfb9 883d 2663 9dbd
000002a0: b66a 463e 5004 2e3b 98ba 9e3e 580e ffbb
000002b0: 708c a13d 4c69 913e 744d 6abc 2ad7 bd3d
000002c0: 3246 14bd 3268 b03c 557d 1ebe 7e3e 073d
000002d0: 4732 77bc 9980 243d 3b67 2cbe 9151 b63c
000002e0: f789 ccbc 41d2 a5bc 0bd0 503e 683d 48be
000002f0: 2771 f6bc d76a 89be 8293 05bd 0dbe 83bd
00000300: 13a7 313d d247 6ebe 605d ff3a 8463 6ebc
00000310: 555d 0e3d f5a2 423d aea3 dd3c 1468 30bd
00000320: d7dd 46bd fb56 c33d c767 9a3e 0364 1e3e
00000330: 3218 9f3c e092 5bbb f48a 1cbd a5a5 5f3c
00000340: 26bf 3abe d60e 11bd b0fb 65bd d469 0bbd
00000350: 5abc acbc fb15 abbd 1ec7 233e 100b 2f3e
00000360: c859 efbd 404f 90be ebf3 edbc e22b bc3d
00000370: 6f4f 0a3e b0d5 0b3e c869 5bbd aab2 8ebe
00000380: ba19 db3c c0d5 363c 6fa7 b63d 87ff a73e
00000390: 1023 e6bb 90b6 b5bd d1c2 383d a101 d1bb
000003a0: d878 15bc 42e1 083c f142 0abd 164a 87bc
000003b0: ee00 09bd 3a33 b8be 158f c53d c55c 253e
000003c0: 71dd 28be ea31 df3a 7fee 7dbb 0c3c 28bd
000003d0: 14ba 09bc 9a02 7b3e bf58 23ba 2f2a c73c
000003e0: 307c 8cbe cda6 cc3c 757a ffbb 739d 8fbe
000003f0: 2a4f 353e 6e19 1dbd 8f3c 33bd 22bf 14bd
-0.04206996 -0.006183639 -0.14452334 0.09749091 -0.107325494 0.17315796 -0.16737093 -0.2600479
0.031449232 -0.011602975 -0.050251238 0.03906325 0.046564262 0.33555007 -0.01759573 0.0016683928
-0.013740889 0.21222359 0.0005156248 0.03248987 0.26636308 0.17479135 0.24306542 0.0107782725
-0.12529764 -0.012696378 -0.015912648 0.045198727 0.02773321 -0.056447644 0.0005025156 -0.02022302
0.20413929 -0.031998307 0.014978651 -0.03347155 -0.044641126 -0.26670107 -0.18813062 0.33168197
-0.2559795 -0.046316262 -0.035401154 0.095699266 0.020447563 -0.027910393 -0.28896663 -0.030919408
0.2724502 0.32259002 -0.19019929 0.031897075 -0.0058155544 -0.048224818 0.008316785 0.032898035
0.02766503 -0.09373047 -0.05849222 0.034694362 0.036705855 -0.32296 0.033913743 -0.1461065
0.009886451 0.03374554 0.10985006 0.1571945 -0.11380064 -0.005229961 0.30708867 -0.010230266
0.22494599 0.09605236 0.024618113 0.06768755 -0.23412004 0.02193321 0.27558663 0.11254756
-0.044042237 -0.00048717056 -0.34135604 0.04120883 0.026727464 -0.15485862 -0.02497819 -0.3097306
0.05264642 -0.012679882 0.015237457 -0.027910128 0.009981055 -0.0036913767 0.019255627 0.13629475
0.062893495 -0.29574347 0.2867299 0.048559997 -0.07879531 -0.03454518 0.044701282 -0.03925119
-0.048456576 0.06099026 -0.046160366 -0.23097754 0.115142874 -0.31551203 -0.013950679 -0.09724332
0.0069332793 0.029184941 0.070448 0.029535804 -0.0032033117 -0.01778438 -0.011268253 0.014772379
0.16044158 0.011786394 -0.074641824 0.0038140193 -0.03537015 0.044848625 0.03138506 0.058526076
0.052245036 0.00688895 -0.072876416 -0.026609087 -0.109583035 0.09990791 -0.007120312 -0.08682623
0.017847333 0.0077521577 0.075551204 0.32329607 -0.27508873 -0.06126083 0.0097321225 0.046305317
0.13241896 -0.011373588 -0.030009324 -0.005653877 -0.02849831 -0.23182619 0.0020210333 -0.007256098
-0.03984951 -0.01978345 -0.037767064 0.022466445 0.0034280643 -0.08173073 0.040976558 0.01789549
-0.07224825 0.119329035 0.09683661 -0.0009671636 0.2724687 -0.025648586 0.06676053 -0.07684927
0.19376644 0.0026552863 0.31001735 -0.0077836923 0.078881145 0.28400648 -0.014300693 0.09269555
-0.036199756 0.02153406 -0.15477498 0.03301858 -0.015087671 0.040161703 -0.16836254 0.02225569
-0.02496813 -0.020241858 0.20391862 -0.19554675 -0.030083252 -0.26839325 -0.032611378 -0.06432734
0.043372225 -0.23269585 0.0019482784 -0.014550094 0.034756977 0.04751869 0.027055588 -0.043068007
-0.048551407 0.095380746 0.301573 0.15467839 0.019420717 -0.0033504292 -0.038218454 0.013650333
-0.1823698 -0.03541454 -0.05614823 -0.034036472 -0.021085907 -0.08353802 0.15993926 0.17094064
-0.11687046 -0.28185463 -0.029046973 0.091880575 0.13506864 0.13655734 -0.053567678 -0.27870685
0.026745666 0.01115936 0.08918654 0.3281214 -0.0070232227 -0.08872712 0.045107666 -0.006378368
-0.00912305 0.008354487 -0.033755247 -0.01651482 -0.033448152 -0.35976583 0.09646431 0.1614867
-0.16490723 0.0017028425 -0.003874689 -0.04107289 -0.008406181 0.24512711 -0.0006231181 0.024312107
-0.27438498 0.02498188 -0.0077965804 -0.28049812 0.1770598 -0.03835433 -0.043758925 -0.03631509

encoder.z_sigma.weight f4 [1, 400]
00000000: 2494 503c 3d72 9fbc e7d9 733c b4c9 4abe
00000010: 9744 063c d214 d7be cf5a 1c3d dbca 12bf
00000020: 20a3 2bbd 72e7 8f3c 4325 b5b9 22bf 823c
00000030: 0f37 fb3c 59ba 703e 478c b5bc 608f 6cbd
00000040: b77a e83c abfc 81be 6d40 923b aa02 953c
00000050: 9eed a43e 5b5c e53e 914a 74be 1052 7bbc
00000060: b89e f23b 808f 63bb a71a 3ebc efc9 cbbd
00000070: 006a a5bb ecdb cb3c 7522 323d 02ef 91bd
00000080: de21 72be bcb5 f83c e507 3f3d e021 683e
00000090: 88f6 af3c 2243 9dbe 0617 8a3d b50f 6b3e
000000a0: 2895 62bd 9d87 333d 8a11 86be 1775 52be
000000b0: 1ac3 8a3c eb9c e73c 3c58 0dbf 3af0 aa3c
000000c0: c5f4 96be 929f 993e 1199 28be 99d4 4b3c
000000d0: d058 36bd 1299 a03c ec29 54bc 38c9 70bc
000000e0: 7337 063d 223e 8ebc feb2 f23b 32e9 ea3c
000000f0: 2d2a e6bc c8a2 54be f939 163d 1ee1 8dba
00000100: 4cbf 723c 3764 a9be 5753 d4bd 509b acbd
00000110: 465a 933c 7d6b fabc 8b4d 833e a872 0ebc
00000120: 990a 62be 334c babd 1ae3 223c fe8d 8dbc
00000130: e51d 663d 51e1 123b 4d62 903e f41a dbbd
00000140: 4f40 143c e019 803a 1c14 2ebf ad54 fcbc
00000150: f2ba f63c ef0e 01bf 0912 443d 238e 1cbf
00000160: ca04 483c f0d4 f03b 4d9f 80bd 5557 0cbd
00000170: 7824 4c3c 32a9 e13b 7e78 333d 81bf edbe
00000180: 0cbd 47be eab6 38bf 2a55 91be fcbc 783c
00000190: 2d52 a7bc 42c2 9c3d 1815 9a3b 98cc 2dbc
000001a0: 18fd 39bd 76cb 0abe f0b7 3a3c 27ad 18bd
000001b0: 0932 33be 0836 06bf c8c2 5bbd a0d9 0a3d
000001c0: 8cb6 09bc ef6c 013d ad0d 38be 3233 08bd
000001d0: 7c61 763c 0017 e7bc ed2d b2bd 6b2f 07bc
000001e0: 7759 d7bd accd 713c 1b15 fcbc 74e5 7abc
000001f0: 9249 d53c 7de2 cebc b4cf 1e3c 3562 47be
00000200: 3dda 24bb 5c26 05be b6ac 8ebd 97fc b5bc
00000210: d3bb b33d 8f51 29be 1cc5 f9bc a1b7 ae3d
00000220: 4a6f fb3c 27d2 b2bc 7f31 11be 09cc 663e
00000230: af18 07bf 7f37 91bd 6019 2f3c 194a 243d
00000240: c607 30be 39ff 34bd 2c6e 193c 7a24 d63c
00000250: 96e3 c33c ed10 49bb e64c ad3c 77c8 ccbc
00000260: a6c2 45be 33f5 93bb 50c9 4c3b e674 34bc
00000270: d2ad a73c 4418 78bc 7222 f43c 0c13 04be
00000280: ba1a 02bf 0d08 6fbe 7e02 76bd bf57 223d
00000290: 23d4 aebe 76a8 6f3d fa60 39be 62cc b33c
000002a0: 8011 5dbe 7f51 21be 465c 573e 6ec1 b63c
000002b0: d900 e7bc ff1b a93e 1666 25bd 1be2 adbd
000002c0: 35b5 2d3d 1588 21be f50a 853d 9442 adbe
000002d0: 9a94 80bd 7d08 c6bc 41a0 853d b573 ed3b
000002e0: e8bc ac3b 64f1 e1bc 3c64 013f 9291 c73b
000002f0: 3d54 033d bf79 0cbf 99fe e8bc eea8 1bbc
00000300: 6731 25be 844b 38be f992 423d 6881 42bd
00000310: 44cc 4d3c aff4 a0bd 594c a3bc 85a4 c93c
00000320: 3c8f 043c 53b3 1ebe 26f1 483e 223c e5be
00000330: fcf2 12bc d46a 0cbd d280 493e 1386 7fbd
00000340: 58b5 533b 4007 cf3b 4725 e1be 0b73 24bd
00000350: cbee 22bd 11d5 f43c 7796 84be f8ef 0f3f
00000360: 57ac 7bbb 13f4 cebe 8903 373e 8247 823b
00000370: f07f c6bd 4f0e ccbd 2614 343c c6e3 2cbf
00000380: f042 1dbd c466 6d3c 8617 77bd 71c0 8f3e
00000390: 40a2 74bc c870 493e f5ba 46bd 3c7a 79bd
000003a0: 603f e3bc 6eb8 09be 4294 4cbd 8ebe ea3c
000003b0: c954 513c c0a5 06bf c8fe 9fbd d176 0abe
000003c0: 2995 cfbe 86f2 1aba 65b6 2ebd 687d 78bb
000003d0: 88dd c53c 0642 58be a841 d6bc f120 1cbe
000003e0: b748 51bd fe29 a9bb c11f 02be a603 e9bd
000003f0: f92f 89bd 36ab d63c 74a9 18bc c69d 8dbc
0.012730632 -0.019463653 0.014883495 -0.19803506 0.008195064 -0.42008072 0.03817254 -0.5734078
-0.041903615 0.017566416 -0.00034550772 0.01596028 0.030665902 0.23508586 -0.022161616 -0.05775392
0.028378827 -0.25388083 0.0044632466 0.018189747 0.32212538 0.44797024 -0.2385657 -0.015339389
0.0074041747 -0.0034722984 -0.011603034 -0.09950625 -0.0050480366 0.02488514 0.043489892 -0.07125665
-0.23645732 0.030360095 0.04663839 0.22669172 0.02147986 -0.3071528 0.067426726 0.2295521
-0.055318028 0.043830503 -0.26185256 -0.20552479 0.016938735 0.028273067 -0.5521276 0.020866502
-0.2948362 0.30004555 -0.1646464 0.012440824 -0.044518292 0.01960424 -0.012949448 -0.014696412
0.032767724 -0.017363612 0.0074065914 0.02867565 -0.028096283 -0.20765221 0.03667638 -0.0010824536
0.014816117 -0.3308427 -0.10367458 -0.08428061 0.017987382 -0.030568833 0.25645098 -0.008694328
-0.22074355 -0.09096565 0.009941841 -0.017279621 0.056180853 0.002241213 0.28199998 -0.106985
0.0090485355 0.0009773336 -0.67999434 -0.030802095 0.03011844 -0.5041341 0.047868762 -0.61154383
0.012208173 0.007349603 -0.06280384 -0.034262974 0.012459867 0.0068866247 0.043816082 -0.46435168
-0.1950571 -0.72154105 -0.28385288 0.015181776 -0.020424927 0.07654239 0.0047022216 -0.010607861
-0.045407385 -0.13554177 0.011396393 -0.037274506 -0.17499556 -0.52426195 -0.053652555 0.03389895
-0.008405339 0.031598028 -0.17973967 -0.03325195 0.0150378905 -0.02820921 -0.08700166 -0.008251051
-0.10515111 0.014758509 -0.030771783 -0.015313495 0.026036058 -0.025254482 0.009693075 -0.19471057
-0.0025154494 -0.13002914 -0.06966536 -0.02221517 0.08776059 -0.16535018 -0.030489497 0.08531118
0.030692715 -0.021828724 -0.14179038 0.2253877 -0.5277204 -0.07090663 0.010687202 0.040109728
-0.17190465 -0.04418871 0.009364646 0.02614044 0.023912232 -0.0030680255 0.021154832 -0.024997933
-0.19312534 -0.004515314 0.0031247921 -0.011014199 0.020468626 -0.015142504 0.029801581 -0.12897891
-0.5082203 -0.23342915 -0.06006097 0.039634462 -0.34146222 0.058510266 -0.181034 0.021948043
-0.21588707 -0.15753745 0.21031293 0.022309031 -0.028198646 0.33029172 -0.04038056 -0.08490392
0.04240914 -0.15774567 0.064962305 -0.33839858 -0.062783435 -0.02417397 0.06524707 0.0072464594
0.005271543 -0.027580924 0.5054357 0.0060903514 0.032062758 -0.5487327 -0.028441714 -0.009500725
-0.16132127 -0.17997557 0.047503445 -0.047486693 0.012560908 -0.0785917 -0.019933866 0.024614582
0.00809079 -0.15498094 0.19623241 -0.4477244 -0.008969065 -0.034281567 0.19678047 -0.062383723
0.0032304134 0.006318003 -0.43973753 -0.040148776 -0.039778512 0.029886754 -0.25896046 0.5622554
-0.0038402283 -0.4042059 0.17872442 0.0039758096 -0.09692371 -0.09963667 0.010991132 -0.67535055
-0.038393915 0.014489833 -0.060325168 0.2807651 -0.014931262 0.19671929 -0.04851814 -0.060907587
-0.02774018 -0.1344926 -0.049946077 0.028655317 0.012776562 -0.52596664 -0.078122675 -0.13521887
-0.40543488 -0.00059107726 -0.042654414 -0.0037916545 0.024153486 -0.21118936 -0.026154354 -0.15246941
-0.051094737 -0.0051624766 -0.12707426 -0.11377649 -0.06698603 0.026204687 -0.0093177445 -0.017287146
