Weight_Files/VAE_trained_on_1D/vae_net_torque.pth (torch_old, 84660 bytes, 23 tensors)

encoder.conv1.weight f4 [16, 1, 3]
0.3257257 -0.22952029 -0.07273036 0.24714606 -0.5638189 0.33040914 -0.12075029 0.27881363
0.017410956 -0.08776617 0.14681329 0.033979245 0.21670194 -0.21447 -0.010398138 -0.053545445
0.049757823 -0.047871828 0.5138234 0.19233067 -0.20435956 -0.34869725 -0.09677294 -0.24903467
-0.18125927 0.027941741 0.34248552 0.29046854 -0.5942512 0.31800675 0.08972717 0.37938195
0.29726112 -0.52604556 -0.5489495 -0.27847457 0.4995986 -0.10014277 0.24650773 -0.29308873
0.5427435 -0.26022866 0.36793002 -0.047792472 -0.3649951 0.29088342 -0.30816832 0.14272611
00000000: 85c5 a63e 5e07 6bbe a8f3 94bd db13 7d3e
00000010: 6f56 10bf 632b a93e ee4b f7bd a9c0 8e3e
00000020: 6ca1 8e3c c0be b3bd 3956 163e d22d 0b3d
00000030: 1de7 5d3e 069e 5bbe f45c 2abc 7852 5bbd
00000040: dcce 4b3d 4015 44bd ee89 033f 55f2 443e
00000050: a243 51be 7288 b2be e430 c6bd f202 7fbe
00000060: 089c 39be 14e6 e43c 435a af3e 4bb8 943e
00000070: d920 18bf c8d1 a23e e1c2 b73d 5a3e c23e
00000080: 9c32 983e ecaa 06bf f487 0cbf 3894 8ebe
00000090: 63cb ff3e a717 cdbd 866c 7c3e ba0f 96be
000000a0: 3df1 0a3f b13c 85be 5361 bc3e 0ac2 43bd
000000b0: a3e0 babe acee 943e 3dc8 9dbe cb26 123e

encoder.conv1.bias f4 [16]
-0.21718481 -0.04114814 -0.6768965 -0.38991892 0.4332234 -0.2280877 0.4899064 0.46279728
-0.11522404 -0.52084684 0.29042825 0.17918473 -0.46812075 0.48061076 0.4022719 0.47902083
00000000: b265 5ebe f48a 28bd 1749 2dbf 74a3 c7be
00000010: 75cf dd3e d28f 69be 03d5 fa3e c4f3 ec3e
00000020: 95fa ebbd 3856 05bf 03b3 943e 347c 373e
00000030: 86ad efbe 9d12 f63e 95f6 cd3e 3842 f53e

encoder.conv2.weight f4 [8, 16, 3]
-0.06756458 -0.02692944 -0.012777177 -0.0036643108 -0.13365984 -0.12006886 0.09834083 -0.013635771
0.08932988 0.022815518 0.061708987 0.043215096 0.00018767185 0.053677935 -0.15191703 0.10915356
-0.06575203 -0.1362592 -0.0019285319 -0.026418798 0.08406239 -0.08359103 -0.12831348 0.10504438
-0.015781734 0.085121475 0.05030065 -0.069329396 0.07865007 0.0831972 -0.09394054 -0.062065747
0.056743897 0.02585411 -0.061397247 -0.043693274 0.13413507 -0.01870382 0.09447376 0.07310794
-0.08374245 -0.17005247 0.19400178 0.034289412 0.07702529 0.0064592767 0.029180504 0.1005101
0.19621804 -0.10635963 0.0410796 0.10377941 0.106646925 0.07258488 -0.076513864 -0.08460428
-0.0659647 0.04034782 0.15541135 -0.07714847 0.040236983 -0.08643334 -0.13575797 0.0036826718
0.092575066 0.13678093 -0.07847469 0.042390395 0.13496825 0.0956458 0.089954495 0.10257098
0.103150316 0.038760506 -0.09884739 -0.06677899 -0.006031135 0.033019025 -0.07153971 0.06470031
0.05449755 -0.03268312 0.055474803 0.046647698 0.109633245 0.11713823 -0.03443754 0.1545263
-0.08639154 -0.0034822887 -0.038654424 -0.112501785 -0.07291766 -0.06436636 0.10307808 -0.060098726
-0.19838895 0.06523142 -0.010495258 0.025212057 -0.04028654 -0.0049263295 -0.09055205 -0.059812084
-0.13272546 -0.10468993 -0.06458758 0.04845333 0.01983281 0.011053383 0.114855126 0.103190035
0.058166426 0.02397341 -0.11769173 0.08133357 -0.04684147 -0.011669025 -0.12434666 -0.028510794
-0.11845693 0.13479523 -0.13919184 -0.12394197 -0.018707858 -0.12498646 0.030290255 -0.07838976
-0.0776545 0.008174941 0.10448566 -0.10153047 0.04838679 0.07142456 0.11897751 -0.12545529
0.028798148 -0.0850099 0.05314017 -0.082263336 0.07049507 -0.015777308 -0.025130706 -0.012926345
0.058087878 0.10637483 0.03565215 0.041860797 -0.13860978 0.12657107 0.15599294 0.14785512
0.114195384 -0.08710916 -0.031169504 0.1421591 -0.08602274 0.15226924 -0.13385145 -0.1772039
0.07641299 -0.120619334 -0.0073439847 0.12400622 0.115345195 0.13650808 -0.029288612 -0.11218793
0.14585488 -0.033847682 -0.031462368 0.106514916 -0.09633013 0.10694543 0.112876184 -0.096783705
-0.11648461 -0.012643456 0.06062545 -0.004180327 -0.043247987 0.027747422 -0.12736204 -0.18225889
-0.08773299 0.106570214 0.14137064 -0.02795191 0.00468803 0.072847515 -0.0066209 -0.078096144
0.08889227 0.08932562 0.04046807 -0.01873533 0.09384496 0.06978171 -0.075738244 0.16416395
0.05978018 -0.09734856 0.09654893 -0.09293118 0.09715932 0.028923912 0.0406403 0.038904406
0.0685678 0.10424448 -0.022307632 -0.042070575 -0.1120624 -0.005923569 -0.06837567 0.0057834983
-0.05604404 0.05576445 0.12777379 0.1236408 0.025405489 -0.06367272 -0.107503824 0.1372474
-0.012344083 0.029135272 0.0053392053 -0.09198158 0.11840808 0.10426136 0.02942549 -0.110370904
-0.05806405 7.892784e-05 0.009115944 -0.09243239 -0.0025084356 -0.029781774 0.050997585 -0.03703045
-0.019133836 -0.055090986 -0.13190441 0.12588069 0.027537048 0.1290702 -0.0232616 -0.03627388
-0.13569263 -0.054792076 0.09465253 -0.14137079 -0.050484292 0.087938994 0.08318828 0.05329597
00000000: 4c5f 8abd 219b dcbc 5d57 51bc ef24 70bb
00000010: 20de 08be aae6 f5bd eb66 c93d 9268 5fbc
00000020: 96f2 b63d 9ce7 ba3c 90c2 7c3d 5002 313d
00000030: c7c9 4439 65dd 5b3d 2390 1bbe e78b df3d
00000040: 00a9 86bd 8887 0bbe cbc6 fcba 3c6c d8bc
00000050: e728 ac3d c631 abbd 9c64 03be 8221 d73d
00000060: b248 81bc 2b54 ae3d 0e08 4e3d 92fc 8dbd
00000070: 4a13 a13d 4b63 aa3d e663 c0bd a738 7ebd
00000080: 4a6c 683d 00cc d33c ae7b 7bbd b8f7 32bd
00000090: b45a 093e c138 99bc 757b c13d 9eb9 953d
000000a0: 2981 abbd 3c22 2ebe 67a8 463e 0e73 0c3d
000000b0: 6fbf 9d3d 57a8 d33b f40b ef3c 3dd8 cd3d
000000c0: 62ed 483e 14d3 d9bd 1543 283d 4d8a d43d
000000d0: b469 da3d 62a7 943d 4db3 9cbd 0245 adbd
000000e0: 8018 87bd c143 253d 2724 1f3e 0400 9ebd
000000f0: 89cf 243d f703 b1bd 2304 0bbe fb58 713b
00000100: ff97 bd3d 4d10 0c3e 57b7 a0bd 8da1 2d3d
00000110: 1e35 0a3e f2e1 c33d 103a b83d bc10 d23d
00000120: 7940 d33d 56c3 1e3d 8070 cabd 6cc3 88bd
00000130: d4a0 c5bb f53e 073d 6983 92bd 9981 843d
00000140: d338 5f3d bcde 05bd 8c39 633d a811 3f3d
00000150: 6587 e03d 2be6 ef3d 610e 0dbd 243c 1e3e
00000160: 0cee b0bd 1c37 64bb 1a54 1ebd 5667 e6bd
00000170: db55 95bd 83d2 83bd 9a1a d33d 152a 76bd
00000180: 7926 4bbe 0d98 853d 4df4 2bbc 8489 ce3c
00000190: 8003 25bd 0c6d a1bb 5a73 b9bd 84fd 74bd
000001a0: 2fe9 07be ad67 d6bd 7e46 84bd 0077 463d
000001b0: 6b78 a23c 4019 353c 2a39 eb3d 4c55 d33d
000001c0: eb3f 6e3d e263 c43c 5d08 f1bd 3792 a63d
000001d0: d7dc 3fbd 702f 3fbc 76a9 febd 788f e9bc
000001e0: 8c99 f2bd c307 0a3e 4e88 0ebe 4ad5 fdbd
000001f0: 3941 99bc e7f8 ffbd 4523 f83c cf8a a0bd
00000200: 5309 9fbd 30f0 053c 94fc d53d 35ef cfbd
00000210: 3a31 463d 0a47 923d 7baa f33d 5a77 00be
00000220: 18ea eb3c ac19 aebd 82a9 593d ae79 a8bd
00000230: b85f 903d 6a3f 81bc e9de cdbc 05c9 53bc
00000240: 8eed 6d3d 0cdb d93d fd07 123d 3a76 2b3d
00000250: b9ef 0dbe d99b 013e 9dbc 1f3e 5567 173e
00000260: 45df e93d 4a66 b2bd 3057 ffbc 2892 113e
00000270: b12c b0bd 78ec 1b3e 5b10 09be f074 35be
00000280: 6a7e 9c3d 4507 f7bd cfa5 f0bb f9f6 fd3d
00000290: 1a3a ec3d c6c8 0b3e acee efbc c9c2 e5bd
000002a0: fb5a 153e dea3 0abd afde 00bd 7e24 da3d
000002b0: bb48 c5bd 3506 db3d a12b e73d 8936 c6bd
000002c0: 7c8f eebd 8026 4fbc 6452 783d 20fb 88bb
000002d0: cd24 31bd 904e e33c 326b 02be 13a2 3abe
000002e0: 5bad b3bd 7c41 da3d 77c3 103e 67fb e4bc
000002f0: 0c9e 993b 1431 953d 22f4 d8bb dff0 9fbd
00000300: 270d b63d 5af0 b63d d9c1 253d d67a 99bc
00000310: c931 c03d b7e9 8e3d a71c 9bbd 981a 283e
00000320: 10dc 743d af5e c7bd 72bb c53d b452 bebd
00000330: 77fb c63d d7f1 ec3c 7176 263d 3a5a 1f3d
00000340: 466d 8c3d 217e d53d 7fbe b6bc 3252 2cbd
00000350: f980 e5bd 801a c2bb 8b08 8cbd 8083 bd3b
00000360: 6f8e 65bd 4469 643d 22d7 023e 6337 fd3d
00000370: 2c1f d03c d866 82bd f72a dcbd 958a 0c3e
00000380: d63e 4abc 18ad ee3c 80f4 ae3b d760 bcbd
00000390: ef7f f23d fb86 d53d ba0d f13c 240a e2bd
000003a0: 92d4 6dbd 1086 a538 0a5b 153c 314d bdbd
000003b0: 9164 24bb e8f8 f3bc d8e2 503d 3ead 17bd
000003c0: 90be 9cbc 16a7 61bd f311 07be dee6 003e
000003d0: 6095 e13c fa2a 043e 1c8f bebc ec93 14bd
000003e0: 02f3 0abe a86d 60bd 30d9 c13d 81c3 10be
000003f0: 9ec8 4ebd 5c19 b43d 9e5e aa3d e04c 5a3d

encoder.conv2.bias f4 [8]
-0.16420561 -0.21517846 0.07634901 0.0051496397 0.06939313 -0.015085101 0.2685404 0.082106076
00000000: 8425 28be be57 5cbe df5c 9c3d 4fbe a83b
00000010: fc1d 8e3d 8027 77bc 217e 893e 3b27 a83d

encoder.conv3.weight f4 [16, 8, 3]
-0.06246048 -0.1225027 0.12681475 -0.074893914 0.1491606 -0.1594703 0.14832665 0.10538086
0.05507701 0.13967131 -0.09672184 0.0036297538 0.04231609 -0.07057457 -0.022186441 -0.08802953
0.1945377 0.17341074 0.18921413 0.20261492 -0.2344302 0.06828001 0.07523784 -0.14972071
0.093169324 -0.103660785 0.037547134 0.073450394 0.19748037 -0.07790438 -0.14520372 0.16851799
0.048703764 0.11305631 0.08710549 -0.095481046 0.19501446 -0.14595161 0.10125989 0.09227222
0.13946673 -0.10193364 -0.1425711 0.12319549 -0.060967144 -0.1610253 -0.18357259 -0.09898688
-0.040647104 -0.12256527 -0.08630903 -0.18243356 0.12377929 -0.046730116 -0.13047549 0.051460415
-0.15262526 0.14120062 0.11569027 -0.20059517 -0.16022645 -0.13459468 -0.11049876 0.025487319
-0.20184955 -0.15133089 0.09153614 -0.06685321 -0.081225574 -0.16886808 0.08273387 0.0144144595
-0.06679917 -0.11856189 0.045736935 0.06360486 0.09846788 0.0655879 -0.10569354 -0.23579104
0.1068195 0.0051746694 -0.35058227 0.1016606 0.1049944 -0.20249887 -0.12658869 -0.06946434
-0.11783746 0.095323294 -0.18602124 0.16765499 0.027426269 0.12589805 0.009185335 -0.08977198
0.12081248 -0.21330924 -0.11623541 0.021998081 0.120674945 -0.111030266 -0.19624594 -0.16679835
-0.16578317 -0.0974952 -0.045126904 -0.15603171 0.029977856 -0.096227884 -0.22261204 -0.11656807
0.04322371 -0.0029159784 0.11068254 -0.048603803 -0.2608355 -0.14873882 -0.059915543 -0.04520881
0.02583582 -0.0511383 0.07851698 -0.09720536 0.15811028 0.042476457 -0.1097924 0.17383419
0.007243871 -0.16382283 -0.11002119 0.04071062 0.14514032 0.15826191 0.034194283 0.14276862
0.10148612 0.06312686 -0.09877909 0.23419793 0.040711973 -0.045540236 0.0064033438 0.20066392
0.11637291 -0.004762293 0.20812416 0.06941776 -0.107089505 -0.16762431 0.07069639 0.1789321
-0.14303833 0.056246627 -0.019467704 -0.03091384 -0.05522636 0.11287069 0.06179555 0.13786724
0.074724585 0.09288818 0.16753252 0.05976346 0.014847036 -0.08301495 0.15412651 0.030145332
0.11465909 0.14199795 -0.10602986 0.12597613 -0.087345555 0.10804721 0.11858477 -0.06316381
0.0022787068 -0.105651885 -0.10463122 -0.11824614 -0.015465528 -0.08692841 -0.25533548 -0.12345988
-0.017443225 -0.065162614 0.1227515 0.10472696 0.06840117 0.08840085 -0.16007137 0.19284928
-0.21644343 -0.0671072 -0.14366573 0.038096294 -0.17166042 -0.10063207 -0.15202594 -0.16078019
-0.09528895 0.16431393 -0.05268961 0.06222284 -0.23495972 0.16362916 -0.044449314 -0.18733367
0.14067408 -0.055193916 0.15421157 -0.16572008 -0.18951552 -0.15334903 0.08842215 -0.02289188
-0.29335085 0.034614474 -0.013543284 0.031601626 -0.12521672 -0.14587338 0.08935276 -0.13509728
0.14322291 0.10225086 -0.19992158 -0.0951064 -0.020565484 -0.25098196 0.06268808 -0.08505078
-0.0905041 -0.1578016 0.081545435 -0.114018336 -0.16368444 -0.05367966 -0.1136363 -0.19844908
0.08376499 -0.08860299 0.17321816 0.14758442 -0.13207582 -0.10957369 -0.0531708 0.10887262
-0.04250898 -0.06812872 0.14446595 0.19944249 0.1422914 -0.15982163 -0.028528148 -0.0391535
00000000: 8fd6 7fbd b2e2 fabd badb 013e fb61 99bd
00000010: 8ebd 183e 2f4c 23be f1e2 173e ecd1 d73d
00000020: 6e98 613d ff05 0f3e 1a16 c6bd 2ae1 6d3b
00000030: a353 2d3d 6689 90bd 57c0 b5bc d448 b4bd
00000040: e434 473e 9692 313e 59c1 413e 497a 4f3e
00000050: 780e 70be 64d6 8b3d 4c16 9a3d 6350 19be
00000060: 8fcf be3d 1b4c d4bd 06cb 193d 296d 963d
00000070: 4b38 4a3e 558c 9fbd 49b0 14be fb8f 2c3e
00000080: 997d 473d 118a e73d 5d64 b23d 918b c3bd
00000090: dfb1 473e 5774 15be 5861 cf3d 38f9 bc3d
000000a0: 5ed0 0e3e 96c2 d0bd 29fe 11be eb4d fc3d
000000b0: afb8 79bd d1e3 24be 74fa 3bbe a2b9 cabd
000000c0: 947d 26bd 8003 fbbd cac2 b0bd ddcf 3abe
000000d0: ff7f fd3d 1468 3fbd 5e9b 05be 28c8 523d
000000e0: cc49 1cbe e596 103e 05ef ec3d d268 4dbe
000000f0: 6712 24be 30d3 09be 2d4d e2bd c8ca d03c
00000100: a6b1 4ebe 7cf6 1abe 4d77 bb3d 56ea 88bd
00000110: 9859 a6bd c1eb 2cbe 6070 a93d a02a 6c3c
00000120: 01ce 88bd 94d0 f2bd a756 3b3d 4443 823d
00000130: 87a9 c93d f352 863d db75 d8bd 3573 71be
00000140: 2fc4 da3d 4690 a93b 857f b3be 6f33 d03d
00000150: 4e07 d73d dd5b 4fbe 77a0 01be 5243 8ebd
00000160: c454 f1bd dc38 c33d 5a7c 3ebe c0ad 2b3e
00000170: 0ead e03c 6beb 003e 167e 163c 5fda b7bd
00000180: 896c f73d bd6d 5abe d50c eebd 5235 b43c
00000190: 6d24 f73d d663 e3bd b2f4 48be 30cd 2abe
000001a0: 10c3 29be 90ab c7bd fdd6 38bd c7c6 1fbe
000001b0: 1f94 f53c 2013 c5bd 69f4 63be 3ebb eebd
000001c0: 580b 313d 001a 3fbb 87ad e23d c814 47bd
000001d0: 3b8c 85be fd4e 18be 006a 75bd e02c 39bd
000001e0: a4a5 d33c 6576 51bd 83cd a03d 9b13 c7bd
000001f0: a9e7 213e cbfb 2d3d d6da e0bd 9701 323e
00000200: ff5d ed3b 2cc1 27be ca52 e1bd 2ec0 263d
00000210: aa9f 143e 690f 223e 4e0f 0c3d f031 123e
00000220: f4d7 cf3d a848 813d b14c cabd 95d1 6f3e
00000230: 99c1 263d 6688 3abd 24d3 d13b d87a 4d3e
00000240: ec54 ee3d 020d 9cbb 801e 553e e62a 8e3d
00000250: be51 dbbd b5a5 2bbe 45c9 903d fa39 373e
00000260: a478 12be dd62 663d bc7a 9fbc 053f fdbc
00000270: 0935 62bd c028 e73d 551d 7d3d 122d 0d3e
00000280: 3409 993d 283c be3d a58d 2b3e 88ca 743d
00000290: fc40 733c be03 aabd 57d3 1d3e 58f3 f63c
000002a0: 63d2 ea3d e967 113e 2f26 d9bd e3ff 003e
000002b0: 3ae2 b2bd db47 dd3d 92dc f23d 075c 81bd
000002c0: 5b56 153b 0460 d8bd e548 d6bd 082b f2bd
000002d0: 2063 7dbc 8607 b2bd 55bb 82be 89d8 fcbd
000002e0: 18e5 8ebc fa73 85bd 2365 fb3d 177b d63d
000002f0: ea15 8c3d 810b b53d c0e9 23be 487a 453e
00000300: 59a3 5dbe 806f 89bd 1c1d 13be dc0a 1c3d
00000310: c0c7 2fbe 3018 cebd b0ac 1bbe 90a3 24be
00000320: da26 c3bd e941 283e 0fd1 57bd 60dd 7e3d
00000330: 4899 70be 678e 273e 7c10 36bd 66d4 3fbe
00000340: de0c 103e 0413 62bd a3e9 1d3e 86b2 29be
00000350: 5b10 42be 8707 1dbe ac16 b53d c087 bbbc
00000360: 1532 96be e8c7 0d3d a6e4 5dbc b570 013d
00000370: d038 00be d55f 15be 94fe b63d f156 0abe
00000380: 07a9 123e e668 d13d 3eb8 4cbe 25c7 c2bd
00000390: f278 a8bc b580 80be 9c62 803d 1a2f aebd
000003a0: 375a b9bd be96 21be 4b01 a73d 7282 e9bd
000003b0: e59c 27be 34df 5bbd 26ba e8bd 3c36 4bbe
000003c0: fb8c ab3d 7c75 b5bd 1a60 313e 5f20 173e
000003d0: e23e 07be 2c68 e0bd a0c9 59bd 9cf8 de3d
000003e0: e51d 2ebd 1287 8bbd e2ee 133e a73a 4c3e
000003f0: d6b4 113e 48a8 23be ddb3 e9bc 6c5f 20bd

encoder.conv3.bias f4 [16]
0.27003485 -0.16266564 -0.17843685 -0.0915287 0.1381212 -0.24446298 -0.10067937 0.024641834
-0.07529682 0.14121953 -0.27643728 -0.10476755 -0.30271494 -0.08971159 -0.18507332 -0.010639773
00000000: 0242 8a3e d291 26be 26b8 36be 6673 bbbd
00000010: a56f 0d3e 8154 7abe fc30 cebd acdd c93c
00000020: 3835 9abd da9b 103e 3089 8dbe 5f90 d6bd
00000030: 74fd 9abe b6ba b7bd dc83 3dbe 7152 2ebc

encoder.conv4.weight f4 [4, 16, 3]
-0.17764269 -0.17424107 -0.111343995 -0.11843978 0.10827378 -0.01731961 -0.080192 0.09945717
-0.03443116 0.15091316 -0.049360402 -0.1250621 0.004295783 0.014110071 -0.1879476 0.035811946
0.049521748 0.052374493 0.017808998 -0.007871096 -0.08587623 0.057828773 -0.043259162 -0.07335384
-0.046339996 -0.090781204 0.04837215 0.10419555 0.15748037 0.002036993 0.11278837 0.1360637
0.017449584 0.06789042 0.09092786 0.15373984 0.11468443 0.09573341 -0.016621131 -0.08432348
-0.06844269 0.11875856 -0.020509811 0.015074043 -0.121029645 0.0064845867 -0.05406216 -0.12382923
0.06696004 -0.16806886 -0.072006576 0.0057112174 -0.11528549 0.09751073 -0.04592646 0.06484336
0.07887325 0.12785795 0.10373611 0.11061694 0.12751475 0.030828647 -0.039953183 -0.029491017
0.03274585 0.063344926 -0.13664092 0.11940426 0.06357374 -0.121125996 0.06189985 0.111911505
0.05393277 0.11781889 0.00401132 -0.119744144 0.00077133666 0.10606056 0.05685333 0.12930259
0.052859634 -0.023818225 -0.0033430005 0.06448479 -0.079856165 0.10340021 0.12078821 0.11509254
0.17291135 -0.01945815 -0.1043365 0.007206161 -0.039471082 0.052502606 0.12684469 -0.0748405
-0.0046333815 0.22784209 -0.12053694 -0.029380452 0.1890599 0.1262259 0.04189259 -0.062252954
-0.013454974 -0.13938338 -0.10103795 -0.12098426 0.04545194 0.11210375 0.091666356 0.0024915072
0.20228097 0.0076203793 0.13483013 0.10342964 0.021078765 0.025809951 0.044667035 -0.047740657
0.04316266 -0.045613997 0.06400464 0.092027426 -0.2189441 -0.07751051 0.119333796 0.13521807
-0.10803544 -0.010331035 -0.0073209046 0.14910601 -0.0818212 -0.042710338 0.057962622 0.23129359
0.117787264 -0.13708708 -0.08371795 0.19865045 0.06361953 -0.09222314 0.0047457237 0.10928547
-0.065977275 -0.11850466 -0.13017178 -0.04608403 0.021141065 0.05721482 0.06930058 -0.07180222
-0.025902202 -0.08903261 0.13535082 0.15796427 0.16041699 0.026807195 -0.05875178 0.018087111
0.067547984 -0.1166731 0.0408308 -0.06970658 -0.10497191 0.037062466 -0.020334406 -0.059638485
0.02392745 0.00587973 0.02270711 -0.07604641 -0.14137699 0.11521944 0.06108707 -0.017568827
0.12458497 0.03285749 0.07191733 -0.042816486 -0.079203136 0.054392807 -0.068750136 0.05056273
-0.10161211 0.1000967 -0.07940986 0.13374677 0.10680335 0.13189706 0.09319603 0.039511736
00000000: f7e7 35be 406c 32be 5208 e4bd 8e90 f2bd
00000010: a5be dd3d dbe1 8dbc b43b a4bd 33b0 cb3d
00000020: b007 0dbd fb88 1a3e 222e 4abd 4710 00be
00000030: a4c3 8c3b ed2d 673c 5675 40be 8caf 123d
00000040: 51d7 4a3d a386 563d 2de4 913c c5f5 00bc
00000050: e0df afbd dddd 6c3d 8530 31bd 8a3a 96bd
00000060: 02cf 3dbd 7feb b9bd e021 463d 7a64 d53d
00000070: 8942 213e 127f 053b 97fd e63d 4854 0b3e
00000080: 6ef2 8e3c 220a 8b3d 6338 ba3d fa6d 1d3e
00000090: acdf ea3d e10f c43d 0a29 88bc cab1 acbd
000000a0: ae2b 8cbd b037 f33d 3104 a8bc 1ef9 763c
000000b0: 64de f7bd a87c d43b 4970 5dbd 2e9a fdbd
000000c0: 5822 893d 3e1a 2cbe 2f78 93bd 2a25 bb3b
000000d0: cd1a ecbd b5b3 c73d 621d 3cbd 98cc 843d
000000e0: 4c88 a13d 32ed 023e 9973 d43d 228b e23d
000000f0: 3a93 023e 5c8c fc3c f3a5 23bd 2597 f1bc
00000100: 8320 063d fcba 813d 99eb 0bbe 388a f43d
00000110: f332 823d e810 f8bd b28a 7d3d dc31 e53d
00000120: 9ce8 5c3d 084b f13d 6471 833b 6b3c f5bd
00000130: 8733 4a3a 4736 d93d 0adf 683d e667 043e
00000140: 5883 583d 701e c3bc 3e16 5bbb 9a10 843d
00000150: a18b a3bd 7dc3 d33d cf5f f73d a3b5 eb3d
00000160: ac0f 313e b366 9fbc 60ae d5bd a921 ec3b
00000170: 6eac 21bd f90c 573d 93e3 013e fa45 99bd
00000180: 9fd3 97bb 704f 693e 12dc f6bd 46af f0bc
00000190: eb98 413e 5d41 013e 9097 2b3d f4fc 7ebd
000001a0: 4072 5cbc 84ba 0ebe fcec cebd 99c6 f7bd
000001b0: d02b 3a3d a796 e53d 92bb bb3d 8e48 233b
000001c0: be22 4f3e 60b4 f93b e910 0a3e ebd2 d33d
000001d0: 60ad ac3c 646f d33c c8f4 363d b58b 43bd
000001e0: 54cb 303d bed5 3abd dd14 833d e078 bc3d
000001f0: e232 60be d5bd 9ebd 4765 f43d 9b76 0a3e
00000200: af41 ddbd 8043 29bc 33e4 efbb 3faf 183e
00000210: e091 a7bd 09f1 2ebd 376a 6d3d 3ad8 6c3e
00000220: 733a f13d 8e60 0cbe 5174 abbd 066b 4b3e
00000230: f54a 823d 7cdf bcbd 0482 9b3b 0fd1 df3d
00000240: 181f 87bd 92b2 f2bd c04b 05be 9cc2 3cbd
00000250: 0730 ad3c 165a 6a3d 76ed 8d3d 0b0d 93bd
00000260: db30 d4bc bb56 b6bd 6899 0a3e 63c1 213e
00000270: 5a44 243e c39a db3c b5a5 70bd 6c2b 943c
00000280: 9956 8a3d 4ef2 eebd 323e 273d 53c2 8ebd
00000290: 83fb d6bd d0ce 173d 5794 a6bc 7c47 74bd
000002a0: 8003 c43c c0aa c03b 4304 ba3c 38be 9bbd
000002b0: 21c5 10be 2bf8 eb3d 6f36 7a3d 80ec 8fbc
000002c0: 6826 ff3d 9395 063d 6549 933d 5760 2fbd
000002d0: 4135 a2bd feca 5e3d dfcc 8cbd dd1a 4f3d
000002e0: 031a d0bd 80ff cc3d a3a1 a2bd eaf4 083e
000002f0: b7bb da3d 0610 073e 8fdd be3d 0fd7 213d

encoder.conv4.bias f4 [4]
-0.08024004 -0.088249885 -0.100333504 -0.2022058
00000000: e454 a4bd 5bbc b4bd a77b cdbd 0a0f 4fbe

encoder.fc1.weight f4 [400, 20]
0.20381185 0.011585608 0.105166554 0.008207008 0.06425834 -0.13777101 -0.17382425 0.17053202
0.084795296 0.11040875 -0.2219422 0.015117601 -0.20857006 -0.025588885 -0.011820823 -0.15731186
-0.22142108 0.0014716983 0.20108941 0.20151997 -0.13613659 -0.038131308 -0.14001484 -0.18953703
-0.06708732 0.20715603 -0.079622455 -0.007210095 0.30427825 0.03920685 0.16930328 0.09336276
0.15534955 0.038555276 -0.19743936 -0.1530248 -0.12809068 0.1662921 0.11151215 0.066693604
-0.17028308 -0.16249584 0.18081026 -0.06257841 -0.24380966 -0.12247585 -0.14712155 -0.095861495
0.092115484 0.08871367 -0.3189178 -0.059358772 -0.1711224 0.07692149 0.020815574 0.118920766
-0.011365521 -0.07508969 -0.3542409 0.055360273 -0.15343574 0.029860646 -0.047617614 0.18260674
-0.20852187 -0.25889707 -0.0788643 0.009675609 0.047029924 0.17959048 0.13688052 0.059604816
-0.06053683 -0.058571678 -0.14360936 -0.0060783434 -0.20691939 0.043001212 0.09976996 0.17716275
-0.22040075 0.18969698 -0.09344803 0.042567436 0.26800087 0.16950303 -0.04699229 0.16140561
-0.12863873 0.17481142 0.26741967 0.041530114 0.09329128 0.026720915 -0.06492819 -0.0478086
0.008278199 -0.1702934 -0.15015529 0.021827964 -0.14549527 -0.1279087 -0.04867542 -0.097124
0.21189271 -0.07354657 -0.096839316 -0.038144995 -0.25411034 0.11519283 0.20151332 -0.115014866
-0.054819364 0.21620142 -0.15755263 0.05894149 -0.16270088 -0.17756751 0.014192758 -0.12762082
0.12110224 -0.06708598 0.046794027 -0.10174331 0.13510123 0.22891101 -0.03222628 -0.13019702
-0.113810785 0.21316881 0.11297975 0.07583309 0.02342595 0.14926308 0.10053776 0.15432738
0.16166192 0.04694808 0.22341181 0.14098397 -0.006845027 -0.10420772 0.028511396 0.18529733
0.17797801 -0.08014722 -0.046599705 0.085892685 0.1252376 0.2120296 0.10764612 0.024081796
0.017299837 -0.20037217 -0.094157755 0.10055805 -0.1384335 -0.1908408 0.16739368 0.077481814
-0.18044305 0.019590324 0.061486125 0.15245357 0.16215189 -0.08255529 0.089641094 -0.17066538
-0.062053334 -0.14384855 -0.041959945 0.13687374 0.121392466 -0.10949718 -0.052482087 -0.19811493
-0.0422555 -0.101569705 0.16773072 0.1529279 0.1866731 -0.122785084 0.16374418 -0.067804545
-0.052534536 -0.06020257 -0.010872886 -0.09791708 0.030579984 -0.14412326 0.09196681 -0.18752176
-0.081062675 -0.15617943 0.15083826 0.15362868 -0.17784698 -0.12201585 0.20012453 0.065156996
0.15397015 -0.18497296 0.07256088 0.17711994 0.00886889 -0.002215899 0.17929138 0.06762632
0.012280751 -0.0004921457 -0.08016247 -0.15962225 0.22758442 0.013649019 0.20098336 0.27491972
-0.091637924 0.043981213 -0.017867165 -0.002007756 0.14737046 0.12312952 -0.1270063 -0.12754185
-0.17447671 -0.20504689 0.12785412 -0.153499 -0.013410202 -0.00030377507 0.022636099 -0.02888554
0.099776044 0.01456957 0.14427517 0.048267573 -0.01862582 0.013854229 0.13121612 0.03374988
0.15752602 -0.024848111 -0.0038362949 0.17709096 -0.22347924 0.006444375 0.19016004 -0.12694283
-0.045709316 -0.013465348 0.053021945 0.013529831 -0.024100283 0.0010979113 -0.17406559 0.08424342
00000000: 0eb4 503e 90d1 3d3c 9061 d73d b076 063c
00000010: e099 833d d813 0dbe fcfe 31be f29f 2e3e
00000020: 28a9 ad3d fc1d e23d d144 63be d0af 773c
00000030: 6493 55be c89f d1bc 20ac 41bc 5c16 21be
00000040: 35bc 62be 00e6 c03a 62ea 4d3e 405b 4e3e
00000050: 6467 0bbe 932f 1cbd 0d60 0fbe ff15 42be
00000060: 1465 89bd b620 543e 1911 a3bd a942 ecbb
00000070: 5cca 9b3e 5d97 203d d75d 2d3e fa34 bf3d
00000080: f413 1f3e 23ec 1d3d 8b2d 4abe 88b2 1cbe
00000090: 342a 03be 7a48 2a3e 7b60 e43d a896 883d
000000a0: b05e 2ebe 4f65 26be 5326 393e 1c29 80bd
000000b0: 3da9 79be 9ed4 fabd 08a7 16be 0853 c4bd
000000c0: 0ba7 bc3d 83af b53d 3249 a3be 2f22 73bd
000000d0: b63a 2fbe 0489 9d3d 6c85 aa3c bb8c f33d
000000e0: 7336 3abc a0c8 99bd 105f b5be 74c1 623d
000000f0: 421e 1dbe 509e f43c b00a 43bd 43fd 3a3e
00000100: c286 55be 288e 84be 9b83 a1bd 7286 1e3c
00000110: 73a2 403d 91e6 373e 682a 0c3e 2e24 743d
00000120: 78f5 77bd dbe8 6fbd 550e 13be d72c c7bb
00000130: ade2 53be 0a22 303d 3154 cc3d 276a 353e
00000140: bcb0 61be ed3f 423e ae61 bfbd 315b 2e3d
00000150: 6937 893e 3492 2d3e fd7a 40bd 8347 253e
00000160: dfb9 03be c401 333e 3beb 883e 7b1b 2a3d
00000170: 800f bf3d d2e5 da3c 12f9 84bd f3d2 43bd
00000180: 48a1 073c 6561 2ebe 4fc2 19be 8fd0 b23c
00000190: b6fc 14be 80fa 02be e15f 47bd f3e8 c6bd
000001a0: 67fa 583e 969f 96bd b153 c6bd ed3d 1cbd
000001b0: c01a 82be 38ea eb3d 8259 4e3e ea8c ebbd
000001c0: 458a 60bd e863 5d3e 7a55 21be a26c 713d
000001d0: 0f9b 26be 42d4 35be be88 683c 08af 02be
000001e0: 7404 f83d 6064 89bd 18ab 3f3d cc5e d0bd
000001f0: fa57 0a3e a667 6a3e b4ff 03bd 5e52 05be
00000200: a115 e9bd ed48 5a3e ed61 e73d 614e 9b3d
00000210: c7e7 bf3c 6cd8 183e bee6 cd3d ff07 1e3e
00000220: b48a 253e a14c 403d 11c6 643e 1a5e 103e
00000230: 404c e0bb db6a d5bd bb90 e93c 95be 3d3e
00000240: de3f 363e 3a24 a4bd 55df 3ebd 81e8 af3d
00000250: 493e 003e 4a1e 593e 9275 dc3d 3047 c53c
00000260: 63b8 8d3c 5d2e 4dbe c8d5 c0bd 61f1 cd3d
00000270: 83c1 0dbe c56b 43be 4069 2b3e c9ae 9e3d
00000280: 10c6 38be e37b a03c e0d8 7b3d ca1c 1c3e
00000290: 250b 263e bf12 a9bd c095 b73d e8c2 2ebe
000002a0: a32b 7ebd 094d 13be 31de 2bbd a128 0c3e
000002b0: 9d9c f83d 0f40 e0bd 75f7 56bd a4de 4abe
000002c0: 1a14 2dbd c703 d0bd 9ac1 2b3e 2299 1c3e
000002d0: 3c27 3f3e bf76 fbbd 8eac 273e 1cdd 8abd
000002e0: 742e 57bd f896 76bd 3024 32bc c088 c8bd
000002f0: e082 fa3c 0c95 13be 1859 bc3d b405 40be
00000300: 3004 a6bd 80ed 1fbe 5875 1a3e d650 1d3e
00000310: 851d 36be 72e3 f9bd 72ed 4c3e 0871 853d
00000320: 5aaa 1d3e 8d69 3dbe cc9a 943d ee5e 353e
00000330: d24e 113c 9e38 11bb 2998 373e ab7f 8a3d
00000340: 3435 493c 5703 01ba 392c a4bd 0474 23be
00000350: e40b 693e 23a0 5f3c 95ce 4d3e 47c2 8c3e
00000360: aaac bbbd a525 343d 295e 92bc 8e94 03bb
00000370: 48e8 163e 542b fc3d f10d 02be 559a 02be
00000380: 06aa 32be d0f7 51be 31ec 023e d82e 1dbe
00000390: 77b6 5bbc 0044 9fb9 576f b93c 5ea1 ecbc
000003a0: 6257 cc3d 35b5 6e3c dfbc 133e 38b4 453d
000003b0: 2d95 98bc d9fc 623c 855d 063e 503d 0a3d
000003c0: 804e 213e 448e cbbc 596a 7bbb 5557 353e
000003d0: bed7 64be 562b d33b 50b9 423e 4dfd 01be
000003e0: b139 3bbd c39d 5cbc 8a2d 593d 39ac 5d3c
000003f0: f56d c5bc cae7 8f3a 403e 32be d087 ac3d

encoder.fc1.bias f4 [400]
-0.2181844 0.04833381 0.04836824 0.14020373 -0.09270321 0.3268044 -0.085183024 -0.06645115
-0.0086929435 -0.11644223 0.08226559 -0.08773159 -0.06682629 0.24698162 -0.19556205 0.25372818
0.18318504 0.20032032 -0.02903881 -0.13040465 0.31423432 0.16013636 0.29155725 -0.19710064
-0.1244092 -0.32876953 -0.21407557 0.095742084 -0.25084636 0.045313492 -0.04947431 0.12288273
0.16054128 0.0272806 -0.087419435 0.1755222 0.054157913 -0.06526123 -0.2541098 0.18578678
-0.07244268 -0.11764032 0.1496188 0.3804487 -0.2163381 0.18810287 -0.043636378 -0.100147724
0.39693743 0.014968911 -0.14947908 0.09292831 -0.11209416 -0.27379805 -0.16164964 0.11057148
-0.30403936 -0.12788834 0.06120687 -0.0206092 -0.06310405 -0.07043276 -0.05402331 -0.22403646
-0.19522993 -0.02867486 -0.00580317 0.23589458 -0.04882988 -0.14248836 0.28269884 -0.20925456
0.060878236 0.13773356 -0.034242738 0.14139956 -0.301153 -0.14496054 0.0076249507 0.39168447
0.06536635 0.041053206 -0.29068932 0.024485778 -0.21439354 -0.15900098 -0.1459679 -0.06967738
0.25092235 -0.19485621 0.2301654 -0.0045471652 -0.16268651 0.09194714 -0.1519129 0.09624758
0.09127353 -0.14729694 0.3586415 -0.1306276 -0.12131655 -0.003161638 -0.1519409 -0.042226017
-0.14145201 0.19560987 0.00096165796 -0.28364033 0.38214195 0.2059748 0.1136735 -0.064910814
-0.0913126 -0.07960174 -0.04188042 0.12693827 0.07026036 -0.036304623 -0.12632175 0.1450468
0.39406767 -0.030766144 -0.014608185 -0.16563706 -0.13269436 -0.2217413 -0.1126224 0.21987186
0.26142383 0.14146891 -0.02317247 -0.1136586 -0.008547776 0.28084713 0.2054075 -0.048871618
-0.03809224 -0.26261452 0.10927857 0.027566493 -0.15620314 -0.024380593 0.065836 -0.1563799
0.31171337 -0.17300852 0.1218834 -0.07273808 -0.13973635 -0.16645181 -0.00912716 -0.10741585
0.11921592 -0.28376374 -0.18993941 -0.06785188 -0.31594744 -0.21267281 -0.19501127 0.29104128
-0.11493886 0.28953683 0.24490419 -0.14600185 0.31370795 -0.014291028 0.31523094 0.055035595
0.15342335 -0.08604904 0.026905583 -0.0074648093 0.2507548 0.032182395 -0.22202095 0.31009233
-0.20583832 0.1042551 -0.21415138 0.20883518 0.07175245 -0.17979877 -0.22142701 0.2900063
-0.21883824 0.0030965342 0.17920543 -0.1972521 -0.13160679 -0.26135847 -0.063370734 -0.08815467
0.20366687 -0.24837077 -0.22059579 0.011345337 -0.067128435 0.27053654 0.29024926 0.03534999
-0.006351487 0.3108133 -0.0860819 0.1566075 0.14930248 -0.21582001 0.13794121 0.1728601
-0.08261046 -0.006005135 0.2379126 -0.1610211 -0.23759957 -0.037252065 0.39650172 0.108441
-0.1412089 -0.029700318 0.049796935 -0.012799347 0.02807393 0.17793143 -0.053559918 -0.08504413
-0.15471293 -0.19199163 0.30957747 0.02795715 -0.06620208 -0.06983203 -0.082894236 0.26492518
-0.21356268 -0.03176977 0.057935666 -0.28819108 0.12624587 -0.26339206 0.34929684 0.27934828
0.03782828 -0.25022343 -0.044260215 -0.1376531 0.047550503 0.37261164 0.25285602 0.12625025
-0.21440345 0.18747477 0.2970701 -0.19014932 0.26934 -0.24879904 -0.25446224 0.001988837
00000000: bb6b 5fbe acf9 453d c71d 463d 9191 0f3e
00000010: 2edb bdbd e852 a73e 7074 aebd 8a17 88bd
00000020: d96c 0ebc 4479 eebd dd7a a83d 9fac b3bd
00000030: 39dc 88bd c0e8 7c3e 6b41 48be a9e8 813e
00000040: dc94 3b3e c520 4d3e cce2 edbc cc88 05be
00000050: 52e3 a03e c9fa 233e fe46 953e c0d4 49be
00000060: 40ca febd 7b54 a8be a036 5bbe 6d14 c43d
00000070: ef6e 80be a49a 393d 93a5 4abd f1a9 fb3d
00000080: ef64 243e 917b df3c f608 b3bd 17bc 333e
00000090: b0d4 5d3d aea7 85bd ae1a 82be e43e 3e3e
000000a0: d45c 94bd 68ed f0bd ac35 193e 2cca c23e
000000b0: bc87 5dbe 0a9e 403e 0fbc 32bd 401a cdbd
000000c0: 623b cb3e 2a40 753c 0b11 19be 3351 be3d
000000d0: 9f91 e5bd 422f 8cbe 7c87 25be 4d73 e23d
000000e0: 0cab 9bbe 29f5 02be 0eb4 7a3d a0d4 a8bc
000000f0: b23c 81bd 0d3f 90bd 8c47 5dbd d069 65be
00000100: 5bea 47be 8ae7 eabc 8528 bebb 598e 713e
00000110: d701 48bd 78e8 11be e7bd 903e d446 56be
00000120: 755b 793d 070a 0d3e 1d42 0cbd 0ccb 103e
00000130: ba30 9abe 8970 14be b9da f93b de8a c83e
00000140: cbde 853d 6827 283d 3bd5 94be 6696 c83c
00000150: fb89 5bbe 27d1 22be 9c78 15be 04b3 8ebd
00000160: e578 803e 6388 47be 7bb0 6b3e 6300 95bb
00000170: 4b97 26be c84e bc3d 0e8f 1bbe 741d c53d
00000180: 9eed ba3d 02d5 16be dc9f b73e 3ec3 05be
00000190: d074 f8bd 7c33 4fbb 6596 1bbe 30f5 2cbd
000001a0: ccd8 10be f44d 483e c617 7c3a 4e39 91be
000001b0: 1ca8 c33e 0feb 523e a7cd e83d f6ef 84bd
000001c0: 1a02 bbbd 3d06 a3bd ce8a 2bbd 1bfc 013e
000001d0: aae4 8f3d 28b4 14bd 7d5a 01be 2687 143e
000001e0: 3dc3 c93e 4809 fcbc 2b57 6fbc c39c 29be
000001f0: 08e1 07be 2710 63be 93a6 e6bd 1726 613e
00000200: 58d9 853e 3add 103e 31d4 bdbc d7c5 e8bd
00000210: f90b 0cbc 32cb 8f3e 5856 523e 9b2d 48bd
00000220: 9c06 1cbd 6975 86be 71cd df3d 20d3 e13c
00000230: b7f3 1fbe cfb9 c7bc 06d5 863d 0d22 20be
00000240: e598 9f3e 2529 31be 019e f93d b4f7 94bd
00000250: 0c17 0fbe 5872 2abe 158a 15bc d7fc dbbd
00000260: 7a27 f43d 7b49 91be 7a7f 42be edf5 8abd
00000270: ddc3 a1be e7c6 59be 09b1 47be 5d03 953e
00000280: 1165 ebbd 2c3e 943e 2ac8 7a3e 8281 15be
00000290: 549e a03e ea24 6abc f365 a13e 016d 613d
000002a0: 031b 1d3e 7b3a b0bd 1969 dc3c 5c9b f4bb
000002b0: ef62 803e b0d1 033d 7659 63be 6cc4 9e3e
000002c0: 48c7 52be b383 d53d 804a 5bbe e4d8 553e
000002d0: f3f2 923d 2b1d 38be c3bd 62be b57b 943e
000002e0: 2217 60be 39ef 4a3b a181 373e 74fc 49be
000002f0: eec3 06be c7d0 85be 84c8 81bd 708a b4bd
00000300: 0c8e 503e e854 7ebe dde3 61be cbe1 393c
00000310: a27a 89bd c483 8a3e 8d9b 943e 27cb 103d
00000320: 2220 d0bb ec22 9f3e b54b b0bd b75d 203e
00000330: c0e2 183e ecff 5cbe 7640 0d3e 3d02 313e
00000340: ac2f a9bd b9c6 c4bb 5c9f 733e b7e2 24be
00000350: 4d4d 73be 9f95 18bd 4602 cb3e 5116 de3d
00000360: 1199 10be 154e f3bc dff7 4b3d 5ab4 51bc
00000370: 4cfb e53c a833 363e a561 5bbd 9e2b aebd
00000380: 116d 1ebe 7499 44be f080 9e3e 6506 e53c
00000390: f594 87bd 1804 8fbd 74c4 a9bd 46a4 873e
000003a0: 2db0 5abe 0521 02bd f34d 6d3d c88d 93be
000003b0: 9946 013e 53db 86be 09d7 b23e bd06 8f3e
000003c0: d4f1 1a3d 491d 80be 334a 35bd eff4 0cbe
000003d0: 51c4 423d f4c6 be3e 5876 813e bf47 013e
000003e0: 948c 5bbe 63f9 3f3e 9219 983e 81b6 42be
000003f0: efe6 893e 2dc5 7ebe e048 82be 2657 023b

encoder.z_mu.weight f4 [1, 400]
-0.04206996 -0.012612248 0.17387919 0.11229014 -0.07177 0.19970892 -0.08004131 -0.05034038
0.015140218 -0.011602975 0.02679636 0.024813319 0.019586846 0.030324958 -0.01661062 0.008898626
0.11268408 0.09480646 -0.00021338156 0.03248987 0.25420666 0.075560294 0.26843613 0.008265859
-0.04876596 -0.16910811 -0.037000485 -0.028783701 0.003769954 -0.0039282786 0.00036212686 -0.05652032
0.070459284 -0.010833664 0.014978651 0.1899078 0.01893102 -0.00380215 -0.20134473 0.0065559456
-0.00024093315 -0.044326525 0.08115593 0.32453 0.020447563 0.20593958 -0.01159122 -0.07731198
0.2878598 -0.025303958 -0.10988866 -0.00032995633 -0.067162655 -0.22193038 -0.0039129476 0.13514544
-0.2645323 -0.057157457 -0.05447543 0.034694362 0.036705855 -0.047734942 0.033913743 -0.07389323
-0.0012846222 0.047976453 -0.006962454 0.13389972 -0.060972724 -0.005229961 0.154699 -0.010230266
0.15381883 0.10440315 0.02784666 0.103676416 -0.23513307 -0.051180158 -0.033572856 0.2084672
-0.032202706 -0.0029438466 -0.047906473 0.26945987 -0.07744503 -0.026027715 -0.061580293 0.0079997545
0.047649294 -0.012679882 0.10554131 -0.0266471 0.0010342727 0.10812359 0.009297551 0.038675908
0.03945848 -0.04951683 0.13700524 0.04221806 -0.06770529 0.020187408 -0.019622456 -0.03925119
-0.048456576 -0.017688993 -0.026623925 -0.08687692 0.22801934 0.06478896 0.0028939436 -0.04873628
0.0069332793 0.030369654 0.014562257 0.41464773 0.05952271 -0.01778438 0.020536931 0.04642618
0.22017461 0.011786394 -0.06740826 -0.001883462 -0.050118078 0.044848625 0.03138506 0.236571
0.08449888 -0.041940093 -0.044646792 -0.026609087 0.0014289374 0.1832552 0.16480194 -0.029504264
0.017847333 -0.10272314 0.13928176 0.041661534 -0.024894034 -0.07270512 0.0050809267 0.036806535
0.22463731 -0.07795618 0.060723733 -0.005653877 -0.02849831 -0.09220261 -0.00035517442 -0.039014585
-0.015073052 -0.08570446 -0.20531331 0.013124154 -0.10928044 -0.23566346 0.040976558 0.021858498
-0.0036158029 0.092383206 0.14795224 -0.0009671636 0.24035944 0.0026046622 0.0103740655 0.0025346861
0.09251816 -0.05171221 0.010681609 -0.027491622 0.18128097 0.061859544 -0.14756794 0.13625358
-0.13132735 -0.036416687 -0.06441388 0.03672262 -0.00023225503 0.040161703 -0.16707736 0.2543564
-0.15105793 -0.0067690457 0.04654986 -0.10018017 -0.037271142 -0.055073757 -0.033018425 -0.005235415
0.023542574 -0.1317993 0.0019482784 -0.021047497 0.034756977 0.02320516 0.31931388 -0.024405235
-0.033088826 0.06340623 -0.08303491 0.06660559 -0.015851239 -0.0033504292 0.04429456 0.030232294
-0.078447424 -0.06588121 0.15452935 -0.094939664 -0.09308948 -0.07096227 0.039715778 0.074270606
-0.08151039 -0.03822973 0.07247113 0.014459583 -0.062608264 0.18584137 -0.050224777 0.006777927
0.026745666 -0.053448446 0.16454716 -0.017035544 -0.0059531364 -0.0042058052 -0.019843914 0.026127517
-0.08117923 -0.03123976 -0.033525556 -0.17068192 -0.047102813 -0.10252793 0.081019804 0.060936466
0.03567866 -0.06704464 -0.0063153584 -0.10384009 0.046384677 0.20059773 0.09969233 0.13189444
-0.08555875 0.037652366 0.032722443 -0.06369796 0.31772736 -0.19399314 -0.117426075 -0.04886229
00000000: 8d51 2cbd 9aa3 4ebc 630d 323e 5ff8 e53d
00000010: 26fc 92bd 7f80 4c3e b3ec a3bd b731 4ebd
00000020: ad0e 783c 681a 3ebc 0a84 db3c 4d45 cb3c
00000030: 9874 a03c 0c6c f83c ff12 88bc 8bcb 113c
00000040: e9c6 e63d e429 c23d 2dbf 5fb9 1914 053d
00000050: 6027 823e 5bbf 9a3d 7670 893e 876d 073c
00000060: d1be 47bd ad2a 2dbe d28d 17bd cccb ebbc
00000070: 5511 773b cab8 80bb d8db bd39 da81 67bd
00000080: f54c 903d ae7f 31bc 0469 753c 3177 423e
00000090: 3a15 9b3c 7e2d 79bb 502d 4ebe 42d3 d63b
000000a0: 00a3 7cb9 bb8f 35bd 1535 a63d cc28 a63e
000000b0: a681 a73c d3e1 523e 1ae9 3dbc be55 9ebd
000000c0: 5c62 933e 3f4a cfbc 4e0d e1bd fdfd acb9
000000d0: 938c 89bd b841 63be 2f38 80bb 9163 0a3e
000000e0: c770 87be f01d 6abd a121 5fbd ad1b 0e3d
000000f0: e158 163d b785 43bd 23e9 0a3d 5555 97bd
00000100: c560 a8ba f582 443d 4c25 e4bb 021d 093e
00000110: 89be 79bd 1860 abbb 6a69 1e3e d89c 27bc
00000120: af82 1d3e 52d1 d53d ae1e e43c 4d54 d43d
00000130: b9c6 70be 49a2 51bd b183 09bd 6d78 553e
00000140: fce6 03bd 8ded 40bb 9439 44bd a5f6 893e
00000150: 809b 9ebd 1338 d5bc 9e3b 7cbd 6711 033c
00000160: e82b 433d 48bf 4fbc 0b26 d83d 054b dabc
00000170: 6f90 873a e76f dd3d c154 183c a16a 1e3d
00000180: 379f 213d 29d2 4abd 1a4b 0c3e d8ec 2c3d
00000190: 12a9 8abd 1060 a53c 46bf a0bc dbc5 20bd
000001a0: 677a 46bd 82e8 90bc 6b1a dabc 87ec b1bd
000001b0: e77d 693e 13b0 843d 51a8 3d3b b29f 47bd
000001c0: 9030 e33b c8c9 f83c 8896 6e3c b54c d43e
000001d0: 16ce 733d 8cb0 91bc 113d a83c 6129 3e3d
000001e0: 7475 613e b81b 413c 580d 8abd 7fde f6ba
000001f0: 9d48 4dbd 31b3 373d 9f8d 003d ab3f 723e
00000200: c00d ad3d 60c9 2bbd 8edf 36bd 4dfb d9bc
00000210: 2f4b bb3a 40a7 3b3e d7c1 283e edb2 f1bc
00000220: 9234 923c 8260 d2bd e19f 0e3e 49a5 2a3d
00000230: 93ee cbbc 6ce6 94bd e77d a63b 73c2 163d
00000240: 5307 663e 7da7 9fbd 73b9 783d 2844 b9bb
00000250: 4a75 e9bc b9d4 bcbd b436 bab9 c2cd 1fbd
00000260: f6f4 76bc d285 afbd a73d 52be b106 573c
00000270: 6cce dfbd c351 71be 09d7 273d 9810 b33c
00000280: 1bf7 6cbb 6833 bd3d cb80 173e 4089 7dba
00000290: c920 763e fbb2 2a3b fcf7 293c fa1c 263b
000002a0: 297a bd3d 2fd0 53bd ea01 2f3c 1c36 e1bc
000002b0: b8a1 393e 6f60 7d3d 0d1c 17be 0f86 0b3e
000002c0: ad7a 06be aa29 15bd 6deb 83bd 756a 163d
000002d0: 7c89 73b9 9980 243d 5416 2bbe 013b 823e
000002e0: eeae 1abe dfce ddbb 11ab 3e3d 432b cdbd
000002f0: a0a9 18bd 0595 61bd 543e 07bd d88d abbb
00000300: 5bdc c03c 65f6 06be 605d ff3a cd6b acbc
00000310: 555d 0e3d bf18 be3c 1c7d a33e 7ded c7bc
00000320: 2688 07bd 20db 813d 350e aabd 8368 883d
00000330: 75da 81bc e092 5bbb 366e 353d b7a9 f73c
00000340: 0ba9 a0bd baec 86bd f13c 1e3e ba6f c2bd
00000350: b3a5 bebd ab54 91bd 03ad 223d 301b 983d
00000360: ebee a6bd c796 1cbd be6b 943d e3e7 6c3c
00000370: c338 80bd 334d 3e3e 7fb8 4dbd 5f19 de3b
00000380: ba19 db3c c2ec 5abd 0d7f 283e 208e 8bbc
00000390: 8712 c3bb dad0 89bb b48f a2bc 6009 d63c
000003a0: 4c41 a6bd 86ea ffbc 1852 09bd 3ec7 2ebe
000003b0: e1ee 40bd 2afa d1bd b6ed a53d 8498 793d
000003c0: c923 123d b34e 89bd 11f1 cebb 1daa d4bd
000003d0: dcfd 3d3d 7e69 4d3e 7e2b cc3d 560f 073e
000003e0: 6d39 afbd 5e39 1a3d f807 063d 1374 82bd
000003f0: 29ad a23e 23a6 46be 157d f0bd d323 48bd

encoder.z_sigma.weight f4 [1, 400]
0.012730632 -0.033650182 0.10155283 -0.20496169 -0.08395107 -0.31362784 0.0024334302 -0.14796042
0.427407 0.017566416 -0.13271244 0.016108181 0.03007756 -0.190256 -0.019499095 -0.1370843
-0.093066566 0.14832708 0.017609626 0.018189747 -0.37175465 0.18294804 0.06666287 0.0017275211
-0.030646598 0.11042938 -0.27164763 -0.072609454 0.0051907157 -0.1505477 0.025645096 -0.08369571
0.08072372 0.0374245 0.04663839 0.08648518 -0.14334258 0.054190844 -0.081835136 -0.14636226
0.036049645 0.042612676 -0.156106 -0.40614226 0.016938735 -0.12282891 -0.11570983 0.02166175
-0.33720008 0.0570171 -0.12721775 -0.114936896 -0.12302959 -0.01817072 -0.0126332985 -0.034936033
0.09017268 -0.014191445 -0.023748918 0.02867565 -0.028096283 -0.012662614 0.03667638 -0.061486475
0.015047055 -0.03957246 0.00362085 -0.10534295 -0.012642831 -0.030568833 -0.26604882 -0.008694328
0.15247993 0.103721455 0.007817061 0.22455792 -0.15341197 -0.08267882 0.009808354 -0.2929203
-0.02310255 0.016401287 0.001680707 0.07779152 -0.046307717 0.03614641 0.08064138 -0.043681487
-0.029656658 0.007349603 -0.12884107 -0.050237767 0.01388468 -0.18191877 0.019436743 0.16351902
0.14013493 -0.09775548 -0.2697431 0.021497944 -0.01754492 0.054515455 0.5956 -0.010607861
-0.045407385 -0.20921168 0.02587094 0.004246861 -0.30353072 -0.4002627 -0.08150876 0.0038949393
-0.008405339 0.03388292 -0.027422622 -0.103135414 0.21804747 -0.02820921 -0.023251118 -0.10859557
-0.2304894 0.014758509 -0.042615242 -0.0063518547 0.0058984538 -0.025254482 0.009693075 0.051496476
-0.05720951 -0.10760765 -0.1432143 -0.02221517 -0.0758443 -0.31165475 -0.21778367 -0.05270099
0.030692715 0.0026957404 0.13923122 0.0045344606 -0.047220416 -0.12595461 -0.022676535 0.040250268
-0.1802856 -0.11692302 -0.058559652 0.02614044 0.023912232 -0.059269913 0.02396995 -0.13184805
-0.25822458 0.00057811436 0.17463316 -0.013127739 0.0040130857 0.04799332 0.029801581 -0.18653041
-0.04624241 -0.21133885 0.1865719 0.039634462 -0.31036937 0.056219917 -0.10424694 0.16957906
-0.11799378 -0.14843222 -0.015456394 0.028776288 -0.25446036 0.14150356 -0.31346786 -0.19112773
-0.21896255 -0.01303219 0.040982258 -0.16877544 -0.08775523 -0.02417397 -0.20993814 -0.09792774
-0.18582776 -0.0458726 -0.060689483 -0.019724244 0.029676551 -0.009889944 -0.034142278 -0.021018047
-0.07335052 -0.27657554 0.047503445 -0.07351659 0.012560908 -0.08849761 -0.26690322 0.06437244
-0.020673668 -0.11215107 -0.35235727 0.20866698 -0.24777204 -0.034281567 -0.06345416 -0.09733743
-0.019960696 -0.047248576 -0.12291724 0.03374021 -0.09712482 -0.15012643 -0.19214338 0.20812495
-0.02784435 0.026134862 0.18015239 0.051738787 0.021049403 -0.20644248 0.011513242 0.0045436714
-0.038393915 -0.06942021 -0.12061918 0.020281272 -0.013511747 0.027347106 0.49091128 -0.19246656
0.007332427 -0.081551716 -0.056071553 0.053587366 -0.012494567 0.039075352 -0.19703609 -0.17754771
0.08398352 0.021754703 -0.040096443 -0.33086362 0.20821603 -0.22932483 0.09283333 0.114405
0.037751127 -0.1513736 -0.16095224 0.025258392 -0.32579216 0.17400667 -0.06882318 -0.024219142
00000000: 2494 503c c6d4 09bd eefa cf3d 7ae1 51be
00000010: 8aee abbd d493 a0be 2f7a 1f3b f082 17be
00000020: 17d5 da3e 72e7 8f3c c5e5 07be 4ef5 833c
00000030: 3765 f63c 78d2 42be 91bc 9fbc d45f 0cbe
00000040: af99 bebd 0ee3 173e 1042 903c aa02 953c
00000050: a056 bebe bb56 3b3e 8b86 883d fd6d e23a
00000060: 930e fbbc cc28 e23d 6615 8bbe 44b4 94bd
00000070: e116 aa3b 2d29 1abe aa15 d23c a868 abbd
00000080: 7a52 a53d 6f4a 193d e507 3f3d 241f b13d
00000090: 66c8 12be 38f7 5d3d 2e99 a7bd fddf 15be
000000a0: cba8 133d a18a 2e3d 40da 1fbe e1f1 cfbe
000000b0: 1ac3 8a3c b98d fbbd 46f9 ecbd fb73 b13c
000000c0: 7da5 acbe c38a 693d 5f45 02be 0964 ebbd
000000d0: f0f6 fbbd c3da 94bc e5fb 4ebc 1619 0fbd
000000e0: 74ac b83d 3c83 68bc 178d c2bc 32e9 ea3c
000000f0: 2d2a e6bc da76 4fbc f939 163d 3ed9 7bbd
00000100: ec87 763c bb16 22bd c84b 6d3b 0bbe d7bd
00000110: e023 4fbc 7d6b fabc 8d37 88be a872 0ebc
00000120: b323 1c3e ea6b d43d 2113 003c 83f2 653e
00000130: 0718 1dbe 8353 a9bd 38b3 203c a6f9 95be
00000140: 8f41 bdbc fe5b 863c 2b4b dc3a 2951 9f3d
00000150: 29ad 3dbd 420e 143d 4f27 a53d 5ceb 32bd
00000160: 85f2 f2bc f0d4 f03b eaee 03be 1ec6 4dbd
00000170: 927c 633c ea48 3abe ce39 9f3c 8871 273e
00000180: 887f 0f3e 0634 c8bd c51b 8abe 751c b03c
00000190: 5dba 8fbc 994b 5f3d 3e79 183f 98cc 2dbc
000001a0: 18fd 39bd 963b 56be 4bef d33c 4129 8b3b
000001b0: 6168 9bbe 3cef ccbe 11ee a6bd 3d42 7f3b
000001c0: 8cb6 09bc d1c8 0a3d 68a5 e0bc a938 d3bd
000001d0: d647 5f3e 0017 e7bc 2179 bebc 5b67 debd
000001e0: 6a05 6cbe accd 713c 528d 2ebd 3823 d0bb
000001f0: d147 c13b 7de2 cebc b4cf 1e3c f8ed 523d
00000200: 8554 6abd 6661 dcbd c5a6 12be 97fc b5bc
00000210: 4254 9bbd 3691 9fbe af02 5fbe fedc 57bd
00000220: 4a6f fb3c 05ab 303b a192 0e3e d095 943b
00000230: 326a 41bd 3ffa 00be 24c4 b9bc 77dd 243d
00000240: ca9c 38be 5675 efbd 3fdc 6fbd 7a24 d63c
00000250: 96e3 c33c 02c5 72bd a15c c43c 2d03 07be
00000260: 0336 84be 998c 173a 09d3 323e ba15 57bc
00000270: 3480 833b a594 443d 7222 f43c d401 3fbe
00000280: ae68 3dbd 3669 58be b40c 3f3e bf57 223d
00000290: bce8 9ebe db46 663d 6b7f d5bd 22a6 2d3e
000002a0: b9a6 f1bd 9efe 17be d13c 7dbc 40bc eb3c
000002b0: a148 82be 4fe6 103e dc7e a0be fdb6 43be
000002c0: b837 60be f784 55bc 03dd 273d 78d3 2cbe
000002d0: 04b9 b3bd 7d08 c6bc 06fa 56be 578e c8bd
000002e0: a249 3ebe e8e4 3bbd 8995 78bd bd94 a1bc
000002f0: 3d1c f33c 6f09 22bc c6d8 0bbd 0a2e acbc
00000300: cc38 96bd 4f9b 8dbe f992 423d de8f 96bd
00000310: 44cc 4d3c 3c3e b5bd 8aa7 88be b3d5 833d
00000320: d35b a9bc 76af e5bd 2c68 b4be ccac 553e
00000330: f4b7 7dbe d46a 0cbd 41f4 81bd d958 c7bd
00000340: 9d84 a3bc b987 41bd 09bc fbbd 2d33 0a3d
00000350: 61e9 c6bd beba 19be 3cc1 44be b51e 553e
00000360: d619 e4bc c718 d63c de79 383e 0dec 533d
00000370: cc6f ac3c a865 53be 09a2 3c3c 14e3 943b
00000380: f042 1dbd 2f2c 8ebd 3007 f7bd e924 a63c
00000390: 6060 5dbc 0a07 e03c b958 fb3e f415 45be
000003a0: db44 f03b 9604 a7bd 49ab 65bd 6d7e 5b3d
000003b0: 03b6 4cbc 7a0d 203d d4c3 49be 11cf 35be
000003c0: 8dff ab3d eb36 b23c 2b3c 24bd f566 a9be
000003d0: 9536 553e 21d4 6abe 671f be3d 2b4d ea3d
000003e0: eda0 1a3d ae01 1bbe aad0 24be b0ea ce3c
000003f0: 3bce a6be ce2e 323e 2bf3 8cbd 3967 c6bc
