Weight_Files/VAE_trained_on_1D/vae_net_thrust.pth (torch_old, 84660 bytes, 23 tensors)

encoder.conv1.weight f4 [16, 1, 3]
00000000: 7817 993e 7584 82be 72bd 2cbd b49d 823e
00000010: 73fd 0fbf 7a73 a73e de62 0bbe 80b3 8f3e
00000020: 946a 4c3d 3dc2 edbd a01c 033e 5819 24bb
00000030: 2b03 833e a598 3abe 0c32 d8bd a5b9 40bd
00000040: d82a a03d aa7e fcbc 8030 fe3e e025 373e
00000050: ff6c 41be 7288 b2be e430 c6bd f202 7fbe
00000060: b1ad 3ebe 3ea8 ea3c e9d8 b03e 95e4 8f3e
00000070: 554c 17bf 58a1 a93e df94 a43d a0fa fc3e
00000080: d2f7 a03e ecaa 06bf f487 0cbf 3894 8ebe
00000090: 0c7c 023f a48f c1bd cba3 7d3e 041f 93be
000000a0: cecd 083f 4633 7cbe 14e4 d33e 7c6c d1bb
000000b0: 63a3 9ebe 4972 993e 8faf 99be 1642 2a3e
0.29900718 -0.25491682 -0.042172857 0.25510943 -0.5624611 0.3270529 -0.13611934 0.28066635
0.04990633 -0.11609314 0.12803888 -0.002503952 0.25588354 -0.18222292 -0.10556421 -0.047052044
0.07820672 -0.030822117 0.49646378 0.17885542 -0.18889235 -0.34869725 -0.09677294 -0.24903467
-0.18620946 0.028644677 0.3454049 0.28104082 -0.5910085 0.33130908 0.080362074 0.49409962
0.31439072 -0.52604556 -0.5489495 -0.27847457 0.5097053 -0.094512254 0.24769513 -0.287346
0.53439033 -0.24628934 0.41384947 -0.006391106 -0.3098403 0.29970005 -0.30016753 0.16626772

encoder.conv1.bias f4 [16]
00000000: 324a a2be 2dcf 47be 741e 35bf 5636 d9be
00000010: 885a c13e 337c 8bbe 7cba e63e c4f3 ec3e
00000020: 2b11 23be 084f e1be f16f d53e 347c 373e
00000030: 14c8 01bf bca5 033f bbbb 683e 8e97 c93e
-0.31697232 -0.19512625 -0.7074959 -0.42424268 0.37764382 -0.27243194 0.4506415 0.46279728
-0.15924518 -0.4400561 0.41686967 0.17918473 -0.5069592 0.51424766 0.22727863 0.3937344

encoder.conv2.weight f4 [8, 16, 3]
00000000: 89e5 063b 284c 253e 1488 7b3c 20aa f53c
00000010: ed2d e7bd 509e e0bd a39a b83d 7353 89bc
00000020: 24af b83d 14d3 023c 8cc9 8a3d ad2d 4d3d
00000030: 593d 333d 11c2 6f3e 3d13 42be 7fa6 933d
00000040: d87c aebd 1ae2 d6bd fffd 273c 9ccf d8bc
00000050: 2e23 af3d c631 abbd 9c64 03be 8221 d73d
00000060: f7b5 c9bc 7653 af3d 5707 4d3d bbd0 39bd
00000070: f42d 8b3d 8fc0 8a3d 3645 bfbd 030c 83bd
00000080: ddff 5e3d 00cc d33c ae7b 7bbd b8f7 32bd
00000090: 6c3c 0e3e 4e08 a5bc 6138 b83d fec3 ce3c
000000a0: 3571 c4bd c7ea 02be dd74 0a3e 6690 e1bb
000000b0: e063 bf3d d737 bf3c 5068 113d 0205 b83d
000000c0: d86a 4f3e 14c8 963b b19e 13bd 5c8e cf3d
000000d0: d974 e83d c48c cd3d 35a3 b6bd 65cc b6bd
000000e0: 89c6 8fbd ef51 113d d646 213e 2991 c2bd
000000f0: bbb1 0c3d 87a6 5bbd 7c4f 61be 72f8 72bc
00000100: b211 c33d 966d 0a3e 9d72 dabd 9070 f73c
00000110: 30d7 f83d f2e1 c33d 103a b83d bc10 d23d
00000120: f000 c13d 4c99 213d 577e b3bd c77f abbd
00000130: 1d12 de3a b870 1e3d 3256 b2bd df25 6a3d
00000140: c52c 553d bcde 05bd 8c39 633d a811 3f3d
00000150: 5d0c ab3d 1616 d43d 1039 1cbd ceea 1c3e
00000160: 7e32 e0bc 5f22 d5bd dd95 03be 58b5 c8bd
00000170: b1c1 16be 30e9 a8bd 92b6 c13d e18c 43bd
00000180: 870d ac3d 76d6 a23d bd04 f8bc e3cc ae3d
00000190: fc14 cfbc 0d5b 05bd ff68 06bd 7309 41bc
000001a0: dc30 debd 522e 71bd bbe8 2f3d f559 303e
000001b0: 45c0 533e dbef 39bc 0e2e 8c3d 2d8b 0b3e
000001c0: f75b de3d 27e9 be39 ed11 c3bd ab43 fa3d
000001d0: 3510 96bd 702f 3fbc 76a9 febd 788f e9bc
000001e0: 3475 b3bd c497 f33d bf1d bbbd c957 c2bd
000001f0: 133c be3d 4e24 30be 1b10 7f3d 221c 40bd
00000200: baa3 9cbd 30f0 053c 94fc d53d 35ef cfbd
00000210: d123 a03d 648a d43d 096a 013e b71e 10be
00000220: 71fe f93c e92f 22be 813f f23d 7cc3 3cbd
00000230: 5da1 fb3b e435 41bb fd79 79bd f37c 1ebc
00000240: c460 513e aae8 c53d aee3 4f3b 57a1 e03c
00000250: a698 19be ac5b d73d faa0 193e b397 143e
00000260: ac72 b23d 6829 9bbd 0b93 bd3c 37a4 dc3d
00000270: 1e42 923d 417c ab3d 0db4 01be 2b29 b6bd
00000280: 515d b23d 6e7a fdbd 4819 f4bc bf4e e83d
00000290: 7d76 c23d c6c8 0b3e acee efbc c9c2 e5bd
000002a0: d98f 1c3e 54f9 4dbd 423e 73bd ac0b 253d
000002b0: c497 f6bd 524b c23d 7bc6 cd3d 8f26 debd
000002c0: 1d43 0dbe 8026 4fbc 6452 783d 20fb 88bb
000002d0: 6fae 7dbd 2a87 513c 1af9 1ebe 7d06 9dbd
000002e0: a7a1 b0bd 87f7 cb3d 5439 e73d b583 20bd
000002f0: 2911 54bc b3f5 633d b382 47be fff9 bcbd
00000300: 6d8d c03d 093c e13d 2e02 0a3d 7ef2 95bd
00000310: e49c 1b3e 1df2 003e d2e6 b7bd 2294 303e
00000320: 9b12 883d e3d3 c4bd a504 e53d b13e e2bd
00000330: 24c8 df3d 62cb b9bd 6078 313c 028b ed3c
00000340: 938a 7c3d 7da3 063e 53fa b5bd c37e 03be
00000350: af08 e1bd 801a c2bb 8b08 8cbd 8083 bd3b
00000360: 68f2 94bd 0693 8c3d c3e2 0f3e 9b1f b33c
00000370: d8a8 9f3c f919 12bd cd49 21be 2bda 0d3e
00000380: b9bb 01bc 18ad ee3c 80f4 ae3b d760 bcbd
00000390: 2056 4f3d 9edd c43d 8ba7 f13c 0613 96bd
000003a0: 15da f8bc 12ed bd3c 1855 e3bd 6deb dabd
000003b0: 79c0 4cbc 65a9 c9bd c256 023d c402 07bd
000003c0: 90be 9cbc 16a7 61bd f311 07be dee6 003e
000003d0: 6095 e13c fa2a 043e 1c8f bebc ec93 14bd
000003e0: 02f3 0abe a86d 60bd 30d9 c13d 81c3 10be
000003f0: 9ec8 4ebd 5c19 b43d 9e5e aa3d e04c 5a3d
0.002058359 0.16142333 0.015352268 0.029988348 -0.112880565 -0.10967696 0.090138696 -0.016763425
0.090177804 0.007984895 0.06776723 0.050092388 0.043759678 0.23413874 -0.18952651 0.07209491
-0.08519906 -0.10492344 0.0102534285 -0.026466183 0.08551632 -0.08359103 -0.12831348 0.10504438
-0.0246229 0.08560841 0.050055828 -0.045365077 0.06795874 0.06775009 -0.09339373 -0.063987754
0.05444323 0.02585411 -0.061397247 -0.043693274 0.13890237 -0.020145562 0.089951284 0.02523994
-0.09591905 -0.12784873 0.13521142 -0.0068836687 0.093452215 0.023342056 0.03549987 0.0898533
0.20255601 0.004601488 -0.03604001 0.10134575 0.11350412 0.100366145 -0.08917848 -0.08925704
-0.070202895 0.03547853 0.15749678 -0.09500343 0.034349184 -0.05362561 -0.22002977 -0.014829742
0.095248595 0.13518366 -0.10666392 0.030205041 0.12150419 0.0956458 0.089954495 0.10257098
0.09424007 0.039452836 -0.08764332 -0.08373981 0.0016942654 0.038681716 -0.08707847 0.057165023
0.05204465 -0.03268312 0.055474803 0.046647698 0.083519675 0.10355775 -0.038140357 0.15323946
-0.027367827 -0.104069464 -0.12850137 -0.098002136 -0.14722325 -0.08247602 0.09458651 -0.047741774
0.08401018 0.079510614 -0.030275697 0.08535173 -0.02527856 -0.032557536 -0.032814976 -0.011782038
-0.10849163 -0.058882065 0.04294656 0.17221816 0.20678814 -0.01134869 0.06844722 0.1362731
0.10857385 0.00036413336 -0.095249034 0.12219938 -0.0732731 -0.011669025 -0.12434666 -0.028510794
-0.08762589 0.11894181 -0.09136533 -0.094894 0.09288802 -0.17201349 0.06227122 -0.04690183
-0.07648416 0.008174941 0.10448566 -0.10153047 0.078193314 0.103779584 0.12638105 -0.14074217
0.030516835 -0.15838589 0.11828519 -0.046084866 0.007679148 -0.0029481584 -0.060907353 -0.009673345
0.2044707 0.09663518 0.00317214 0.027420683 -0.14999637 0.10515532 0.15002814 0.14510994
0.08713278 -0.07576257 0.023141405 0.10773509 0.07141517 0.08373309 -0.1266634 -0.08894571
0.08709205 -0.12376867 -0.029797211 0.113431446 0.09495256 0.13650808 -0.029288612 -0.11218793
0.15289249 -0.050286606 -0.059385546 0.040294334 -0.12040666 0.094870225 0.10047623 -0.10847198
-0.13795133 -0.012643456 0.06062545 -0.004180327 -0.06193393 0.012788573 -0.15524712 -0.07667253
-0.08624583 0.099593215 0.11290231 -0.039188106 -0.012943544 0.05565424 -0.19483452 -0.092273705
0.09401975 0.10997779 0.033693485 -0.07321642 0.15196568 0.12592359 -0.08979572 0.17244008
0.06644174 -0.09610727 0.111825265 -0.11047114 0.10926846 -0.09071995 0.010831922 0.028996948
0.061655592 0.13148303 -0.08885636 -0.12841325 -0.109879844 -0.005923569 -0.06837567 0.0057834983
-0.07272798 0.0686398 0.14051346 0.021865657 0.01948969 -0.0356693 -0.15750809 0.13852756
-0.007918292 0.029135272 0.0053392053 -0.09198158 0.050619245 0.096125826 0.029498836 -0.07327847
-0.030377427 0.023184333 -0.11100215 -0.10689435 -0.012497061 -0.098467626 0.03182102 -0.032961622
-0.019133836 -0.055090986 -0.13190441 0.12588069 0.027537048 0.1290702 -0.0232616 -0.03627388
-0.13569263 -0.054792076 0.09465253 -0.14137079 -0.050484292 0.087938994 0.08318828 0.05329597

encoder.conv2.bias f4 [8]
00000000: 1ce4 5bbe 4aa8 84be cb09 67bd 9d66 7bbd
00000010: 5eed 5b3b 8027 77bc dc1b 803e bc74 c83d
-0.21473736 -0.25909644 -0.056405824 -0.061377157 0.003355823 -0.015085101 0.25021255 0.0978789

encoder.conv3.weight f4 [16, 8, 3]
00000000: f9fd a3bd c016 debd 698d e73d d8f5 bdbd
00000010: ccb3 123e 26bb 0bbe f2fe 2b3e 6e8f b13d
00000020: 679e bb3c 926d a33d 960c 15be c80b 333c
00000030: c9db c63b 6b82 6abd 8dad 1fbd d448 b4bd
00000040: e434 473e 9692 313e ddc0 473e 3575 433e
00000050: cb2a 01be dc8d 763d 9ce7 8d3d b26b 1abe
00000060: 0568 663d a5f8 ccbd 8508 7c3d c6e5 8a3d
00000070: 9d72 5a3e 95d7 91bd 504e 83be 9ca9 3f3e
00000080: c20d c33d d62a ea3d 4407 9b3d 7cd5 a1bd
00000090: 8675 643e 4c24 08be 72fe 333d 38f9 bc3d
000000a0: 5ed0 0e3e 96c2 d0bd 34de 02be 51d7 b23d
000000b0: c0c3 0dbe d11c 23be 0893 30be 472c cbbd
000000c0: 608e 2fbd 7190 f7bd cac2 b0bd 9600 47be
000000d0: 8879 003e 1468 3fbd ad6b 05be e89f 523d
000000e0: cc49 1cbe 6c50 123e 3c0b eb3d d268 4dbe
000000f0: 6712 24be 30d3 09be 2d4d e2bd c8ca d03c
00000100: a6b1 4ebe 7cf6 1abe 5cea be3d 3f4c 6ebd
00000110: 9859 a6bd c1eb 2cbe 6070 a93d a02a 6c3c
00000120: fdcf 84bd 1f07 f8bd 6d33 633d c08f 8e3d
00000130: 5452 d43d e478 733d f835 08bd 428e 48be
00000140: 7edb 093e 8058 e5ba 766b 07be c7c2 0a3e
00000150: e841 0b3e 8cf4 34be 796e e9bd 5243 8ebd
00000160: c454 f1bd dc38 c33d cf9d a7bd fc02 4b3e
00000170: e54c 89bd 6ee0 073e a347 4f3c 4b84 b5bd
00000180: 09b3 343e f446 09be 7012 94be 18ee b23d
00000190: 1613 3e3e 89e6 9cbe 168e 9dbd 76bf 95bd
000001a0: 4c2c 82bd c86f 91bd f1bc 22bc 2152 aabd
000001b0: 2268 483d 8d43 66bd 4129 59be 3ebb eebd
000001c0: 580b 313d 001a 3fbb 77ca 1d3e 5682 12bd
000001d0: 2a8e cfbd e757 17be 5995 53bd e02c 39bd
000001e0: 8791 c23c 99f7 46bd f522 9d3d f72f 9cbd
000001f0: 1044 153e a0da 3a3d b037 4fbd d9db 3f3e
00000200: df68 593d c2a4 febd 76e8 e4bd 207b f93d
00000210: 1c4f c53d 93c1 263e 7508 c3ba f031 123e
00000220: f4d7 cf3d a848 813d af45 40bd c4c6 443e
00000230: 710e e03c 683e 1fbd fb73 643c 5bf1 543e
00000240: 4051 0a3e 8ba3 9bbc ea9b 513e 39a1 923d
00000250: 98a0 fabd 12cb 37be 8257 093e df3d 1d3e
00000260: 6bee e9bd b7ee c63d d295 573c ed3b 40bd
00000270: 7fa5 acbd ebde bc3d 1e01 4f3d 122d 0d3e
00000280: 3409 993d 283c be3d dd7d 253e 5e66 7f3d
00000290: 73d7 ad3c f80e 8bbd 4fc8 203e e159 203d
000002a0: 974b 0e3e 5f5e 333e 4ec2 86bc 5995 d43d
000002b0: d75e 48bd 1bbc 623e 0f51 373e 81e3 a7bd
000002c0: 7fb0 8d3c 0258 99bd 597a a5bd 17ef 0fbd
000002d0: bca5 adb8 461d 33bd 3ace a5bd 89d8 fcbd
000002e0: 18e5 8ebc fa73 85bd 99ba 113e 7376 373e
000002f0: bf01 e73d 41fd b53d 6eb1 28be 9cf8 443e
00000300: 7c31 38be 806f 89bd 1c1d 13be 5854 963d
00000310: 70ee 2dbe 3018 cebd 1ec6 04be ca7b 00be
00000320: da26 c3bd 3c79 4d3e b894 88bc 60dd 7e3d
00000330: 727e 4fbe 7ad8 393e 7c10 36bd 66d4 3fbe
00000340: de0c 103e 0413 62bd 12d2 3d3e a8f9 0dbe
00000350: 5b10 42be 8707 1dbe ac16 b53d c087 bbbc
00000360: f56d 4ebe bbbb cf3c 07ed d0bc d7e1 7a3d
00000370: cb32 eebd 83f6 21be 34ee 043e c7bf e2bd
00000380: c33f 063e 287a 293e 3f2d 12be 75bc c0bd
00000390: 8912 ac3c 5f55 48be 9c62 803d 1a2f aebd
000003a0: 375a b9bd be96 21be a9fb a93d 1bb0 0ebe
000003b0: 4949 2dbe 34df 5bbd 26ba e8bd 3c36 4bbe
000003c0: 7bd5 b13d 2071 9abd 0343 1f3e ab50 113e
000003d0: d11a 0bbe 406a 00be 4c92 78bd 1031 f93d
000003e0: 6054 45bb 7fd3 6fbd c459 053e be32 483e
000003f0: ccd6 183e 07f5 2fbe 095a 93bd 6c5f 20bd
-0.08007426 -0.10844183 0.11306269 -0.092754066 0.143264 -0.1364561 0.16796473 0.08669935
0.02290268 0.07979883 -0.14555582 0.010928102 0.006068681 -0.057253283 -0.03898387 -0.08802953
0.1945377 0.17341074 0.19507165 0.1908768 -0.1261398 0.06019388 0.069289416 -0.15080145
0.056251545 -0.10008363 0.061531562 0.06782107 0.21332784 -0.07121197 -0.25645685 0.18717045
0.095241085 0.114339516 0.07569745 -0.07902047 0.22310457 -0.13295096 0.04394383 0.09227222
0.13946673 -0.10193364 -0.12780076 0.087324746 -0.13844204 -0.15928961 -0.17243588 -0.099205546
-0.04286039 -0.12088097 -0.08630903 -0.19433817 0.1254636 -0.046730116 -0.13029356 0.05142203
-0.15262526 0.14288491 0.11476752 -0.20059517 -0.16022645 -0.13459468 -0.11049876 0.025487319
-0.20184955 -0.15133089 0.09322044 -0.058178183 -0.081225574 -0.16886808 0.08273387 0.0144144595
-0.06484983 -0.12110733 0.055468965 0.06961012 0.10367265 0.059441462 -0.033254594 -0.19585517
0.13462636 -0.0017497689 -0.13224587 0.13550864 0.1359936 -0.17671412 -0.11398024 -0.06946434
-0.11783746 0.095323294 -0.081843965 0.19825357 -0.067041196 0.13269207 0.012651357 -0.088631235
0.17646421 -0.13405973 -0.28920317 0.08736819 0.18561968 -0.30644634 -0.07693116 -0.07311909
-0.06356105 -0.07101399 -0.009932742 -0.08316446 0.048927434 -0.056216765 -0.21207143 -0.11656807
0.04322371 -0.0029159784 0.15409265 -0.03576883 -0.101345375 -0.14779626 -0.0516561 -0.04520881
0.023751033 -0.04857597 0.07672683 -0.07626336 0.14576745 0.045618653 -0.050590217 0.18736209
0.05307853 -0.12433769 -0.11177151 0.12181687 0.096342295 0.1628478 -0.001487984 0.14276862
0.10148612 0.06312686 -0.046941455 0.19216448 0.027350636 -0.038877875 0.0139436675 0.20795195
0.13507557 -0.018998882 0.20469633 0.07159657 -0.12237662 -0.17948559 0.13412288 0.15355633
-0.11422428 0.097135 0.013158279 -0.04693215 -0.084300034 0.09222206 0.050538175 0.13786724
0.074724585 0.09288818 0.16161294 0.062353484 0.021220898 -0.067899644 0.15701412 0.039148215
0.13896023 0.17516468 -0.016450074 0.10380048 -0.04891857 0.22142069 0.17902015 -0.0819769
0.017296074 -0.07487489 -0.080799766 -0.035140123 -8.280153e-05 -0.04372909 -0.08095975 -0.12345988
-0.017443225 -0.065162614 0.14231338 0.17916279 0.1127963 0.08886195 -0.16473934 0.19235462
-0.17987627 -0.0671072 -0.14366573 0.07340306 -0.16985488 -0.10063207 -0.129662 -0.12547222
-0.09528895 0.20065778 -0.016672477 0.06222284 -0.20263079 0.18148986 -0.044449314 -0.18733367
0.14067408 -0.055193916 0.18537167 -0.13864768 -0.18951552 -0.15334903 0.08842215 -0.02289188
-0.20159133 0.025358072 -0.025503648 0.061250534 -0.11630782 -0.15816693 0.12981492 -0.11071735
0.1311026 0.16550505 -0.14275073 -0.09410945 0.021004932 -0.19563816 0.06268808 -0.08505078
-0.0905041 -0.1578016 0.082999535 -0.13934366 -0.16922487 -0.05367966 -0.1136363 -0.19844908
0.08683296 -0.07541108 0.15552907 0.14190929 -0.13584448 -0.12540531 -0.060686395 0.12167561
-0.0030110106 -0.058551308 0.13022524 0.19550607 0.14925689 -0.17183314 -0.07194907 -0.0391535

encoder.conv3.bias f4 [16]
00000000: fe4d 993e 1c52 903d 81a3 3bbe 1d91 f4bd
00000010: f67d 3e3e 21e8 97be a761 99be 5c99 5fbc
00000020: e878 2bbd 5d05 f33d 4695 a9be 93b5 30be
00000030: 8729 8ebe b1e1 09be 24ed 0ebe 7ff2 89bd
0.29942316 0.07046911 -0.1832409 -0.11941741 0.18602738 -0.29669288 -0.29957315 -0.013647404
-0.041863352 0.11866257 -0.331217 -0.17256765 -0.27766058 -0.13465 -0.1395765 -0.067357056

encoder.conv4.weight f4 [4, 16, 3]
00000000: b29d 27be 2d31 1bbe 60c1 1fbe 9361 e9bd
00000010: 9c24 c83d f6c0 01bd b43b a4bd 714b d33d
00000020: a5f0 f5bc d750 6aba d752 d4bd fa50 f7bd
00000030: 767e adbc 659f 4e3d 4f7e 32be 4769 f53c
00000040: c9de b73d 0a7a 823e b00f 753c fabc b1bc
00000050: 3fb8 e1bd 32c1 ef3c 5092 c0bd c666 06be
00000060: 02cf 3dbd 6c5b cabd 7c34 353d 068f d23d
00000070: e4bb e53d af38 b7bd 4250 f43d fbf3 053e
00000080: 7f9a b43b aac5 933d ec6b ca3d 763a f73d
00000090: 196e ae3d e609 983d b66b 943c f949 33bd
000000a0: ae2b 8cbd b037 f33d 0357 c63c b78c 673c
000000b0: 6fd6 09be 7655 ccbb eede 43bd e5f9 3ebd
000000c0: 8da4 29bd 6b6b 7ebe e3d7 33bd e831 623b
000000d0: d3b3 09be 97f9 d93d 621d 3cbd 98cc 843d
000000e0: 2b25 ad3d b6ef 113e 287a 5b3d 48a5 053e
000000f0: 88ef 603e 44fb b4bd db54 aabd 05f6 a9bc
00000100: fd01 423d 1fd5 a13d 6a69 d1bd 2b88 0d3e
00000110: b637 6c3d c8a2 ffbd d1bc 743d d55c d53d
00000120: 9ce8 5c3d 084b f13d 808e 433b 6b3c f5bd
00000130: 6965 4abc 9437 be3d 919b d3ba 5bc1 cd3d
00000140: a129 8e3d add9 93bc b87a ed3b 7af1 923d
00000150: 2852 a8bd 4b58 dd3d 00f7 f43d a72d dc3d
00000160: 3fbc 303e 0343 f53c 2375 8ebd 4bc9 2f3d
00000170: 081e 4c3d 3462 6c3d 18b3 073e 974e 8ebd
00000180: 800e c63b dcc1 0f3e e6d8 f4bd 800a ccbc
00000190: 2e86 0f3e ebfe cf3d 9097 2b3d f4fc 7ebd
000001a0: 4072 5cbc 9289 04be 8e26 0bbe 82cf 09be
000001b0: 9af5 0d3e 34cd e93d c083 6a3d ec7e 14bd
000001c0: befa ff3d d9e6 18bd 6637 cd3d 20ef 99bb
000001d0: 0426 87bd fc00 25bd ffec f6bc ca87 06be
000001e0: 54cb 303d 0421 34bd a0cf 873d e078 bc3d
000001f0: d4fd bbbc 965c 8f3d b83d ec3c a084 c63d
00000200: 0790 bdbd 009f 4fbc 6f6f 41bd 9456 023e
00000210: 68aa 04be f4b4 a4bd 1fc8 8b3c 7635 033e
00000220: 0652 c93d 7e4e 0abe 0ed4 cfbd a64f 103e
00000230: e051 ac3c ab2f fdbd 8155 37bd 33e6 823d
00000240: 5c40 f7bc b70f e3bd 0e04 bdbd 0022 99bd
00000250: e3cc 87bb 0f56 5e3d 76ed 8d3d 039a 8fbd
00000260: 8864 c6bc 2e3b e4bd c180 e23d c8ff 103e
00000270: c8a8 0f3e e6f5 7c3d cbe4 fcbc 59a1 05bb
00000280: b3e7 4c3d 80bb 02be f0cc 123c 6722 ecbd
00000290: b574 12be fd05 59bb 59bf 44bd 937f bfbd
000002a0: 8003 c43c c0aa c03b d86f b43c 1072 a5bd
000002b0: 21c5 10be 8005 4f3b 762f 71bd abae 40bd
000002c0: f443 d53d 1951 d03c 789a 8a3d 59af 2bbd
000002d0: d03b e7bd 2620 dc3c 77a7 c7bd 639c 993c
000002e0: 8a93 edbd 8d05 e03d 683c c6bd 899b fc3d
000002f0: 117b d33d c894 e23d 6624 ad3d 81b0 003d
-0.1636875 -0.15155478 -0.1560111 -0.11395564 0.09772608 -0.031678163 -0.080192 0.10317124
-0.030021975 -0.00089384377 -0.10367363 -0.12075992 -0.021178465 0.05044498 -0.17430995 0.029957427
0.0897804 0.25483733 0.0149573535 -0.021696556 -0.1102147 0.029266927 -0.09402907 -0.13125142
-0.046339996 -0.098807186 0.044239506 0.10281186 0.11217478 -0.089463584 0.119293705 0.13081352
0.0055115814 0.07215436 0.09883866 0.120716974 0.08517093 0.07423763 0.018117767 -0.043771718
-0.06844269 0.11875856 0.024211412 0.01413267 -0.13460706 -0.0062357737 -0.047820024 -0.046625037
-0.041416693 -0.24845664 -0.043907057 0.003451461 -0.13447504 0.106433086 -0.04592646 0.06484336
0.08454355 0.14251599 0.053583294 0.13051331 0.21966374 -0.088369876 -0.08316966 -0.020747194
0.047365177 0.07901978 -0.10225184 0.13821475 0.057670318 -0.1248222 0.05975038 0.10418097
0.05393277 0.11781889 0.0029839575 -0.119744144 -0.01235328 0.092879444 -0.0016144385 0.10046645
0.06941534 -0.018048132 0.007247295 0.07174964 -0.08218795 0.10807856 0.11961174 0.10750895
0.1725931 0.02993918 -0.06955936 0.042916577 0.049833328 0.05771084 0.13251913 -0.069485836
0.006044209 0.14038795 -0.119554326 -0.02490735 0.14016029 0.101560436 0.04189259 -0.062252954
-0.013454974 -0.12943104 -0.13588926 -0.13458064 0.13863221 0.114160925 0.057254553 -0.036253855
0.12498997 -0.03732953 0.10020332 -0.0046976954 -0.06599048 -0.040284142 -0.030142305 -0.13137737
0.04316266 -0.0439768 0.06631398 0.092027426 -0.022948183 0.07000081 0.028838024 0.09693265
-0.09255987 -0.012672186 -0.047225412 0.1272834 -0.1295563 -0.080423266 0.017063199 0.12813362
0.09830098 -0.13506505 -0.10147868 0.14092883 0.021035135 -0.123626076 -0.044759277 0.06391563
-0.030182056 -0.11086982 -0.09229289 -0.07477188 -0.0041442974 0.05428129 0.06930058 -0.07011797
-0.024217859 -0.111441 0.11059714 0.14160073 0.14029229 0.061757945 -0.030870816 -0.002039036
0.050025653 -0.12766838 0.008959994 -0.11529999 -0.14302333 -0.0033115142 -0.048034046 -0.09350505
0.02392745 0.00587973 0.022025988 -0.08078396 -0.14137699 0.0031588972 -0.058883153 -0.047041576
0.10413352 0.025429295 0.06767744 -0.04191527 -0.11290705 0.026870798 -0.09748738 0.018751329
-0.116004065 0.10938559 -0.0967949 0.123343535 0.103262074 0.11063534 0.08454208 0.031418327

encoder.conv4.bias f4 [4]
00000000: 33ad 12be 98d9 f0bd f600 67bd 1cd9 09be
-0.14323883 -0.11760253 -0.0563974 -0.13461727

encoder.fc1.weight f4 [400, 20]
00000000: 0eb4 503e 90d1 3d3c 9061 d73d b076 063c
00000010: e099 833d d813 0dbe fcfe 31be f29f 2e3e
00000020: 28a9 ad3d fc1d e23d d144 63be d0af 773c
00000030: 6493 55be c89f d1bc 20ac 41bc 5c16 21be
00000040: 35bc 62be 00e6 c03a 62ea 4d3e 405b 4e3e
00000050: 6467 0bbe d480 2abd 3b7a 3fbe da9f 07be
00000060: 676c 1dbd 171d 4c3e 0f06 abbd 8822 ccbb
00000070: 6c57 883e 7240 153d 1596 3d3e 9a26 183e
00000080: f8b5 563e 1011 1d3d ad2a 39be 9a75 41be
00000090: 0f9d e8bd 38fd 3c3e c6aa 033e b807 863d
000000a0: b05e 2ebe d4a3 28be cace 3a3e 7825 bebc
000000b0: 5670 65be 54e9 e6bc 4f0a 63bd 76ea ba3a
000000c0: db27 b53d 3c36 b03d 9e34 2fbe c09d 20bb
000000d0: 22f2 e2bd 52e2 1a3e 70c4 e23d e749 fc3d
000000e0: 65e3 513e d0f1 e03d accf 64be 781b 673d
000000f0: 421e 1dbe 509e f43c 00a3 1c3b c219 633e
00000100: 9470 1cbe d756 60be 2c88 75bd 5097 133d
00000110: aabb 273e e8a6 393e cc57 303e bc8f 903d
00000120: 4adf 82bd c0a8 41bd 4a70 fabd 801a 333d
00000130: c53c 1fbe e871 9d3d 98df 133e 9e4c 423e
00000140: bcb0 61be debe 393e e2d6 0fbe 9e7d 393d
00000150: b39a 873e a46b 0a3e 184a 89bd 07d6 123e
00000160: 5e02 0bbe ac89 2f3e 3fb1 633e 805e 26bc
00000170: a8bc 163d fce9 56bd c6f3 10be c3ae cabd
00000180: 851f 8ebc 8f53 3bbe 3c0f 39be 9008 c93c
00000190: b6fc 14be 2a19 f9bd 8075 fdba 70f2 17be
000001a0: b6e8 213d f6f9 00be a7d4 76be c717 07be
000001b0: 12b1 53be 38ea eb3d 9ebb 443e 320d 04be
000001c0: 2c3d aabd 86b1 553e 53a3 25be 6800 723d
000001d0: e9e3 3dbe f5cb 4bbe 0064 b139 08af 02be
000001e0: 7404 f83d b7f9 91bd c062 103b 42fd 44bd
000001f0: a05b 763e 9afc 553e 83f7 4cbd 9c63 13be
00000200: 724c 31be b06a 5b3e 3112 b13d 2c20 bd3d
00000210: 50ef 1b3d 70ca e53d 1c9f a23d 54c9 e33d
00000220: 91ae 0c3e b0df 013d 3639 453e 5861 0e3e
00000230: 404c e0bb 9264 d0bd 50dc 723c 0ccd 713e
00000240: 61c4 4c3e 2cf7 55bd 7c46 b0bc 85b9 f83d
00000250: b95e 323e c88c 563e e83d e93d 38e5 913d
00000260: 18ae 533d 5830 57be 34b7 a8bd 2202 fd3c
00000270: c649 1fbe 7a9e 48be e081 1a3e 18c0 9b3d
00000280: 10c6 38be d070 593c fed8 063e e2e7 033e
00000290: b619 513e d212 b5bd 24e9 cb3d 38bd 39be
000002a0: 38f3 e1bc 44a0 11be 8866 2ebd cc59 023e
000002b0: 404c e43d ffe2 f0bd d81c 63bd b43a 37bd
000002c0: 1637 aebd 55dc fabd 8022 283e ea45 1e3e
000002d0: 3c27 3f3e bf76 fbbd 8eac 273e 1cdd 8abd
000002e0: 742e 57bd f896 76bd 3024 32bc c088 c8bd
000002f0: e082 fa3c 0c95 13be 1859 bc3d b405 40be
00000300: 3004 a6bd 80ed 1fbe 5875 1a3e d650 1d3e
00000310: 851d 36be 72e3 f9bd 72ed 4c3e 0871 853d
00000320: 5aaa 1d3e e76f 31be bcae ce3d 18ee 503e
00000330: 0abb 95ba a27d b6bb d6eb 233e 2764 853d
00000340: ba38 143e e13c 32bb 578f b4bd 5e26 0cbe
00000350: 767f 643e 58b5 90bc 9e32 4b3e 4079 3d3e
00000360: a27e f4bd c004 793c 2c46 6abd a00a 85bb
00000370: 48e8 163e 542b fc3d f10d 02be d198 e2bd
00000380: d4a9 22be 3c68 42be 9ee2 123e a27c 0dbe
00000390: c082 3f3b 0044 9fb9 40af 1c3d 0059 56bc
000003a0: 44a5 ed3d e090 fb3c a231 243e 38b4 453d
000003b0: 00c7 36bb a8c8 013d 9e9c 183e 503d 0a3d
000003c0: 804e 213e a0b3 adbc 0020 fe3a e65e 403e
000003d0: 0014 66be d64b bfbb 5c2c 363e bb4f 0dbe
000003e0: a2a3 6bbd 20b9 5cbc 84de 963d 8816 ad3d
000003f0: 707c 4f3d fca5 b43d 247c c4bd e7bb bc3d
0.20381185 0.011585608 0.105166554 0.008207008 0.06425834 -0.13777101 -0.17382425 0.17053202
0.084795296 0.11040875 -0.2219422 0.015117601 -0.20857006 -0.025588885 -0.011820823 -0.15731186
-0.22142108 0.0014716983 0.20108941 0.20151997 -0.13613659 -0.041626766 -0.18698971 -0.13244572
-0.03843346 0.19932972 -0.08350765 -0.0062297024 0.26629198 0.036438413 0.18514283 0.14858475
0.20967853 0.03834635 -0.18082686 -0.18892518 -0.113580815 0.1845597 0.12858114 0.06544441
-0.17028308 -0.16468745 0.18242946 -0.023211226 -0.22406134 -0.028187431 -0.055429753 0.0014260549
0.088454925 0.086040944 -0.17109916 -0.0024508089 -0.110813394 0.15125397 0.11072624 0.12318783
0.204969 0.10983622 -0.22344846 0.05642268 -0.15343574 0.029860646 0.0023900867 0.22177795
-0.1527732 -0.21908127 -0.059944317 0.036032975 0.16380182 0.18130076 0.17220992 0.07058665
-0.06390245 -0.047280073 -0.12228449 0.043726444 -0.15550525 0.076877415 0.14440763 0.1897454
-0.22040075 0.18139216 -0.14046815 0.045285814 0.26485214 0.13517624 -0.067035854 0.14339457
-0.13575122 0.17142361 0.22235583 -0.0101543665 0.03680101 -0.05246924 -0.14155492 -0.098966144
-0.017349014 -0.18293594 -0.18072218 0.024540216 -0.14549527 -0.12163003 -0.0019337386 -0.14838576
0.03952857 -0.12595353 -0.24104558 -0.13192664 -0.20673016 0.11519283 0.19212195 -0.12895659
-0.08312449 0.20868501 -0.16175584 0.05908242 -0.18543972 -0.19902022 0.00033834577 -0.12762082
0.12110224 -0.071277075 0.0022031516 -0.048093088 0.2405839 0.20897141 -0.050040733 -0.14393467
-0.17314318 0.21427417 0.08646048 0.09234652 0.038070023 0.112202525 0.07940504 0.11122385
0.13738467 0.031707466 0.19260105 0.13904321 -0.006845027 -0.10175432 0.014823034 0.23613375
0.19996788 -0.052237675 -0.021517985 0.1214476 0.17418946 0.20952141 0.11388761 0.07123798
0.0516797 -0.21014535 -0.08238068 0.030884806 -0.15555486 -0.19591704 0.15088606 0.07604998
-0.18044305 0.0132715255 0.13168713 0.12881425 0.20419964 -0.0884148 0.099565774 -0.18138587
-0.027581796 -0.14221293 -0.04257825 0.12729567 0.11147356 -0.11762046 -0.05544743 -0.044733718
-0.085066006 -0.12249056 0.1641941 0.15456358 0.1866731 -0.122785084 0.16374418 -0.067804545
-0.052534536 -0.06020257 -0.010872886 -0.09791708 0.030579984 -0.14412326 0.09196681 -0.18752176
-0.081062675 -0.15617943 0.15083826 0.15362868 -0.17784698 -0.12201585 0.20012453 0.065156996
0.15397015 -0.17327844 0.10091922 0.20403326 -0.001142354 -0.005569176 0.16007933 0.06513243
0.14474764 -0.0027196931 -0.088164024 -0.13686511 0.22314247 -0.017664596 0.19843528 0.18503284
-0.11938216 0.015198886 -0.057195827 -0.0040601045 0.14737046 0.12312952 -0.1270063 -0.11064304
-0.15885097 -0.18985075 0.1434426 -0.13817075 0.002922222 -0.00030377507 0.03825307 -0.013082743
0.116037875 0.03070873 0.16034558 0.048267573 -0.002788961 0.0316855 0.14903495 0.03374988
0.15752602 -0.021203816 0.0019388199 0.18786201 -0.22468567 -0.005837898 0.1779036 -0.13799946
-0.0575291 -0.013471872 0.0736666 0.08451563 0.050655782 0.088207215 -0.095939904 0.09215527

encoder.fc1.bias f4 [400]
00000000: bb6b 5fbe 2d36 a43b 3580 ac3c 9c9f a53d
00000010: 702c 1dbe caad 653e 6401 22be 004b a7bb
00000020: 686c 97bd 4479 eebd b7df 4f3a 86d8 91bd
00000030: ae1c 97bd c1ac 843e 8948 45be ff6c 1a3e
00000040: 82fa 4abc d1c0 773e 44b5 ccbd f38b 06be
00000050: 2613 243e 01e6 083e 3be3 7f3e 556a 8fbe
00000060: 0738 73be b000 97be 13d8 77be edc0 2d3d
00000070: 34fe 5cbe 008d 42bd 60f5 15bd 530a aa3d
00000080: 8615 623e 5874 a8bd f608 b3bd 2587 4a3e
00000090: 842b b4bb 93ae 28be b59b 9ebe 0eed 9f3d
000000a0: 747c 22be b046 72be 1ad4 943c 1134 233e
000000b0: bc87 5dbe 6ca6 78bc 6762 b03e 1495 ffbc
000000c0: 4953 773e f747 dabd b418 58be e4f1 853e
000000d0: 905e 5abd beb1 29be 6c12 22be edc6 4fbd
000000e0: c820 8ebe 1f23 38be 31b5 653c a0d4 a8bc
000000f0: b23c 81bd d7b6 51be 98a6 86bd 12e1 90be
00000100: e0b3 4cbe 8f91 e0bc bd5d c4bd 70d8 473e
00000110: 7a8e f6bd 78e8 11be 9466 cc3d d446 56be
00000120: 281e 333e bed9 243e 044b 0fbd 5e85 d33d
00000130: 03c3 9cbe b39a 48be a4da c23d cfc9 b63e
00000140: fe38 573e 9cf5 8d3d 383c 8ebe 5a15 8fbd
00000150: c7de 31be 7ce6 26be 507e a3bd 0840 07be
00000160: d1c6 913e 6388 47be 2cb2 6f3e ad32 36bd
00000170: cc49 20be a435 763e 27b7 88be 4fc0 f33c
00000180: 883c 773d 0b9a 63be 961b 483e fd83 febd
00000190: c8f4 28be 0c03 80bd 3465 1fbe 5e47 4fbd
000001a0: ccd8 10be c6fd 873e 092d fabd e339 acbe
000001b0: 8411 f73e 4f31 edbd 2396 ab3d 6f5e 1c3d
000001c0: 1a02 bbbd d895 73bd b4d8 413e 67d6 1d3e
000001d0: b717 e0bd 28b4 14bd 8c2e 76be 08be 183e
000001e0: f255 893e 4809 fcbc b884 63bd e2c3 50be
000001f0: fb4d 17be 37fe 8bbe 93a6 e6bd 8914 b83d
00000200: dc2f a13e ba99 bc3d 44b2 d6bd d7c5 e8bd
00000210: 2098 51bc f0f8 8f3e efcd eabc 4119 c2bd
00000220: 9c06 1cbd ba1a 93be 0c97 a23d 20d3 e13c
00000230: 5b72 2dbe 2a5d c0bd d293 f4bd 3248 20be
00000240: c988 c43e 6b12 56be 6e25 f4bc b3da 13be
00000250: 0c17 0fbe 9c5f 42be d6c8 433b e87d 34bd
00000260: bcea 9a3d f4fb 96be 4675 5ebe ff73 6ebd
00000270: 95af 30be 8061 67be 09b1 47be 0fc7 bc3e
00000280: 12f1 e3bd 2f6c f13d f613 8f3e 8281 15be
00000290: e1bc 563e ac2a 25be 2db4 013f 6b26 54bd
000002a0: 25d1 273e cff8 b9bd 20de 523d 20cc 82bc
000002b0: f137 833d 68b2 0f3d 19e7 25be b6d4 743e
000002c0: 54bb 2ebe 8d7c 983e 592e 8bbe 9fda 363e
000002d0: abc2 e03c 2b1d 38be c9ca 7dbe ea57 873e
000002e0: 8c69 08be 154f aebc 9303 813e 62f5 58be
000002f0: 84b7 0bbe 821c 9ebe 84c8 81bd b613 4ebe
00000300: 1da1 6c3e 4f82 93be dde3 61be 18d4 033d
00000310: a27a 89bd 8ec6 9d3e 500a 883e 0e8a b5bd
00000320: 07b3 4bbd a6b4 a83e f304 9d3d ddbb 733e
00000330: faf6 2e3d ecff 5cbe d40b 6a3e c8eb bc3d
00000340: ccbb dabb 1018 77bd 2fc8 e43d 1e59 87bd
00000350: 5ac6 2ebe 43d9 00be 20a4 6c3e 5d78 e73d
00000360: 768d 3ebe 6fd3 c0bd 602a 403d bdaf 12be
00000370: efbb 5d3d 6f3c 363e cc02 cfbd 31c3 adbd
00000380: 116d 1ebe f63b 2ebe 49fd a73e 306d 493c
00000390: a006 62bd d9df 74be 63cc dcbd ee3d 4abd
000003a0: 0213 13be b78c de3d b098 233d e23d 1cbe
000003b0: e00d 3e3e c1fa 92be 78dd a53e ccc0 913e
000003c0: fd0a f5bd 8136 8cbe 57c7 1cbe d826 37be
000003d0: 8cec dd3d 07eb 833e 5569 943e 3c1d a63e
000003e0: 1661 6abe d0db 603e dba1 353e 32da 5fbe
000003f0: dbb9 013e 0ccd 18be b03c 16be 0072 5c3b
-0.2181844 0.005011341 0.021057228 0.08087084 -0.15348983 0.22429577 -0.15820843 -0.0051053762
-0.07393724 -0.11644223 0.00079297594 -0.07121377 -0.07378517 0.2591305 -0.19265951 0.15080641
-0.012388827 0.24194647 -0.09995511 -0.13139324 0.1602293 0.1336899 0.24989025 -0.28010812
-0.23751841 -0.29492712 -0.2420352 0.042420316 -0.21581346 -0.04749775 -0.03661096 0.083027504
0.22078523 -0.08225316 -0.087419435 0.19778116 -0.0054983515 -0.16472845 -0.3097817 0.078088865
-0.15867788 -0.23659778 0.018167544 0.1593783 -0.2163381 -0.015176397 0.34450075 -0.031199016
0.24152865 -0.106582575 -0.21103173 0.2616111 -0.053312838 -0.1657171 -0.1582734 -0.05072682
-0.27759385 -0.17982148 0.01402025 -0.0206092 -0.06310405 -0.20479904 -0.06574744 -0.28296715
-0.19990492 -0.027413158 -0.09588192 0.19516158 -0.12038894 -0.14248836 0.09980503 -0.20925456
0.17491972 0.16098687 -0.03498365 0.10328172 -0.30617532 -0.19590263 0.09514359 0.35700843
0.21017835 0.06931612 -0.27780318 -0.06986494 -0.17370139 -0.1629886 -0.079830766 -0.1320802
0.28471997 -0.19485621 0.23407811 -0.044481922 -0.15653151 0.240439 -0.26702234 0.029754786
0.06036046 -0.22226731 0.19541773 -0.124275185 -0.16499627 -0.06250581 -0.1556595 -0.05060517
-0.14145201 0.265608 -0.12215621 -0.33637914 0.4825555 -0.115816705 0.08378246 0.038175996
-0.0913126 -0.059469074 0.18930322 0.15413819 -0.10942023 -0.036304623 -0.24041194 0.14916241
0.26823384 -0.030766144 -0.055546492 -0.20387223 -0.14775841 -0.27342388 -0.1126224 0.08988292
0.31481826 0.092090085 -0.1048322 -0.1136586 -0.012792617 0.28119612 -0.02866265 -0.09477473
-0.03809224 -0.28731328 0.07938966 0.027566493 -0.16938154 -0.0939277 -0.11942257 -0.1565254
0.3838561 -0.20905463 -0.029803004 -0.14438896 -0.13973635 -0.18981785 0.0029874346 -0.044065386
0.07564303 -0.294891 -0.21724424 -0.05821609 -0.17254479 -0.22595787 -0.19501127 0.3687062
-0.11129965 0.117882125 0.27944916 -0.14600185 0.20970489 -0.1612956 0.5066555 -0.05179445
0.16388376 -0.090806596 0.051481366 -0.015966475 0.06407154 0.03508225 -0.16201438 0.23909268
-0.17063648 0.29782525 -0.27183798 0.17856835 0.027436575 -0.17979877 -0.24784388 0.2643426
-0.13321513 -0.021277944 0.2519804 -0.21187356 -0.13644224 -0.30881125 -0.063370734 -0.20124707
0.23108335 -0.28810355 -0.22059579 0.03218469 -0.067128435 0.30815548 0.26570368 -0.088642225
-0.04973128 0.32950324 0.076669596 0.23802133 0.042716004 -0.21582001 0.22856075 0.09224659
-0.006675219 -0.060325682 0.111709945 -0.06608795 -0.17067853 -0.12582879 0.23109484 0.11302254
-0.1860865 -0.09415328 0.046915412 -0.14324851 0.054134306 0.17796491 -0.10107955 -0.084844954
-0.15471293 -0.17015061 0.3281043 0.012294099 -0.0551821 -0.23913516 -0.10781171 -0.049375467
-0.1436272 0.10866683 0.039940536 -0.15257981 0.1855998 -0.28706935 0.3239553 0.28467405
-0.119649865 -0.27385333 -0.15310417 -0.17885911 0.10836133 0.2576525 0.28986612 0.3244418
-0.22888598 0.21958852 0.17737524 -0.21860579 0.12668554 -0.14921969 -0.14671588 0.0033637285

encoder.z_mu.weight f4 [1, 400]
00000000: 8d51 2cbd 2477 49bc 07bc 483b 939a 023d
00000010: c964 edbd e679 933e ba39 5fbe 0b1d 85bd
00000020: e9d0 003d 681a 3ebc 1a10 43bd c900 203d
00000030: 42f4 e23c b73c 1f3e ec24 90bc 70d0 f63c
00000040: d492 4cbc b79b cc3e ed42 75be 2792 eb3c
00000050: 7224 863c ab6a 6ebc 4d91 423e 095a 1abe
00000060: 7b36 11be 2a47 13be 100a 7ebe 886c 38bc
00000070: c230 e33c c593 5ebd 40bb 033a ad5a 4bbd
00000080: c508 433e 329b 3abd 0469 753c 4696 af3d
00000090: 2c5f 2ebd deed cebd a60c 3fbe 56cf 5b3d
000000a0: af7e 6abe 41bb 89be 0b12 06b9 12ea a93b
000000b0: a681 a73c 2620 b3bc 5860 b43d c2a6 98bc
000000c0: dd60 153e 9b54 6ebd 4ac5 19be 272f 173d
000000d0: 6890 bebb 6387 45bd 2043 083c e256 33bd
000000e0: fa72 50be 67ab adbd 3f41 8bbd ad1b 0e3d
000000f0: e158 163d c86a a2be 1c75 c33c 60bd 5dbe
00000100: c8fa 213c 19e6 463d e6bd 10bd 38d0 db3e
00000110: 382b 56be 1860 abbb b939 2a3d d89c 27bc
00000120: be9a 433e b3a0 853e 5c00 e63c 620c e7bc
00000130: 16ab 4ebe 2e57 9fbe 94c6 41bc f378 233e
00000140: b89d dd3e 3d58 123d 2f31 3dbe 843a c23c
00000150: e2c8 da3c 4856 b9bc 109f ccbc daa8 47be
00000160: b9e1 883d 48bf 4fbc cd42 a63c 5aec 3fbd
00000170: b991 5e3c d4b2 283e f590 a8bd aaa4 19bc
00000180: 4072 b33b 7efa 0abe fe53 b83d d9e6 463d
00000190: 8d1c cfbd c0b9 d4bc b118 373d 7e38 0cbd
000001a0: 677a 46bd 4de8 f33d 5fbb 61bd 3924 d9bd
000001b0: b9d5 993d c927 93bd c676 cbbc 349d 7ebd
000001c0: 9030 e33b ee58 193e 21e2 f83d 07fc bf3e
000001d0: 431d 2cbe 8cb0 91bc 15bf 49be 3929 833c
000001e0: 883c db3e b81b 413c 2e5d a4bd b887 40be
000001f0: 4ae0 10bd aee1 0dbe 9f8d 003d fcd6 7c38
00000200: 933b 113f 46f4 0bbd 44e0 b5bd 4dfb d9bc
00000210: 83cc 9bbb 801d 623e ad2c 1abd ff38 c8bd
00000220: 9234 923c 40a4 7fbe 8425 4f3c 49a5 2a3d
00000230: 460e 11bd 7517 00be c53a d7bd a5aa 3d3d
00000240: acb3 9b3e 1f23 60be 8120 f5bc 0f22 93be
00000250: 4a75 e9bc c427 19be e115 52bc 90c4 edbb
00000260: 704d 53ba 2d2c aebe 4ae7 38be 5cce cc3c
00000270: 60a9 603b 2b0f 02be 09d7 273d b63a e33c
00000280: 0276 8e3c 2840 ac3c 9164 103d 4089 7dba
00000290: b6f6 9f3d f14a 31bd 6df9 643d d3eb 93bd
000002a0: b7f4 823e 2591 32bd 0efe b03c 580e ffbb
000002b0: 550e 9f3c 2846 2a3c 5aa3 a2bc f7a3 d63e
000002c0: 3246 14bd b1fb ec3e 46dd edbd ce12 0d3d
000002d0: 6e43 b4bc 9980 243d 65e9 fabd 3fa7 953d
000002e0: f789 ccbc 282d 9fbc 0f14 b63e b4a3 89be
000002f0: 2771 f6bc 42fc b5be 543e 07bd 9414 96be
00000300: 3026 1a3d 9854 87be 605d ff3a db47 37bd
00000310: 555d 0e3d a840 4f3d 2623 a63c 4132 84bd
00000320: 2e95 80bd 66f3 bc3e 0302 a93c 5d16 463e
00000330: 8009 5bbc e092 5bbb 034f 833e 42be 2ebc
00000340: 1dce 4abd 1be5 8bbd dec6 e73d d469 0bbd
00000350: d932 4fbd c835 d1bd 4695 d23e 0e29 123e
00000360: 584d dbbd 5f24 04be b2d2 ba3c fc53 37be
00000370: d91f ef3a b0df 1d3d faba 86bd 6508 88bc
00000380: ba19 db3c 53b2 abbe 9c28 133f 44e3 3dbb
00000390: f371 ca3d aaf1 9dbe d1c2 383d f777 36bc
000003a0: d878 15bc 41e1 fa3d a638 6abd 164a 87bc
000003b0: 76a2 dc3d 2257 adbe bec0 233e fff3 433e
000003c0: c0b0 95bd da58 3bbe 9b97 ccbe 8f6e a3be
000003d0: 55d3 ae3c ef2c b73e 77ef b73e 73ca 4d3e
000003e0: 3a50 1cbe 9ba3 c13d 765f 743e 60ab e5bd
000003f0: ddb0 e73d 6e19 1dbd 8f3c 33bd a3ca 3ebd
-0.04206996 -0.012296472 0.003062965 0.031885695 -0.11591489 0.2880394 -0.21799365 -0.0649968
0.031449232 -0.011602975 -0.047622778 0.03906325 0.027704362 0.15550505 -0.01759573 0.030128688
-0.012486178 0.3996255 -0.23951311 0.028756214 0.0163748 -0.014551799 0.1900074 -0.15073408
-0.14180939 -0.14382616 -0.24808526 -0.011256345 0.02773321 -0.054340143 0.0005025156 -0.049647022
0.19046314 -0.045558162 0.014978651 0.08573584 -0.04257123 -0.10103963 -0.18657169 0.053664528
-0.22899888 -0.26900676 -0.00012785957 0.005185374 0.020447563 -0.021865916 0.088074386 -0.018634204
0.14587732 -0.058186155 -0.15016666 0.036910202 -0.0058155544 -0.048224818 0.008316785 -0.04378403
-0.2035636 -0.08479958 -0.06799554 0.034694362 0.036705855 -0.31722093 0.023859553 -0.21654272
0.009886451 0.048559282 -0.03533735 0.42932296 -0.20914924 -0.005229961 0.041558955 -0.010230266
0.19101998 0.26099166 0.028076343 -0.028204147 -0.20182452 -0.311212 -0.01182713 0.15964107
0.43284392 0.03572868 -0.18475793 0.023709543 0.026707117 -0.02262415 -0.02497819 -0.19498006
0.06683678 -0.012679882 0.020295525 -0.04685626 0.013584548 0.16474468 -0.08230773 -0.009377638
0.005476266 -0.13572118 0.09000395 0.048559997 -0.101128675 -0.025967479 0.044701282 -0.034233563
-0.048456576 0.11909542 -0.05511033 -0.10602612 0.075114675 -0.07185323 -0.024836909 -0.06216164
0.0069332793 0.1497533 0.12152506 0.3749697 -0.16808037 -0.01778438 -0.19701798 0.016010867
0.4281962 0.011786394 -0.08025585 -0.18801773 -0.03537015 -0.13855621 0.03138506 6.02817e-05
0.5673153 -0.034168504 -0.08880666 -0.026609087 -0.0047546043 0.22081566 -0.037640262 -0.09776496
0.017847333 -0.24965 0.012643222 0.041661534 -0.035414003 -0.12508948 -0.10509256 0.046305317
0.30410516 -0.21888398 -0.029922726 -0.28736922 -0.02849831 -0.14956576 -0.012822599 -0.007256098
-0.00080605503 -0.34018078 -0.1805698 0.025000744 0.0034280643 -0.12701099 0.040976558 0.027737956
0.017390255 0.021026686 0.035252158 -0.0009671636 0.07810728 -0.04328436 0.055901933 -0.07222714
0.25577328 -0.04359545 0.021605518 -0.0077836923 0.019416014 0.010392703 -0.019853283 0.4192197
-0.036199756 0.46285775 -0.1161447 0.03444176 -0.02200481 0.040161703 -0.12251548 0.0730729
-0.02496813 -0.019430712 0.35562178 -0.26882708 -0.030083252 -0.3554402 -0.033018425 -0.29312575
0.037634075 -0.26431727 0.0019482784 -0.04474626 0.034756977 0.05059877 0.020280432 -0.06454898
-0.06278454 0.36904448 0.020630842 0.19344468 -0.013368964 -0.0033504292 0.2564622 -0.010665478
-0.04951297 -0.06830808 0.11317228 -0.034036472 -0.0505856 -0.10215336 0.41129512 0.14273474
-0.107081115 -0.129045 0.022805545 -0.17903131 0.0018243744 0.038543403 -0.06578632 -0.016605565
0.026745666 -0.33534488 0.5748384 -0.0028974572 0.09885015 -0.30848438 0.045107666 -0.011137
-0.00912305 0.12249995 -0.05718293 -0.01651482 0.107731745 -0.3385554 0.15991494 0.19136046
-0.07309103 -0.18295613 -0.39959416 -0.31920287 0.021341005 0.3577647 0.35924885 0.2009676
-0.15264979 0.094550334 0.2386454 -0.11214328 0.11313031 -0.03835433 -0.043758925 -0.04657997

encoder.z_sigma.weight f4 [1, 400]
00000000: 2494 503c 65aa 8e3b ad36 d7bc e0a6 4bbd
00000010: 26bf 3f3d 18d7 98bd d51f d83d a916 8f38
00000020: 20a3 2bbd 72e7 8f3c 9bdb e4ba 22bf 823c
00000030: 21e5 bd3c 0566 85be 478c b5bc e345 2dbd
00000040: 01ca fa3c 98a6 00bb c23e 313e d922 5d3c
00000050: 5aa7 32bd ac32 4f3d e7aa 3d3c 5acf d93d
00000060: 6eb1 333d cf2e 633c d403 a3be 1453 55bd
00000070: 006a a5bb 374e 0a3d 7522 323d 1dab 83bd
00000080: 439f 6a3d 6b75 813d e507 3f3d c2fa a4bc
00000090: 1101 e13c a909 f13d 490a 443d 4392 633d
000000a0: fb8e 42b9 5137 e43d 44eb 8b3d d5fc f1bc
000000b0: 1ac3 8a3c d925 413d 0ec6 b7be 619a 033d
000000c0: 1648 e53c 0b42 003d 553b 8d3b e3b5 84be
000000d0: d058 36bd 1299 a03c ec29 54bc eb00 633c
000000e0: 4968 853e d3d4 c33c 44c8 043d 32e9 ea3c
000000f0: 2d2a e6bc 583e bb3d d114 0f3d b783 013c
00000100: 4cbf 723c 6be5 26bd aac1 ae3b 6c12 5b3c
00000110: a7a4 1d3e 7d6b fabc 92f4 33bd a872 0ebc
00000120: a666 c5be cd72 c43b 4bca 003c 374e 763d
00000130: 66a4 183e 9f2f 3e3e 4bd6 6e3d 667b 15be
00000140: 0a12 42be c230 3f3d 17d5 2c3e f9c7 dcbc
00000150: b75a f93c c4e4 ee3c 0912 443d b6bf 503e
00000160: e8cf dc3c f0d4 f03b a05e 29bd 0829 d0bb
00000170: 63f8 be3b 429c acbe 2347 e13d 6fa5 903c
00000180: 7c4c 0abd 4e5f a63d f06b b33a fcbc 783c
00000190: 6af8 5a3c 4527 e43d 1815 9a3b 8710 bbbc
000001a0: 18fd 39bd 9356 99be 27f4 1c3d a40c 5f3d
000001b0: bf5c 80be 6b1b 8d3d 7ea7 5abd 26d4 543c
000001c0: 8cb6 09bc fddf 23bb ac25 8cbe 3376 eabe
000001d0: 9899 0ebe 0017 e7bc 79ea 47bc c2d3 183d
000001e0: ba5d b1ba accd 713c 4717 22bc 4848 393e
000001f0: 9249 d53c 2d7e 6a3f b4cf 1e3c 1dc9 43be
00000200: 4a9b 97be c5f9 b3bd db24 1fbd 97fc b5bc
00000210: 585f 323d e960 92be e4de 6abc 6c16 393e
00000220: 4a6f fb3c 914a e03d 1c72 85bc d095 943b
00000230: 9deb 07bd 0abe d23a d667 dbbe 194a 243d
00000240: 5061 93be 2cef eb3d 07fc 973c cac3 09be
00000250: 96e3 c33c 92f7 cf3d dfc1 aa3c 77c8 ccbc
00000260: 333f 8c3d a7d4 0ebe 1814 843d f6bd 1abb
00000270: d2ad a73c 8b7a 273d 7222 f43c 844d 60be
00000280: af6b 45bd c7d6 663c ddc7 ae3a bf57 223d
00000290: 2a39 a7bc 13f6 a73d 50bb 93be a37a 383d
000002a0: 21ca 833b 063d 50be d564 21bd 6ec1 b63c
000002b0: 97c8 483c 9284 d33c a44a 3dbd 979b 52bc
000002c0: 35b5 2d3d 760e 96be d68d df3d 9c66 2ebd
000002d0: 1ab2 1fbd 7d08 c6bc 5e62 ba3d 36ed d53b
000002e0: e8bc ac3b 295a 94bc 1f86 c3be f0a6 2c3e
000002f0: 3d54 033d d4f6 f5bd c6d8 0bbd 1546 51be
00000300: f8d6 eebc 81d8 41be f992 423d f318 47bd
00000310: 44cc 4d3c acee 71bd c5eb 5f3a aa34 383d
00000320: 8d6b ef3c 0294 a2be 1369 3ebc 561a acbe
00000330: 8263 bb3c d46a 0cbd 03b0 99be b9f5 04bb
00000340: b671 1dbb b9d4 f43c 025e d5bd 0b73 24bd
00000350: d580 8fbe 2337 7e3d 251d a3bd 5712 3e3d
00000360: 8926 ff3c 4283 233e 192e 133d e501 efbd
00000370: b4e0 e63c 9d08 02ba 4ecb f13c 3862 e83b
00000380: f042 1dbd dd43 243e 3eee adbe 3afe d33b
00000390: bc18 10be 6f6e 1e3e f5ba 46bd a40e 29bd
000003a0: 603f e3bc 6c78 84bd 87a9 b2bd 8ebe ea3c
000003b0: da07 92bc a1c5 393c 8757 b4bd 0341 02be
000003c0: faa4 503d 7ce4 443e 788c e73d 9ea9 f93d
000003d0: ecce 5b3d 702f ecbd 015c 65be a410 8ebe
000003e0: 691a 193e 06bf 023c d1a5 3cbd efbe f53d
000003f0: 601c d1bc 36ab d63c 74a9 18bc 078b cdbc
0.012730632 0.0043538087 -0.026271189 -0.04971969 0.046813153 -0.07462901 0.105529465 6.822992e-05
-0.041903615 0.017566416 -0.0017460467 0.01596028 0.023180546 -0.26054397 -0.022161616 -0.042302977
0.030613901 -0.0019630548 0.17309096 0.013497078 -0.04361663 0.050585434 0.011576391 0.10635252
0.043870382 0.0138661405 -0.31838858 -0.052081183 -0.0050480366 0.033765998 0.043489892 -0.06429122
0.05728079 0.06321224 0.04663839 -0.020139102 0.027466329 0.11769421 0.04786137 0.055559408
-0.00018554546 0.11143363 0.06831983 -0.029539505 0.016938735 0.047155235 -0.3589329 0.03212965
0.027988475 0.031312983 0.0043100514 -0.2592002 -0.044518292 0.01960424 -0.012949448 0.013855199
0.26056126 0.023905193 0.03241755 0.02867565 -0.028096283 0.091427505 0.03493196 0.007904938
0.014816117 -0.040746134 0.005333145 0.013371091 0.15394841 -0.030568833 -0.043934412 -0.008694328
-0.38554877 0.0059951306 0.00786073 0.060133185 0.14906463 0.18572854 0.058309834 -0.14597854
-0.18952194 0.04667736 0.16878162 -0.026950823 0.030438764 0.029161818 0.047868762 0.20385632
0.026954606 0.007349603 -0.041350007 -0.0063525476 0.00582795 -0.33712965 0.109998964 0.01765701
-0.033764347 0.08123647 0.0013688784 0.015181776 0.013364891 0.111403026 0.0047022216 -0.02283503
-0.045407385 -0.29948863 0.03831878 0.054455414 -0.2507076 0.06889995 -0.05338239 0.012990033
-0.008405339 -0.0025005334 -0.2737249 -0.45793304 -0.13925779 -0.02820921 -0.012201899 0.037311323
-0.0013531961 0.014758509 -0.009893245 0.1809398 0.026036058 0.9159878 0.009693075 -0.19119687
-0.29610664 -0.08787874 -0.038853507 -0.02221517 0.043547958 -0.28589562 -0.014335368 0.1807496
0.030692715 0.109517224 -0.016289763 0.0045344606 -0.033183683 0.0016078365 -0.42852658 0.040109728
-0.2878518 0.11520228 0.018552793 -0.13453594 0.023912232 0.10154642 0.020844398 -0.024997933
0.06847992 -0.13948308 0.06449145 -0.002361176 0.020468626 0.04088835 0.029801581 -0.2190457
-0.0481984 0.014089293 0.001333471 0.039634462 -0.020413 0.08201232 -0.28853846 0.04503883
0.0040218984 -0.20335779 -0.0394028 0.022309031 0.012254856 0.02582005 -0.04621376 -0.012854478
0.04240914 -0.29307908 0.10915725 -0.042578325 -0.03898821 -0.02417397 0.09100793 0.006528522
0.005271543 -0.018109398 -0.38188264 0.16860557 0.032062758 -0.12009969 -0.034142278 -0.2043689
-0.02915524 -0.18930246 0.047503445 -0.048607778 0.012560908 -0.059065506 0.00085419073 0.0449721
0.029226089 -0.31753546 -0.011621731 -0.33613843 0.022874597 -0.034281567 -0.300171 -0.0020288064
-0.0024024076 0.02988659 -0.10418321 -0.040148776 -0.2802798 0.0620643 -0.07964543 0.04640421
0.031146305 0.1596804 0.035932634 -0.11670283 0.028183319 -0.000496039 0.029515889 0.0070917867
-0.038393915 0.16041513 -0.33970827 0.006469515 -0.14071935 0.15471815 -0.04851814 -0.041273728
-0.02774018 -0.06468281 -0.08723741 0.028655317 -0.01782601 0.011338622 -0.08805757 -0.12720113
0.050938584 0.19227785 0.11306089 0.12190555 0.053664133 -0.115324855 -0.22398378 -0.2774707
0.14951481 0.007980114 -0.046056572 0.11999308 -0.025526226 0.026204687 -0.0093177445 -0.025090707
